dqn_model.pth (torch, 75356 bytes, 6 tensors)

fc.0.weight f4 [128, 6]
000000 2e 52 3e be 3c a3 9e 3d 2b 7b af bb ab b0 97 3e
       -0.18586037 0.07745978 -0.005355259 0.29626974
000010 c9 2d b6 3e 16 c2 5a be fd 66 1f 3e 66 fc c5 3e
       0.35581806 -0.213631 0.1556663 0.38669127
000020 81 3d 1b be 7f a1 30 3e a4 ec 19 3e 88 be ed 3e
       -0.1516018 0.17249106 0.15031677 0.46434426
000030 18 44 8d 3e 2f 07 22 be 21 29 59 3e d6 a0 18 3f
       0.27591014 -0.15823053 0.21207096 0.59620416
000040 8d be 6e 3e 94 3d 17 be cf ba 7c 3e d8 d9 63 3e
       0.23314877 -0.14769584 0.24680637 0.2225107
000050 a0 bb 97 be 7c 4f 93 3e bd c6 0e 3e e6 f0 c0 bd
       -0.29635334 0.2877158 0.13943 -0.09420948
000060 b5 5d 8a bd d3 6f b1 3e aa e1 fd 3e fb 9c 97 be
       -0.067561544 0.34655628 0.4958623 -0.29611954
000070 5b fa db 3d 4a 49 31 bc 0a 02 53 3e 08 47 48 be
       0.10741111 -0.010820696 0.20606247 -0.19558346
000080 02 de a2 3e 4e 80 83 3e 3d dd 07 3e e9 01 8d be
       0.31810004 0.25683826 0.1326799 -0.2754052
000090 ce 5a 5a be e3 9f 27 3f 79 06 a5 3e e5 21 39 be
       -0.21323702 0.6547834 0.322315 -0.18079336
0000a0 7c 09 22 3c a0 fb e1 3e 37 1d ea be fe 10 11 3f
       0.009889957 0.44137287 -0.45725414 0.56666553
0000b0 08 8b ff 3d a5 b4 e9 be d8 03 af 3e a0 01 66 3e
       0.1247769 -0.45645633 0.3418262 0.22461557
0000c0 52 aa d8 3d 86 09 d4 bd 5c d8 43 be 25 06 b3 3e
       0.10579361 -0.10353379 -0.19125503 0.34965625
0000d0 fe 21 33 bf 13 48 cf be b6 bc 0c bf 0e e5 d2 bd
       -0.6997374 -0.40484676 -0.5497545 -0.10297595
0000e0 e7 b1 c8 bd 8f fb 89 3d 82 5b c1 3e 98 28 24 3d
       -0.09799557 0.06737434 0.37765127 0.040077776
0000f0 8a 05 e2 3d 2f d0 e0 bd 85 b7 3a bd 2f f1 9c be
       0.11036213 -0.10977208 -0.045585174 -0.30652758
000100 34 8b 36 be 7c 36 c7 3d af 01 86 3e 55 0e a8 3e
       -0.1782654 0.09727189 0.2617316 0.32823434
000110 2e e3 ab be f1 08 8e be c4 37 13 3e f2 75 34 3e
       -0.33571762 -0.27741197 0.14376742 0.17623118
000120 18 bc 46 3e a1 00 af be 4f 6d c5 bd c2 d6 ef 3e
       0.1940769 -0.34180167 -0.096399896 0.46843535
000130 4a d4 0e be 6d 14 ab be b7 28 d4 be 70 49 98 3e
       -0.1394817 -0.3341402 -0.41437313 0.29743528
000140 7a 75 17 3e 7b 62 1f be a1 6e fb 3d c6 e3 97 be
       0.14790908 -0.15564911 0.1227696 -0.29665965
000150 dd 00 e6 3d 3e be e0 bc dd b3 75 3e ea 30 85 be
       0.112306334 -0.027434465 0.23994394 -0.2601388
000160 67 cd f1 bd 7f e6 07 bd 2c d9 1a 3f 66 5f 8d 3e
       -0.118067555 -0.033178803 0.6048763 0.27611846
000170 88 17 58 be cd 23 a1 3e 5b b7 e1 bd 1d fb b3 3e
       -0.21102726 0.31472626 -0.110213004 0.35152522
000180 b9 21 f3 bd 91 3b a4 be 26 fc 8d 3e 2e b2 ab bd
       -0.118716665 -0.32076696 0.27731436 -0.083835945
000190 ac bd 95 3e 48 9a 52 3e fd 1b 03 bf bf 2a e2 3e
       0.2924627 0.20566666 -0.5121458 0.44173238
0001a0 f9 15 8b 3c 90 e5 2d be ef 74 8c 3e 7c 02 cf 3e
       0.01697825 -0.16982102 0.27432963 0.40431583
0001b0 84 e4 76 be bb 49 bc bd e9 e7 58 3e 83 09 4b be
       -0.2411061 -0.091937505 0.21182217 -0.19827847
0001c0 34 33 dd be cf 48 01 3e 4c 99 85 3e 0b 0f 2c 3e
       -0.43203127 0.1262543 0.2609352 0.16802613
0001d0 fc 6b 4b be f1 46 05 be 5e 1d 52 3e 10 ef b0 3c
       -0.19865412 -0.13015343 0.20519015 0.021598369
0001e0 3e 1f ea 3c 77 3c 0b bf 54 28 ad be b2 a9 13 3f
       0.02857935 -0.5438914 -0.3381983 0.5768081
0001f0 5c 42 aa 3d d2 57 39 3e b2 e8 ac be 54 a3 ea 3e
       0.08313438 0.18099907 -0.33771282 0.45827734
000200 32 73 ef bd aa 07 25 be 4e d1 9f 3e 14 83 a2 3e
       -0.11691894 -0.16116205 0.31214374 0.3174063
000210 18 3f 30 3d 4b 17 81 bc 08 b5 3b 3e 02 22 54 3e
       0.04302892 -0.015758177 0.18330777 0.20716098
000220 e4 1f a5 be d9 c0 80 be 93 57 9a be 0b 89 a7 3e
       -0.32250893 -0.2514713 -0.3014494 0.32721743
000230 dd 90 a5 3e 82 48 c7 be 06 db bb 3d 17 f4 f9 3c
       0.32337084 -0.38922507 0.09172635 0.030511899
000240 72 5b fa 3c c4 be 7c 3e 68 38 96 3e 81 6c a5 bc
       0.030561183 0.24682146 0.2933991 -0.02019334
000250 34 29 8c bc 6b 34 f7 3d 79 c4 cc 3e b6 2d 43 3e
       -0.01710949 0.12070545 0.39993647 0.19060406
000260 19 d2 80 be 29 f6 c0 3e 4c e3 e0 be 40 2c 85 be
       -0.25160292 0.37687805 -0.43923414 -0.26010323
000270 27 0a 9d 3e 08 72 8f 3e 9a d8 45 be 23 83 81 3e
       0.30671808 0.28016686 -0.19320908 0.25295362
000280 a8 08 cf 3d e1 26 82 3e 1f 7c bd be cb 02 8a be
       0.10109073 0.25420287 -0.3700876 -0.26955256
000290 d1 6f bc 3e 2c 1e 73 3e c7 15 af be e9 83 db 3d
       0.3680406 0.23741978 -0.34196302 0.10718519
0002a0 e6 17 3d be 5f 69 0f 3e be 82 2f be a9 50 29 3e
       -0.18466148 0.1400504 -0.17139718 0.16534676
0002b0 28 ac b5 be e4 8b c1 bc 23 f5 7f 3e 45 f8 16 be
       -0.35482907 -0.023626275 0.24995856 -0.14743145
0002c0 8a a5 9b 3e f2 33 55 3d 9d 75 68 3e 1d d8 70 be
       0.30399734 0.052051492 0.22701116 -0.2351994
0002d0 e4 c6 71 3e a6 53 5c 3d 35 f7 22 bf 4e e9 95 be
       0.23611027 0.05379071 -0.6365846 -0.2927956
0002e0 70 05 4e 3d 82 52 59 be 1e e3 26 3e dd d4 3a 3e
       0.050298154 -0.2122288 0.16297576 0.18245263
0002f0 b4 f5 90 bc 50 b1 1b 3e f9 bf c0 3e fa 51 7f bd
       -0.017695285 0.15204358 0.37646464 -0.06233404
000300 31 e5 b5 bc 6c dc eb be cf 33 c4 be 17 cd 0f 3f
       -0.022204014 -0.46066606 -0.38320777 0.5617232
000310 10 db 86 3e 3e b4 32 3e b8 e2 da 3e b2 91 ac be
       0.26339006 0.1745157 0.42751098 -0.33704907
000320 38 07 34 3e 54 66 35 3e 48 88 00 be ef 9d 91 bd
       0.17580879 0.17714816 -0.12551987 -0.071102016
000330 86 ac 4f 3d 86 30 68 3e cd 16 c0 3e 48 ce a6 be
       0.05070164 0.2267476 0.37517396 -0.32579255
000340 cd b4 94 3d d5 66 b8 3e b0 2c 16 3f e1 62 f9 bc
       0.072610475 0.36015955 0.5866194 -0.030442657
000350 13 12 48 bf f4 42 09 be b0 05 6c 3e 81 e9 30 be
       -0.7815258 -0.13404447 0.23049045 -0.17276575
000360 12 ab 83 bc 32 01 3c be 71 62 94 be 3c 96 bb 3e
       -0.016072784 -0.18359831 -0.28981355 0.36638057
000370 45 5e ea be ed 8e 1e 3c 99 ea f8 be 9d fc ad be
       -0.45775047 0.009677631 -0.48616484 -0.3398179
000380 4a 45 64 3e 9e 53 97 3e ab 0a b4 3d 0f 85 f6 bd
       0.22292057 0.29555982 0.08791097 -0.12037098
000390 85 36 0c 3f 51 b3 8e be 11 93 32 be f5 7f 25 be
       0.5477069 -0.27871183 -0.17438914 -0.16162093
0003a0 22 30 15 be 2e 94 b2 3e b9 01 c4 be 56 75 54 be
       -0.14569142 0.34878677 -0.38282564 -0.20747885
0003b0 5f e4 c1 be b9 ad ca be ba b2 ac 3d f2 8c 8e bc
       -0.37869546 -0.39585665 0.08432527 -0.017401192
0003c0 34 84 5f 3d 74 89 19 be 14 cf 83 3e 28 3c 72 3d
       0.054569438 -0.1499384 0.25743926 0.0591394
0003d0 86 f1 4d 3e 03 ee a3 bd f9 93 31 3e 5f a6 a1 3c
       0.20111665 -0.080043815 0.17341603 0.019732652
0003e0 a5 ae 86 3e af 2d 6b 3d 59 56 bd 3e a6 6d 7c 3d
       0.26305118 0.057416614 0.3697994 0.061628006
0003f0 ab aa d0 be 90 c2 32 be 19 64 8b be 86 ca 3c be
       -0.4075521 -0.17457032 -0.27224806 -0.18436632

fc.0.bias f4 [128]
000000 c7 22 2b 3f 40 35 d8 3e ae d0 bd bd e6 66 18 3f
       0.6684994 0.42228127 -0.09268318 0.5953201
000010 34 75 a8 3e 5e 78 9f 3e 2f df 37 be d2 b1 e2 bd
       0.3290192 0.3114652 -0.17956232 -0.11069073
000020 01 94 ee bd c0 94 a7 3e 45 f2 90 3e ca b4 d4 3e
       -0.11649323 0.32730675 0.28309837 0.4154418
000030 2d 60 7d 3e 55 bb ab be 2f f6 03 3f 06 70 59 bd
       0.2474372 -0.3354136 0.5154752 -0.05308535
000040 07 2b 06 3f 4d 5d bc 3e 51 d4 56 3e 48 13 aa 3e
       0.52409405 0.36789933 0.2097943 0.33217835
000050 a1 1f d1 bd 02 ad d9 3e ed 71 09 3f 4c 6f 90 3e
       -0.10211111 0.42514807 0.5368946 0.28209913
000060 27 61 c9 3e 49 36 80 3e 6a f7 01 3f 1a c6 91 3e
       0.39331934 0.25041416 0.5076815 0.28471452
000070 41 f9 c2 3e ee a4 09 3f b6 aa 14 3e 63 02 f6 3d
       0.3808079 0.5376729 0.14518246 0.12012174
000080 22 80 84 bd b8 37 04 be 71 eb 54 3e 4f fc c6 be
       -0.06469752 -0.1291188 0.20792939 -0.3886437
000090 b0 48 f5 3d b1 f6 f0 3e a7 43 10 3f 02 98 fc 3e
       0.11976755 0.4706321 0.5635323 0.49334723
0000a0 ae 3a 90 3e 11 bb 97 3e 87 2a 11 3f 02 b3 d8 3e
       0.2816977 0.29634908 0.56705517 0.42324072
0000b0 ff 12 0e 3f 4a 27 f6 3e 78 b2 02 be aa a2 d9 3e
       0.55497736 0.4807685 -0.12763393 0.42506915
0000c0 99 fe ce 3e 10 ff 88 bb 68 c9 03 3f b3 64 a5 bd
       0.40428618 -0.0041807964 0.51479197 -0.080758475
0000d0 8d 62 1c 3f 6b 01 10 3f 1b c8 d8 bd 68 b9 d7 3d
       0.61087877 0.56252164 -0.10585042 0.1053341
0000e0 18 38 5d be 40 76 65 3e 5a 5e 0f 3f e0 80 75 be
       -0.2160343 0.2240839 0.56003344 -0.23974943
0000f0 b0 76 b8 3e 81 2b bc be b2 e7 65 3e 38 e2 0d 3f
       0.3602805 -0.3675194 0.22451666 0.5542331
000100 f8 f0 d1 bd 94 4c be 3e 4e e8 f3 3e 0a 2e 6d be
       -0.10251039 0.371678 0.47638172 -0.23162094
000110 59 dd c3 3e a3 ee 4f 3e dc 1e 43 3e 85 44 90 3e
       0.38254812 0.20305876 0.1905474 0.28177276
000120 ab 8b a6 3e 44 6c b2 3d 6c 1a 99 be 88 67 5e be
       0.32528433 0.08712056 -0.2990297 -0.21719182
000130 06 e2 40 bd d6 91 3e 3e ac 7b 3f 3e 02 ba 31 3d
       -0.047090553 0.1861032 0.18699521 0.04339028
000140 8b ca c5 3b 4e e3 f7 3e 80 c4 0d 3f 32 35 e0 3d
       0.006036108 0.48415607 0.5537796 0.10947646
000150 c6 a6 c4 3e a5 a8 e9 3e a3 28 05 3f 18 da d9 3e
       0.38408488 0.45636478 0.5201513 0.42549205
000160 1e 6e 9d 3d e4 7d 12 bd 63 d8 41 be f6 f9 72 bd
       0.07687019 -0.03576459 -0.18930201 -0.059320413
000170 aa aa d1 3e 80 24 01 be 66 cb 5e 3e b7 a4 aa 3e
       0.4095052 -0.1261158 0.21757278 0.33328792
000180 ff 36 cd 3e 7f 17 56 be 5b aa d9 3e d1 eb 85 be
       0.4008102 -0.209074 0.42512783 -0.26156476
000190 68 db 01 be a7 20 63 bd eb 5c 60 3e 54 20 f2 3e
       -0.12681353 -0.05545106 0.21910445 0.4729029
0001a0 fc 6a ff 3d d4 9f a6 3e a9 ca 06 3e 34 2d 9c 3e
       0.124715775 0.32543814 0.13163246 0.30503237
0001b0 0e 87 2f 3d 82 c4 4e 3e c8 cd 71 3e 2e 0b b0 be
       0.042853408 0.2019215 0.23613656 -0.3438353
0001c0 b7 3d 86 be 40 9a 10 bf 8d c2 5f 3f 23 a7 43 3e
       -0.2621896 -0.56485367 0.87406236 0.19106726
0001d0 d6 f2 7b be 5c b5 a4 3e c0 9d fd 3e be 1c 20 3e
       -0.24604353 0.32169616 0.49534416 0.15635964
0001e0 70 c6 d7 bd 8b 9e ef 3e 06 b2 ff be 96 94 96 3d
       -0.10535896 0.46800646 -0.4994051 0.07352559
0001f0 e8 11 95 be bc f8 bc 3e 5b fb cc 3e be db e8 3a
       -0.29115224 0.3690852 0.4003552 0.0017765684

fc.2.weight f4 [128, 128]
000000 30 2e 91 bd dd 6c f4 3d 51 b7 a3 be 12 6d 6a bb
       -0.07088888 0.119348265 -0.31975797 -0.0035770577
000010 6b ac a5 3c 23 2f b5 3b 9e d4 55 be 88 c2 8e bd
       0.020223817 0.005529301 -0.20881888 -0.06970698
000020 1f 88 91 be 53 cf 03 3e 06 4c c0 bd fd ee 1c 3d
       -0.28424165 0.12872057 -0.093895 0.038313854
000030 dc 06 71 bd 6a 3d 0a bd e1 b7 2f bc fb 70 85 be
       -0.058844432 -0.033749975 -0.0107249925 -0.2606276
000040 3e 25 29 3e ef e0 31 be da 3d 82 bd f1 cc e8 3d
       0.16518113 -0.17370962 -0.063594535 0.113672145
000050 06 2c 21 b9 60 fa d1 3d 42 bc 21 bc 4f 8e b9 3b
       -0.00015370557 0.10252833 -0.009871544 0.0056627165
000060 22 89 a5 3d 9b 55 18 be ee df 10 3d 83 fc 8b bd
       0.08082797 -0.14876406 0.035369806 -0.06835272
000070 ba d5 a7 bd 3e b0 c4 3d dd 05 58 be db d7 26 3d
       -0.08195062 0.09603928 -0.21095987 0.0407332
000080 38 99 b3 bb 44 32 a2 bb cb c0 25 bd 18 48 97 be
       -0.0054809116 -0.00494984 -0.040467065 -0.2954719
000090 09 99 2f be c0 79 ba 3d 9c c6 2b 3d 39 70 c4 3d
       -0.17148222 0.09105253 0.041937456 0.09591717
0000a0 3b 5d 34 bc dd b7 9a 3d 50 35 15 3d f8 3c 66 be
       -0.011008556 0.075546004 0.036427796 -0.22484195
0000b0 f6 ea 13 bc 9f 3d 91 bd 47 1d 13 3d 9d 9e c3 be
       -0.009028187 -0.070918314 0.035916593 -0.3820695
0000c0 1e fc 20 3e 61 37 0c be 6e 84 58 3d 73 33 d8 bd
       0.15721175 -0.13693 0.05286067 -0.10556688
0000d0 8c d0 08 3e 25 31 4b bb f6 7f 35 bd db 7f 46 3d
       0.13360804 -0.0031004634 -0.044311486 0.048461776
0000e0 91 40 83 3d 23 9b ac 3d 97 cd 4a be 25 20 fe bd
       0.064087994 0.084280275 -0.19804989 -0.12408475
0000f0 bf 0d 88 3d 55 60 7f be 8c 7c a2 bd 26 0d 94 bc
       0.06643247 -0.24939092 -0.07933912 -0.018072676
000100 43 83 b5 bd 94 44 9f 3d 2a b3 1f be 8b 09 0a be
       -0.08862927 0.07776752 -0.1559569 -0.13480203
000110 98 c0 9e bc 2a 0c e9 bd 31 2c a7 bd 6d 7b c1 3d
       -0.019378945 -0.11379273 -0.08162726 0.0944737
000120 83 b8 8b bd 3b 3f f1 bd 2a 82 c4 3c 7b df 81 be
       -0.06822302 -0.117796384 0.023987848 -0.25365815
000130 28 09 c2 bd 9d fa 43 bd 7c ec 5d 3d 31 95 29 3e
       -0.09474403 -0.047846425 0.054180607 0.16560818
000140 10 03 b2 bd 35 14 23 3e 73 b1 3b 3e 42 6a 13 3d
       -0.086919904 0.15925677 0.1832941 0.035990007
000150 0e b6 6f 3d 10 26 62 3d 3b 29 03 3e 9c da a7 be
       0.05852323 0.05521208 0.12808697 -0.32783973
000160 e8 84 e3 bd 44 17 a4 be de 36 a4 be ca cb 93 be
       -0.11109334 -0.32049 -0.3207311 -0.28866416
000170 05 3a 45 be d5 62 de be f8 1c 83 3d 4c a0 ae bd
       -0.19260414 -0.43434778 0.0640201 -0.08526668
000180 1d 60 65 bc 08 e8 68 3b bd ab 2d 3c d9 e2 94 be
       -0.013999966 0.0035538692 0.010600028 -0.2907932
000190 7a eb eb be 69 ce 99 bd bf a3 de 3c 27 75 b6 3d
       -0.46078092 -0.07510073 0.02717769 0.08909064
0001a0 e3 69 8a bd c1 a8 8c be 57 7b 44 3d e3 f6 ac bd
       -0.067584775 -0.274725 0.04796919 -0.084455274
0001b0 80 57 92 3d ec b6 64 3d 63 09 ae 3d 28 9b 0d be
       0.071455956 0.05583851 0.08497884 -0.13828719
0001c0 81 91 df be dc 0a 46 be 03 8c 3b be 72 46 8e bd
       -0.43665698 -0.1934008 -0.18315129 -0.0694703
0001d0 d2 68 20 be da 68 83 bd 75 89 a0 bc da 2f 06 3d
       -0.15664986 -0.06416483 -0.019596795 0.03276048
0001e0 03 af fd bd ef 58 1b 3d a0 f8 f3 bc 61 0a d4 bc
       -0.123868965 0.03792661 -0.02978164 -0.025883855
0001f0 3f d9 d5 bd bf 91 95 bb 59 8a d4 be fd 11 61 be
       -0.10441827 -0.0045644934 -0.415118 -0.21979518
000200 d5 1b a3 3c e0 69 82 3d 81 da d1 bd b2 a5 be 3d
       0.019910732 0.0636785 -0.102467544 0.093089476
000210 53 6e 77 bb a6 d8 12 3e f1 4c f8 3d 7f 35 9f bd
       -0.0037754967 0.14340457 0.121240504 -0.077738754
000220 82 90 32 be 81 00 e0 bd 19 b0 70 3d 94 4f f7 bd
       -0.17437938 -0.10937596 0.05876169 -0.12075725
000230 d3 6f 20 3d 62 b0 8d bd 94 35 0a 3e 9c 58 52 bd
       0.039169144 -0.06918408 0.13497001 -0.051354036
000240 d6 34 e3 3d 5c 38 99 bd 12 9b 85 bd 82 0b 67 bc
       0.11094062 -0.07481453 -0.06523718 -0.014101865
000250 5b cf 3f be 99 ad 31 3d 58 c0 98 bc 06 f2 4f 3d
       -0.18731444 0.043378446 -0.018646404 0.05076792
000260 07 c7 14 3d 1c 04 4b bc 5b 4a 04 3e c8 53 76 3d
       0.03632262 -0.0123911165 0.1291899 0.060138494
000270 02 bb d1 3d 3d 90 02 3e d0 11 08 be bb 2a 7d bd
       0.10240747 0.12750335 -0.13288045 -0.06180833
000280 94 fb 0d be 01 7e 15 3c 4f f1 bf 3d 88 01 79 be
       -0.138655 0.00912428 0.09372198 -0.2431699
000290 9a 78 be 3d e3 c1 f6 3c 21 01 f2 bd ff 2a 10 be
       0.09300347 0.03012175 -0.118166216 -0.14078902
0002a0 f7 06 ac 3d a1 d1 5d 3d 14 46 e3 ba ee 30 f7 bd
       0.08399766 0.054154996 -0.001733961 -0.120698795
0002b0 10 38 a7 3c b0 dc ab 3d 33 23 03 be 39 db 11 be
       0.020412475 0.08391702 -0.12806396 -0.14243783
0002c0 2a c4 38 bd 55 52 88 bd 2a 7c 58 3c 8b 30 34 3e
       -0.04510895 -0.066563286 0.013213197 0.17596643
0002d0 bb c0 d8 bc fe d8 de 3d 5d 19 22 be 86 b3 15 3d
       -0.026459089 0.10881232 -0.15829988 0.03654816
0002e0 02 3a 2d 3e db 4d ce 3d d2 cd 8c 3c d7 69 fb 3d
       0.1691666 0.100734435 0.017187987 0.12276047
0002f0 a3 d0 1c bd 3b 0c b0 bd 42 87 fe bb f8 8b 17 bd
       -0.03828491 -0.08596083 -0.007767589 -0.03699872
000300 87 23 16 3d 72 b1 0d 3d fe 47 38 3d 65 5f 1a 3d
       0.036654975 0.034593053 0.044990532 0.03768863
000310 01 e8 b9 be da 03 ea bc 19 77 15 3e 05 b4 85 bd
       -0.36309817 -0.02856629 0.14596213 -0.065284766
000320 9b 2e f8 bd b0 ac 9a 3d 24 14 8c be 44 f2 39 3e
       -0.12118264 0.07552469 -0.27359116 0.18158823
000330 09 91 78 be 5e c7 0e 3d 56 b8 5e 3a 3f bf 3b be
       -0.24274077 0.0348581 0.0008496096 -0.18334673
000340 2a b4 c7 3d d7 fa 05 bd 2b 0a 1c be 8a 47 ee bb
       0.097511604 -0.032709923 -0.15238254 -0.0072717117
000350 33 a9 07 3e 48 1b 47 bd a9 91 0e 3e d5 70 8e bc
       0.13248138 -0.04861 0.13922752 -0.017387787
000360 2a ec dd 3c ae 35 7a bd c8 da 13 bd 8c 6a 35 bd
       0.02709015 -0.06108635 -0.036097318 -0.044291064
000370 68 a4 b9 bc 30 5f 33 be 20 f8 00 ba 65 6c 20 3d
       -0.022661403 -0.1751678 -0.0004919786 0.039165873
000380 88 09 aa bc 35 a5 f7 bd f0 6c 51 3b 97 4e a8 3d
       -0.020756498 -0.120920576 0.00319558 0.08218115
000390 5e cf ad be 0e b0 22 3d 85 5b 86 be dd f2 8b 3d
       -0.3394727 0.03971868 -0.262417 0.06833432
0003a0 3d db 80 3e ef e9 96 3c 14 a4 66 3d 72 a4 9d bd
       0.25167266 0.018422095 0.05630882 -0.07697381
0003b0 0e 21 26 be 88 c0 05 3e d9 5e d1 3c 57 c9 a4 bd
       -0.16223547 0.13061726 0.025557922 -0.08046215
0003c0 94 35 e7 be 15 7c 8d bd 89 ce 6c be 88 20 04 be
       -0.45158064 -0.069084324 -0.23125662 -0.12903035
0003d0 74 2f 3b be ce 13 37 3e 87 b6 86 3d 01 1b fd 3d
       -0.1827982 0.17878649 0.06577783 0.12358666
0003e0 53 c0 39 be 78 b2 95 be 09 9f 54 be 52 66 48 be
       -0.18139772 -0.29237723 -0.20763792 -0.19570282
0003f0 f3 6e 8a bc 07 e0 2f 3e e2 d4 91 be a2 7e 98 bc
       -0.016898608 0.17175303 -0.2848273 -0.01861507

fc.2.bias f4 [128]
000000 29 58 c2 3d 46 52 0a 3e a6 10 59 bd e3 74 db bc
       0.094894715 0.13507947 -0.052994393 -0.026789134
000010 cf 04 18 3d 31 10 f5 3c 39 bc dd 3d ef 04 a5 3d
       0.03711396 0.029914947 0.10826916 0.08057582
000020 a1 df c7 3c 4b fa 15 3d e8 90 8c 3d 1b 38 af bc
       0.024398627 0.03661565 0.06863576 -0.021389058
000030 fb e3 ea 3c e6 b8 b6 3d 00 9e cc 3d cd 2c 33 3d
       0.028673163 0.08921985 0.099910736 0.043743897
000040 06 a6 c5 3d 6a d6 6d 3d 73 2b 89 bd 09 a1 cb 3c
       0.09650807 0.05806581 -0.066977404 0.024857061
000050 ee 2e 01 3e cd 6b 00 3e ab 66 5e 3c 85 31 77 3d
       0.12615559 0.12541123 0.013574283 0.06034996
000060 cf 30 bb bd 76 a7 04 3e d7 80 81 3d 46 f5 8d bb
       -0.09140169 0.12954506 0.063234024 -0.0043322174
000070 e3 c4 fd bc ce cc 87 3c 13 99 78 3b 73 3e cb 3d
       -0.030977672 0.01657715 0.0037933036 0.099240206
000080 a5 60 12 3d a7 56 e9 bc 32 6c f0 3d 7e 89 b2 bc
       0.0357367 -0.028483702 0.117393866 -0.021794077
000090 60 dd 0c 3d fd 33 97 3d f1 0b b6 bb f7 2a 65 bd
       0.034390807 0.07382963 -0.0055556227 -0.055949178
0000a0 31 44 21 bc 8a 23 b3 3d d7 8b c8 3d 6d e9 5b 3d
       -0.009842918 0.08747013 0.09792297 0.05368941
0000b0 70 6c c3 bc 88 41 84 bb ad 83 0a bc 0c 5b 2b 3d
       -0.023855418 -0.0040361322 -0.0084542455 0.041834876
0000c0 20 50 c2 3c 5d 17 3a 3e 02 00 06 3e e8 4a 85 3c
       0.023719847 0.18172975 0.1308594 0.01627107
0000d0 2c af 02 be 74 ae 44 bd 17 4b 33 3d f7 60 ff 3d
       -0.12762135 -0.048017934 0.043772783 0.124696665
0000e0 ad 4f a8 3b ad 1a f4 3c de 75 ea 3c 3a 4b e7 3d
       0.005136451 0.029797876 0.028620657 0.11293645
0000f0 7f c5 39 3d fe 3c cf 3d d5 93 e7 3c 8e 57 8e 3b
       0.045354363 0.10119055 0.028268734 0.0043439334
000100 5c 03 c8 3d 3b 6f 3d 3d 9a 70 bc 3d 79 44 19 3e
       0.09766266 0.046248656 0.092011645 0.14967526
000110 be e9 d8 3d 51 39 e6 3d e0 f0 19 3d 63 5c be bb
       0.10591458 0.11241401 0.037583232 -0.005809353
000120 80 63 f6 3d 64 e5 ba bc 5f ed ad 3d c5 dc 35 3d
       0.12030697 -0.02281446 0.084925406 0.044399995
000130 67 c6 be 3d 3e b9 a5 3d 76 ae 19 3e ce c4 95 bd
       0.09315186 0.08091973 0.15007958 -0.07312928
000140 c6 41 c9 bd f7 74 3e 3d b3 b5 a1 3d 30 da 48 bd
       -0.098269984 0.046498265 0.078959845 -0.049036205
000150 0f ed dd 3c 24 72 9e 3d 39 39 bd bd dc 6d 6b bc
       0.027090577 0.07736614 -0.0923943 -0.014369454
000160 8c 86 a5 bc 7b f7 be bb 88 87 ec 3d 43 6c 2d 3a
       -0.020205759 -0.005827842 0.11549288 0.00066155585
000170 59 2f 8b 3d 9a 65 15 bd 15 fb b1 3d ae a6 f3 bc
       0.0679614 -0.036473848 0.08690468 -0.029742565
000180 06 9c 00 3d 06 87 77 3d e3 12 83 3d 40 26 93 3d
       0.031398796 0.060431503 0.06400087 0.0718503
000190 72 0d 0b 3c 92 79 8c 3d df 5b 47 3c 80 9e ef 3d
       0.008487092 0.06859125 0.0121679 0.11700153
0001a0 91 09 fa bd 70 b1 da 3c a4 91 f0 b9 12 ef 48 3d
       -0.12208856 0.026695937 -0.00045884878 0.04905612
0001b0 b2 92 61 3d 0f 2c 9f 3d b0 d4 66 bd f9 a3 95 3e
       0.05507154 0.077720754 -0.05635518 0.29226664
0001c0 e4 a6 bc bc 30 7f 0f 3e db 7b 53 bd cf f0 02 3b
       -0.023028798 0.14013362 -0.05163179 0.001997996
0001d0 36 24 05 3e 56 4c 1b 3e 1a ae b4 bc 8c 1f 20 bc
       0.13002095 0.15165839 -0.022055674 -0.009773146
0001e0 1e ff db 3d 84 ea 40 3d 9e 0d 3e 3d 79 ea 30 bd
       0.10742019 0.04709865 0.046399705 -0.04319236
0001f0 48 d6 0b 3d e1 1f 07 3e 98 db a1 3d 6b a6 83 3c
       0.0341399 0.13195755 0.07903212 0.016070565

fc.4.weight f4 [6, 128]
000000 61 c9 00 3e e5 b4 b9 3d b2 44 2b bd a4 97 89 bd
       0.1257682 0.09067706 -0.04181356 -0.06718376
000010 c8 3a 36 b9 d7 e1 cb be 22 cf 73 3b d5 ad d9 3d
       -0.0001737877 -0.3982074 0.0037202318 0.10628859
000020 b0 24 83 bd 60 56 a5 3e 47 45 2b 3e 71 02 d4 bd
       -0.06403482 0.3229246 0.16725646 -0.10352028
000030 26 b5 44 3e 6a 63 be 3d 22 32 2f 3d e8 50 ad 3e
       0.19209728 0.092963055 0.04277242 0.3385079
000040 7a df 35 3e f4 99 93 bd 43 ee 96 3b 39 a2 39 3e
       0.17761031 -0.072070986 0.0046060397 0.1812829
000050 da 10 07 3e 98 ac b8 3d ab 9b 85 3d 15 22 8c 3d
       0.13190022 0.09017295 0.06523832 0.06842438
000060 7c f2 a0 3a 0f bf 33 3e dc 3b 70 3d a1 9a 16 3e
       0.0012279297 0.17553352 0.058650836 0.14707424
000070 ce 34 5a bd 8c f0 8b 3e 86 a9 18 3e a8 c4 7d 3d
       -0.053273015 0.2733196 0.14908418 0.061955124
000080 2d 76 e7 bc 30 b7 c2 3c 33 3d c6 3d 5e 33 02 bd
       -0.028254593 0.023768991 0.096796416 -0.03178727
000090 6e d4 83 bc 61 e2 47 3e 51 71 26 3e 5a df 9b 3c
       -0.016092505 0.1951995 0.16254164 0.0190274
0000a0 b5 b6 08 3e 07 20 32 3e 72 8f 5b 3e 62 f7 c9 3c
       0.13350947 0.1739503 0.21441439 0.024654094
0000b0 36 53 9a bd 41 07 71 3e 5c 9f e5 3d 80 dd 41 3e
       -0.075354025 0.23537923 0.11212036 0.18932152
0000c0 c2 6c 44 3d ea 0f 87 3e 53 e4 a0 3d 76 c5 8f 3e
       0.047955282 0.2637933 0.078560494 0.28080338
0000d0 ba f1 fa 3c e2 4e 9d bc db 29 49 3e 18 b6 46 3d
       0.030632842 -0.019202653 0.19644873 0.048513502
0000e0 33 58 01 3e a2 62 15 be 3a 75 4b 3e eb 0e 43 3e
       0.12631302 -0.14588407 0.19868937 0.1904866
0000f0 87 d5 bb bc 9a a3 43 3d fd 83 9f 3d 29 83 8b 3d
       -0.022928966 0.047763444 0.07788847 0.06812126
000100 e8 4e 8f 3d fc 96 4f 3c 3d bb 05 3e 91 ce 6f 3c
       0.06997472 0.012670275 0.13059707 0.014636652
000110 d6 30 f3 3d 8e 86 a3 3d 87 ea 11 be 30 be 57 3e
       0.11874549 0.07984649 -0.14249621 0.21068645
000120 a2 1e 41 3e 5f 36 bc 3c ef 4f 2b 3e af 67 6a bd
       0.18859342 0.022975145 0.16729711 -0.057227787
000130 da ad 35 3e 51 ee 06 3e 00 d8 10 be 21 37 4f be
       0.177421 0.13176848 -0.14144897 -0.20235874
000140 f3 9d 36 bc 39 b1 9c 3e 67 bd 2a 3e ff 16 b4 bd
       -0.0111460565 0.3060396 0.16673814 -0.08793449
000150 25 74 53 3c e0 e9 5d 3e 12 47 fb 3b c8 8b ff 3d
       0.012906109 0.21671247 0.0076683844 0.12477833
000160 be b6 84 3e af ab cc 3d 98 87 a0 3c 2c d6 6e 3d
       0.2592067 0.099936835 0.019595906 0.05830972
000170 94 92 be 3d da 25 30 bd 7a 56 e0 3d e6 75 2b 3e
       0.09305301 -0.043004848 0.10953994 0.16744193
000180 5c cc 20 3e cb 17 2b 3c 45 c0 5f 3e 7a d2 98 3d
       0.15702957 0.010442684 0.21850689 0.0746202
000190 dd a6 bc 3d c3 6a 3b 3e d5 69 91 3e 3e 43 9d 3e
       0.09211514 0.18302445 0.28401056 0.30715364
0001a0 23 7a 80 be 37 a1 6a 3e da 10 8f 3e 55 53 2d 3c
       -0.25093183 0.22913061 0.27942544 0.01057895
0001b0 ed 20 5a 3d ba 97 51 be 96 be b1 bc 39 7f 15 be
       0.053254057 -0.20468035 -0.021697324 -0.14599313
0001c0 2e 62 53 3d 57 27 9a be 5a 07 34 3d 71 b5 01 3e
       0.051607303 -0.3010814 0.043952323 0.1266687
0001d0 86 0b d6 3d 00 dc 3f 3e f6 1b 9d 3e 5a 22 15 3e
       0.10451417 0.18736267 0.30685395 0.14563885
0001e0 dc 1e 1d 3e 1f 7d 44 3e 23 fa 43 3e 84 12 47 be
       0.15343803 0.19188355 0.19138388 -0.19440657
0001f0 39 a7 12 3d ef a2 01 3e 8b 79 41 3e e0 ad c8 bc
       0.035804007 0.1265981 0.18894021 -0.024496973
000200 b0 57 2b 3e bc ab 60 3e ce 68 38 3c 97 82 2d 3d
       0.16732669 0.21940511 0.011255456 0.04236087
000210 22 73 2a 3e 97 5d a4 3e 5a ce 08 3e 40 c7 3c 3c
       0.16645482 0.32102653 0.13359967 0.011522114
000220 8f cf bf 3c 0d 0c ef bd 14 4d e1 3d bc 08 7c 3e
       0.023414401 -0.116722204 0.110010296 0.24612707
000230 68 64 2d 3e da 58 8c 3e 4e 68 09 3e bd ce 47 3e
       0.16932833 0.27411538 0.13418695 0.19512458
000240 d7 b5 bf 3d f4 57 44 be ce 82 91 3c 99 2e 6e 3e
       0.09360855 -0.19174176 0.017762568 0.23259963
000250 fb d6 42 3c 8a 65 ba 3d fc 44 28 3e 4f a4 19 3e
       0.011892076 0.09101398 0.16432565 0.15004085
000260 c7 a1 39 bd 96 b8 0e 3e f9 fa cd 3d 02 33 36 3e
       -0.0453203 0.13937601 0.10057635 0.17792895
000270 a1 89 37 bd 99 95 04 3d 2d 57 28 3d d0 94 15 3e
       -0.044808988 0.03236923 0.041098762 0.14607549
000280 ca 39 7e 3d a4 95 4a bd 56 a3 0c 3e 4a 71 d0 3b
       0.06206683 -0.049459115 0.13734183 0.0063611614
000290 fb b1 a0 3d 2f 98 fc bc 59 70 9f 3c 64 7e 11 bd
       0.07846447 -0.030834286 0.019462751 -0.035520926
0002a0 7f d1 eb 3d 9f 1d 82 3d 83 69 68 3e b5 51 25 3e
       0.115145676 0.06353306 0.226965 0.1614445
0002b0 43 2b a1 bd cc 7a 86 3b ff 9e 02 3d 0e cb 0b 3e
       -0.0786958 0.004103994 0.03188991 0.13651678
0002c0 8a 31 01 3e 0d 22 d4 be 97 72 9c 3d 3d bc 4c 3e
       0.12616554 -0.4143223 0.07639044 0.19993682
0002d0 5d 75 88 3d 46 9d 34 3e 8f 83 59 3d 06 67 57 3e
       0.0666301 0.1763812 0.05310398 0.21035394
0002e0 18 14 dd 3d 78 6b c9 3e 8b dd 44 3d 5c 6c c9 3d
       0.10794848 0.39339805 0.048062842 0.09835121
0002f0 d5 a8 6e 3e 08 f7 6a 3e 4b 2a 37 3e ef 48 4f 3e
       0.23306592 0.22945797 0.17887227 0.20242666
000300 94 89 06 3e 83 c0 2b 3e ff 66 96 3d 78 35 3d 3e
       0.1313842 0.16772656 0.07343864 0.18477428
000310 3c 28 7d 3d 91 d2 45 3e 3d b6 83 3e 33 72 6e 3d
       0.06180595 0.19318606 0.25724974 0.058214378
000320 5a f5 33 3e 24 6d 05 bd f3 3f 88 bb ed c3 01 bd
       0.17574063 -0.032574788 -0.004158014 -0.03168099
000330 92 69 e8 3d 44 f4 16 3e 0c 1b 3a 3d 46 e5 a6 3e
       0.11348261 0.14741617 0.04543595 0.32596797
000340 80 62 0e bd 24 5d 84 be 35 2c 0a 3e a0 b9 d0 bc
       -0.034761906 -0.2585231 0.13493426 -0.025479138
000350 75 86 fe 3c c4 c7 48 3e 80 f2 cc 3c 79 7f 23 3e
       0.031069973 0.19607455 0.025017977 0.15966596
000360 56 d5 74 3e 84 2c e0 3d 3e d6 35 3e 39 1c 53 3d
       0.23909506 0.10945991 0.17757508 0.051540587
000370 67 51 3e 3e ed 29 49 bd 7d 79 f6 3d 56 16 02 be
       0.1858574 -0.04911225 0.12034891 -0.12703833
000380 06 b2 bb 3d 18 d7 3d bc e7 f6 8b 3d 41 f8 58 bd
       0.09164815 -0.011586927 0.06834202 -0.05297113
000390 bc ed ab 3c c1 84 cd 3d e9 13 7a 3e 85 e9 10 3e
       0.020987384 0.100350864 0.24421658 0.1415158
0003a0 d5 64 ef 3e a4 69 09 3e a4 9c 64 3e a3 a4 5f 3e
       0.46756616 0.13419205 0.22325379 0.21840148
0003b0 51 fa 59 3d 26 36 67 3e e9 e8 2b 3e 07 39 da 3d
       0.053217236 0.2257925 0.16788067 0.10655408
0003c0 02 dd 2f 3d b6 92 71 be bc 94 31 bc ec 64 cb 3d
       0.04293538 -0.23591122 -0.010838684 0.09931359
0003d0 34 a4 8e 3d 99 20 c9 3b 8b 13 22 bd 36 c0 e9 3c
       0.06964913 0.006137919 -0.03956942 0.028534036
0003e0 6d 1d 82 bc 7a f6 eb 3d 48 93 31 bd 7c d4 61 3e
       -0.015883172 0.11521621 -0.04335335 0.22053713
0003f0 20 cc 2c 3e fe 4c 29 3c aa 26 46 3e 82 a8 53 3e
       0.16874743 0.010333298 0.19350687 0.2066975

fc.4.bias f4 [6]
000000 a6 87 31 3d be 5d ed 3d 8d f2 bd bc 87 4f 29 3c
       0.043342255 0.115901455 -0.023186946 0.010333902
000010 a8 b6 a0 3d 9f bb 68 3d
       0.07847339 0.056819554
