Assets/bot_brain_latest.pth (torch, 181730 bytes, 6 tensors)

net.0.weight f4 [256, 18]
0	0xbdee1696	-0.11625402
1	0x3e65bdcc	0.22435683
2	0xbecac267	-0.39601442
3	0xbebf91b6	-0.37415856
4	0xbea3c45e	-0.31985754
5	0x3eb380c1	0.3505917
6	0xbe9e15d7	-0.30876037
7	0xbece9bec	-0.40353334
8	0xbdb67bc4	-0.08910325
9	0xbc344ca3	-0.0110046
10	0xbc8abfd7	-0.01693718
11	0xbeab4df4	-0.3345791
12	0x3d81be3a	0.06335111
13	0xbdab4f6c	-0.08364758
14	0xbdaccff6	-0.08438103
15	0xbe6977fe	-0.2279968
16	0xbe3621d1	-0.17786337
17	0x3ea2e322	0.31813914
18	0xbe2b3f7d	-0.16723438
19	0xbe5e4367	-0.217054
20	0x3e2bdbc8	0.16783059
21	0xbce0dc1a	-0.027448703
22	0x3e9ef661	0.31047347
23	0xbdc985cb	-0.09839972
24	0xbd9865df	-0.07441305
25	0x3d82d27a	0.063878015
26	0x3e1d279d	0.15347143
27	0xbeee81e2	-0.46583468
28	0xbd4fab0b	-0.05070023
29	0x3c4f44e0	0.012650698
30	0x3e68c021	0.22729541
31	0xbe5b9069	-0.21441807
32	0x3c7b2f90	0.015331164
33	0xbd12be73	-0.035826158
34	0x3eb76549	0.35819462
35	0xbdb0e20b	-0.08636864
36	0xbd319424	-0.04335417
37	0x3ea2731d	0.3172845
38	0xbd924350	-0.07141745
39	0xbe5baf67	-0.2145363
40	0x3e078ecb	0.13238065
41	0x3e71cccb	0.23613279
42	0x3e4dac06	0.20085153
43	0xbd926170	-0.07147491
44	0x3b049011	0.0020227472
45	0x3dd55a23	0.10417583
46	0x3dae30b5	0.08505384
47	0xbea41d9c	-0.3205384
48	0x3d84bb32	0.06481017
49	0x3da0ed7e	0.07857798
50	0xbe25925e	-0.16169116
51	0xbda5f19a	-0.081027225
52	0xbe28546a	-0.16438451
53	0x3e8bb20f	0.27284285
54	0xbe8fe1f0	-0.28102064
55	0x3e42f8c6	0.19040212
56	0xbedfc705	-0.43706527
57	0x3dc1208d	0.09430037
58	0x3c58a9d3	0.013224083
59	0x3e1b8315	0.15186723
60	0xbda725a9	-0.0816148
61	0x3e1ab0f8	0.1510657
62	0xbdace7cf	-0.084426515
63	0xbeb7dc44	-0.35910237
64	0x3d92fe75	0.0717744
65	0xbd3bbbba	-0.045833327
66	0xbce2b070	-0.027672023
67	0xbd1e546c	-0.03865473
68	0xbe12e6aa	-0.14345804
69	0x3cc7b938	0.024380311
70	0xbecdc57f	-0.4018974
71	0xbea49ab5	-0.32149282
72	0x3dd0b681	0.1019106
73	0xbdad223a	-0.08453794
74	0xbe056ad4	-0.13029033
75	0xbe4fde7b	-0.20299713
76	0x3c390d2e	0.011294646
77	0x3e4507da	0.19241276
78	0x3db1e7e5	0.086868085
79	0x3e66af2a	0.22527757
80	0xbe2c879c	-0.16848606
81	0x3df1f9ed	0.11815248
82	0x3ded64ca	0.115914896
83	0xbeb6e742	-0.3572331
84	0xbe15c34d	-0.14625283
85	0xbd9ab5dc	-0.07554218
86	0xbd7a0d48	-0.061047822
87	0xbe5616ff	-0.2090721
88	0x3e848c5a	0.2588833
89	0x3e7c342d	0.24629278
90	0xbd8da27f	-0.06915759
91	0x3e43e240	0.19129276
92	0x3db6a385	0.089179076
93	0xbea840ef	-0.3286204
94	0xbdd03e3d	-0.10168121
95	0x3e2a57ed	0.16635104
96	0xbdc46e13	-0.095913075
97	0x3c048998	0.0080894455
98	0x3d8d1d75	0.06890384
99	0x3e839e4f	0.25706717
100	0x3d3b30e7	0.045700934
101	0xbe738f27	-0.23785077
102	0xbddf9d82	-0.10918714
103	0xbd96d258	-0.07364339
104	0xbe1ea7ab	-0.15493648
105	0x3d6f4482	0.058414944
106	0x3e6aa130	0.2291305
107	0x3dea8413	0.114509724
108	0x3c48fcac	0.012267273
109	0x3ed602a7	0.417989
110	0xbe4879ab	-0.19577663
111	0xbe6ef85e	-0.23336932
112	0x3e82f279	0.25575617
113	0x3e220167	0.15820847
114	0x3e5dd41a	0.21662942
115	0x3c5c79e1	0.013456793
116	0xbe1be37c	-0.15223497
117	0x3d0a99c8	0.033838063
118	0x3e5621d7	0.20911346
119	0x3d3e6aec	0.046488687
120	0xbe4888d0	-0.1958344
121	0x3dbd3b7a	0.0923986
122	0xbda2d52e	-0.07950817
123	0x3e72dd59	0.2371725
124	0x3e99fbc9	0.3007491
125	0x3db88675	0.09010021
126	0x3c6e8367	0.014557696
127	0xbe238d96	-0.1597198
128	0x3ecdce9a	0.40196687
129	0xbe47de15	-0.19518311
130	0x3d5f77f5	0.05455776
131	0x3d6bfa2a	0.057611622
132	0x3dd72f46	0.105070636
133	0x3ec6a4f8	0.38797736
134	0xbbbc3bd0	-0.005744435
135	0xbee51701	-0.44744113
136	0x3e390317	0.18067585
137	0x3ec58bbc	0.3858317
138	0x3d3c503c	0.045974955
139	0x3d1adb2c	0.037806675
140	0x3e44dcbf	0.19224833
141	0xbc38dc4a	-0.01128299
142	0x3c5b0029	0.013366737
143	0x3e67c3a2	0.22633222
144	0xbe54ca20	-0.2078023
145	0x3e327b52	0.17429855
146	0x3d0d59bb	0.0345094
147	0xbd79c689	-0.060980354
148	0x3d6c03bd	0.057620753
149	0x3ef5330f	0.47890517
150	0xbee409bd	-0.4453868
151	0xbf3e745d	-0.74396306
152	0x3dca3972	0.09874238
153	0x3ef95157	0.4869487
154	0x3dffb802	0.124862686
155	0xbd169d59	-0.036771152
156	0x3e548adf	0.207561
157	0x3e53c0ed	0.20679064
158	0xbda199e6	-0.07890682
159	0x3bb2bef0	0.0054548904
160	0x3ef0de4b	0.47044596
161	0x3dbee42a	0.093208626
162	0xbe318fa3	-0.1733995
163	0x3e7ef63b	0.24898617
164	0x3c764391	0.0150307575
165	0xbed292cc	-0.41127622
166	0x3ea33fe9	0.31884697
167	0xbd346fcc	-0.04405193
168	0x3de8edc5	0.11373476
169	0x3e863373	0.26211128
170	0xbcd93d32	-0.026518438
171	0xbd633a7b	-0.055475693
172	0x3e1d172d	0.15340872
173	0xbbb0a7c3	-0.0053910925
174	0x3c448280	0.011994004
175	0xbe6049d1	-0.21903159
176	0xbe113464	-0.14180142
177	0x3da9b331	0.08286131
178	0xbda9be53	-0.082882546
179	0x3e8220ea	0.25415736
180	0x3da37e3a	0.0798306
181	0xbdb4f73d	-0.088362195
182	0xbb2d37cc	-0.0026430963
183	0x3edd4355	0.43215433
184	0xbe8497f7	-0.2589719
185	0x3ef88351	0.48537686
186	0x3d2c609e	0.04208433
187	0x3e293e06	0.16527566
188	0x3e4107ba	0.18850604
189	0x3e9b3ccf	0.3031983
190	0xbd1a0eb5	-0.037611682
191	0x3e695aa1	0.22788478
192	0xbc998d30	-0.018744081
193	0xbe5ba292	-0.21448734
194	0x3d81979a	0.06327744
195	0x3cf76b27	0.030202461
196	0xbc8e1c5c	-0.017347507
197	0x3eda580b	0.42645296
198	0xbe8d6ae2	-0.27620608
199	0x3e2b5465	0.16731413
200	0x3e8f0467	0.27933046
201	0xbe79fc94	-0.24412757
202	0x3ea03d4f	0.31296775
203	0x3f09bdf8	0.53805494
204	0x3e1a4c8b	0.15068261
205	0xbe315ee0	-0.17321348
206	0xbe237d63	-0.159658
207	0x3daf9786	0.08573823
208	0xbe07c77a	-0.13259688
209	0x3e44a9ad	0.19205351
210	0x3d40ccec	0.04707043
211	0x3d97acba	0.07405992
212	0x3e06059b	0.13088076
213	0xbeb3eedd	-0.35143176
214	0x3ba96b01	0.0051702266
215	0xbea3644d	-0.3191246
216	0x3ab2127c	0.0013585831
217	0x3d50ec71	0.051006738
218	0x3e53f5c2	0.20699218
219	0x3ee4b9cb	0.44673
220	0x3b1bc17f	0.0023766456
221	0x3e9d15b1	0.30680612
222	0x3cafca99	0.02145891
223	0xbe6c351f	-0.23067139
224	0xbd7d3de3	-0.061826598
225	0xbe098d6f	-0.13432859
226	0x3be0c326	0.006859201
227	0x3e92fcb6	0.28708428
228	0xbe04a33d	-0.12952895
229	0xbe267b45	-0.16257961
230	0xbe01e1a2	-0.12683728
231	0xbe6efa41	-0.23337652
232	0xbd056a4a	-0.03257207
233	0xbecd4e4b	-0.40098795
234	0xbdfd80cf	-0.12378084
235	0xbe2dadf2	-0.16960886
236	0x3e1fcda5	0.15605791
237	0xbe9f32f6	-0.31093568
238	0x3ec246c8	0.37944627
239	0x3ed78c7a	0.42099363
240	0x3e3c008d	0.18359585
241	0x3e814d7d	0.2525443
242	0x3e6ca43c	0.23109525
243	0xbeaf7be3	-0.34274206
244	0xbb7272b5	-0.003699464
245	0x3dde4d82	0.10854627
246	0xbb7dcbc0	-0.003872618
247	0xbdd77ce0	-0.10521865
248	0xbe54dfdc	-0.2078852
249	0xbdefc13a	-0.11706777
250	0x3e983d84	0.29734433
251	0x3e9b1b50	0.30294275
252	0x3e51bec1	0.20482923
253	0xbe62711a	-0.22113457
254	0x3db4661e	0.0880854
255	0xbddf7b3a	-0.109121755

net.0.bias f4 [256]
0	0x3ecbab89	0.39779308
1	0xbd4f7f0e	-0.05065828
2	0x3eda5530	0.42643118
3	0xbe17edb9	-0.14836778
4	0x3dc69bd7	0.09697693
5	0x3e8dfa2f	0.27729937
6	0x3e7f511e	0.24933288
7	0xbe890334	-0.26760256
8	0x3c6cdec7	0.014457411
9	0x3e2a9f01	0.16662218
10	0xbdc13190	-0.094332814
11	0x3e0c0073	0.13672046
12	0x3bdc5258	0.0067236833
13	0xbe262af8	-0.16227329
14	0xbda61184	-0.081088096
15	0x3eaa511e	0.33265013
16	0x3ec1a725	0.37822834
17	0xbd80c3f0	-0.06287372
18	0x3edcf7ea	0.43157893
19	0xbd8619e8	-0.0654791
20	0x3d99e771	0.07514847
21	0x3e44ec78	0.1923083
22	0x3de095d8	0.109660804
23	0x3e0a1742	0.13485435
24	0xbe85005f	-0.25976846
25	0x3eaba3c5	0.33523384
26	0xbb72ed29	-0.0037067628
27	0x3e75d221	0.24005939
28	0x3ce11bdb	0.027479103
29	0x3e28c137	0.16479956
30	0x3e61a4b1	0.22035481
31	0xbe46fa36	-0.19431385
32	0xbd13f081	-0.036118034
33	0x3e4596cc	0.19295806
34	0x3e3c87e0	0.18411207
35	0x3ebeaa51	0.37239316
36	0x3d6242a7	0.055239346
37	0x3e70c0de	0.23511073
38	0x3d9b365d	0.07578728
39	0x3f05f5ca	0.5232817
40	0xbd6c6ca0	-0.05772078
41	0x3eb46d85	0.35239807
42	0x3edc684a	0.43048316
43	0x3e95cf7c	0.2925986
44	0x3e2c015d	0.16797395
45	0x3e2e2297	0.17005382
46	0x3e9f83da	0.31155282
47	0x3e713b04	0.23557669
48	0xbe1b0c03	-0.15141301
49	0x3ece9420	0.40347385
50	0x3e6f9f74	0.2340067
51	0x3ea5d3fa	0.32388288
52	0xbc1a45df	-0.009416073
53	0x3c8ce12c	0.017197214
54	0xbd3c8ae7	-0.046030905
55	0x3da0dfc6	0.078551814
56	0x3ec6ecf4	0.38852656
57	0x3d781dbc	0.060575232
58	0x3e8d7037	0.27624676
59	0x3ec70b63	0.38875875
60	0x3eabf20b	0.33583102
61	0x3eafc20c	0.34327734
62	0xbd252a20	-0.040323377
63	0x3dc79aea	0.097463444
64	0xbdd23ea8	-0.10265857
65	0x3ede3b19	0.43404463
66	0x3d17abef	0.037029203
67	0x3e3b3519	0.18281974
68	0xbd80e2c1	-0.0629325
69	0x3d4925f3	0.049108457
70	0x3e6de784	0.23232847
71	0x3dd66f23	0.104704164
72	0x3e143ca3	0.14476256
73	0x3e422305	0.18958671
74	0x3e908ea7	0.28233835
75	0x3ee20e24	0.44151413
76	0x3e16df39	0.1473359
77	0xbd9d2ac2	-0.07674171
78	0x3e2d2a56	0.16910681
79	0x3e7409a3	0.23831801
80	0x3e5b46c5	0.21413715
81	0xbe85d149	-0.26136234
82	0x3e44bc9e	0.19212577
83	0x3e2ce460	0.16883993
84	0x3ebfbc01	0.37448123
85	0xbcf60cb1	-0.030035349
86	0x3e384c12	0.17997769
87	0xbdc7462a	-0.097301796
88	0xbcd0ca01	-0.025486948
89	0x3e2473ae	0.16059753
90	0xbdf72e6a	-0.120694
91	0xbdc9bfa2	-0.09851004
92	0x3ecfa11a	0.40552598
93	0x3e95bd68	0.29246068
94	0xbc6acc44	-0.014330927
95	0x3eadeb65	0.33968654
96	0xbde8a854	-0.11360231
97	0x3ec379ec	0.38178957
98	0x3dba5324	0.09097889
99	0x3e5175a4	0.20455033
100	0x3deb1130	0.11477888
101	0x3eafba86	0.34321994
102	0x3e44e5b6	0.19228253
103	0x3e2f138c	0.170973
104	0x3ebd32ec	0.36952913
105	0xbe4efb5b	-0.20213072
106	0x3e726b9c	0.23673862
107	0x3ba3ede8	0.005002726
108	0x3e106f27	0.14104901
109	0x3c2bbdce	0.010482265
110	0x3ecc82e8	0.39943624
111	0x3db0587f	0.08610629
112	0xbde4278d	-0.11140356
113	0x3d974ab6	0.07387297
114	0xbd25ca04	-0.04047586
115	0x3ed439a0	0.41450214
116	0xbe462e56	-0.19353613
117	0x3e67874a	0.22610202
118	0x3aad2916	0.0013211097
119	0x3dcac06f	0.09899985
120	0x3ebf3ac9	0.37349537
121	0x3e6df7ae	0.23239014
122	0x3e04da73	0.12973957
123	0x3e8dae17	0.27671883
124	0xbd2d40e6	-0.04229822
125	0x3e80ff76	0.251949
126	0x3e5b9a38	0.21445549
127	0x3ed89676	0.42302293
128	0x3e3f86cd	0.18703766
129	0xbe810a79	-0.25203303
130	0x3ee653b1	0.44985726
131	0x3e170f5f	0.14751957
132	0x3d3415e4	0.04396619
133	0x3e8451fb	0.25843796
134	0x3e2574d7	0.16157852
135	0xbe9516ab	-0.29118857
136	0x3e07267d	0.13198276
137	0x3e883cae	0.26608795
138	0x3e5aaad8	0.21354234
139	0xbd936de8	-0.07198697
140	0xbe420879	-0.18948545
141	0x3e2cbdd7	0.16869293
142	0x3ddf3045	0.108978786
143	0x3e9d012d	0.3066496
144	0x3ea3fb14	0.32027495
145	0x3ed3dde1	0.41380218
146	0x3ea0377d	0.31292334
147	0xbda3ee4a	-0.080044344
148	0x3e901446	0.28140467
149	0xbdbf8b40	-0.09352732
150	0xbc853c0c	-0.016263984
151	0x3ea3fbbf	0.32028005
152	0x3e963a88	0.2934153
153	0xbd2268a1	-0.039650563
154	0x3e716aaf	0.23575853
155	0x3e6d4bf3	0.23173504
156	0x3ed2e2e8	0.4118874
157	0x3d97aaa3	0.07405593
158	0x3e27757d	0.16353412
159	0x3e985915	0.29755464
160	0xbe435972	-0.1907709
161	0xbdde01e8	-0.10840207
162	0x3e936c54	0.28793585
163	0x3e9e444c	0.3091148
164	0x3e3c8def	0.18413518
165	0x3e9215d0	0.28532267
166	0xbb9f7308	-0.0048660077
167	0x3e944be6	0.28964156
168	0xbc2de5fa	-0.010613913
169	0xbcbf08f2	-0.023319695
170	0x3db6cc51	0.08925689
171	0xbe060812	-0.13089016
172	0x3d422db5	0.04740687
173	0x3e8e3702	0.27776343
174	0x3da67527	0.08127814
175	0x3d05a72c	0.03263013
176	0xbdcbf1d2	-0.09958233
177	0x3e9440c8	0.28955674
178	0x3ebc52e1	0.36781982
179	0x3eb1628c	0.34645498
180	0xbc14425b	-0.0090490235
181	0x3ed14b5c	0.40877807
182	0x3dcbc0f2	0.09948911
183	0x3ec5918a	0.385876
184	0xbd8ef324	-0.06979969
185	0x3ea34b1f	0.3189325
186	0x3d84ff7e	0.06494044
187	0x3dd602af	0.104497306
188	0xbaff186b	-0.0019462233
189	0xbdee8af8	-0.116476
190	0x3c86bca5	0.016447375
191	0x3eb709c9	0.35749653
192	0x3e67ebf2	0.226486
193	0x3de8fff5	0.11376945
194	0x3ed2d413	0.41177425
195	0x3d3d5ea5	0.04623284
196	0x3d1b5dc1	0.037931208
197	0x3e07be02	0.13256076
198	0xbe993a78	-0.2992742
199	0x3d8f3907	0.06993299
200	0x3e90f248	0.28309846
201	0xbe7b06c7	-0.24514304
202	0xbd59d696	-0.05318316
203	0xbe25984a	-0.16171375
204	0x3c297ed3	0.010345179
205	0x3ea1819c	0.31544197
206	0x3da765dd	0.08173726
207	0x3cc8f2fe	0.02452993
208	0x3eab6042	0.33471876
209	0xbde12195	-0.109927334
210	0x3e94d735	0.2907044
211	0x3e9b7dc0	0.30369377
212	0xbd19c793	-0.037543844
213	0x3dd1644d	0.10224209
214	0x3e24eca1	0.16105892
215	0x3e161955	0.14658101
216	0x3ec1f9f4	0.37886012
217	0xbd50da30	-0.05098933
218	0xbc88a3c7	-0.016679658
219	0x3ec82462	0.39090258
220	0x3af0c6d6	0.0018369805
221	0xbe0a9f49	-0.13537325
222	0x3e700d5e	0.23442599
223	0xbe2189c5	-0.15775211
224	0x3e8b5779	0.27215174
225	0x3d8cb623	0.06870677
226	0x3ea74b40	0.326746
227	0x3de2015e	0.11035417
228	0x3cb49720	0.022044718
229	0x3d6e3b08	0.058161765
230	0xbc6396ee	-0.013890965
231	0x3c8d860c	0.017275833
232	0xbe927c61	-0.2861052
233	0x3e84dc1c	0.2594918
234	0x3db91886	0.090378806
235	0x3d85d8a3	0.06535461
236	0x3c401da2	0.011725815
237	0x3e57f147	0.21088134
238	0xbdff538f	-0.124671094
239	0x3d331071	0.04371685
240	0xbe163f2a	-0.14672533
241	0x3ea86830	0.3289199
242	0x3d3ed9c4	0.046594396
243	0x3db592bd	0.08865879
244	0x3c85cf58	0.01633422
245	0x3e66ba29	0.22531952
246	0x3e357ee3	0.17724185
247	0xbe6aff0a	-0.22948852
248	0x3ea181af	0.31544253
249	0x3e4611ad	0.1934268
250	0x3df55309	0.11978728
251	0xbe3999ff	-0.18125151
252	0xbd88768e	-0.066632375
253	0x3e241a73	0.16025715
254	0x3e2960c4	0.1654082
255	0x3e9f184f	0.31073233

net.2.weight f4 [128, 256]
0	0x3e9d0f4b	0.3067573
1	0xbee0301e	-0.4378671
2	0x3e2392f9	0.15974034
3	0x3e351272	0.17682818
4	0x3d9b9e4d	0.07598553
5	0x3d5aa286	0.05337765
6	0x3e08e1fc	0.13367456
7	0x3d712e68	0.058882147
8	0x3bf37fd7	0.007431011
9	0x3e1a7d12	0.15086773
10	0xbd9a6ab3	-0.075398825
11	0xbe77fdfc	-0.24217981
12	0x3d799d77	0.060941186
13	0xbd55afb6	-0.052169524
14	0xbd70db9a	-0.05880318
15	0x3e369805	0.17831428
16	0x3e1858cc	0.14877623
17	0xbd1331b5	-0.035936076
18	0x3e2e9059	0.17047252
19	0x3daeaf3e	0.085295185
20	0x3cadd47f	0.02121949
21	0x3d4e7c7c	0.050411686
22	0x3da36e94	0.079800755
23	0x3dd14cde	0.102197394
24	0xbcb68fc2	-0.022285346
25	0x3e00e620	0.12587786
26	0x3de993a5	0.11405114
27	0x3e5e667e	0.21718785
28	0x3de56afb	0.112020455
29	0x3e33b429	0.17549194
30	0x3e14d245	0.14533336
31	0xbe674fb9	-0.22589006
32	0x3ca81e9c	0.020522408
33	0x3e5d6156	0.21619162
34	0x3e34eeb1	0.17669179
35	0x3e3779d6	0.1791757
36	0xbd27282c	-0.040809795
37	0x3f07b320	0.530077
38	0x3ddba226	0.10724287
39	0x3d9e1429	0.07718689
40	0x3e2f3671	0.17110611
41	0x3e360ab3	0.17777519
42	0x3dda68ba	0.10664506
43	0x3ef60e14	0.48057616
44	0xbe124420	-0.142838
45	0x3e312cae	0.173022
46	0x3e664cef	0.22490285
47	0x3e07dccb	0.1326782
48	0xbeed9bf6	-0.4640805
49	0x3e2a77de	0.16647288
50	0xbd48a611	-0.0489865
51	0x3e1c50b2	0.15265158
52	0x3c17296d	0.009226185
53	0x3d2d7d6e	0.042355947
54	0x3db32524	0.087473184
55	0x3e0f2dc4	0.13982302
56	0x3ded24b7	0.115792684
57	0x3df525f4	0.119701296
58	0xbd48f2bd	-0.04905962
59	0x3e76ecc4	0.24113756
60	0x3dd3fd70	0.10351074
61	0x3dcaa833	0.09895363
62	0x3db5a2e4	0.088689595
63	0x3d6b980c	0.05751805
64	0xbe79605c	-0.24353164
65	0x3dc4332a	0.09580071
66	0x3e159f41	0.14611532
67	0x3e103140	0.14081287
68	0x3da7bf7b	0.08190819
69	0xbcda6487	-0.026659263
70	0x3e33e96a	0.17569509
71	0x3d533887	0.05156758
72	0x3cd8ed8c	0.026480459
73	0xbec7f9f6	-0.39057893
74	0x3c847828	0.016170576
75	0x3e0f1fb0	0.13976932
76	0x3d6603df	0.056156036
77	0x3d24c87e	0.040230267
78	0x3e3bddea	0.18346372
79	0x3e0d4ee5	0.13799627
80	0x3dcdbd6e	0.100458965
81	0xbe2cb0fc	-0.16864389
82	0x3db6435b	0.08899566
83	0x3e145229	0.14484467
84	0x3e1c855e	0.1528525
85	0x3de435aa	0.11143048
86	0xbdf8daf7	-0.12151139
87	0x3da97cf9	0.0827579
88	0x3db87235	0.09006158
89	0x3e3de0cf	0.18542789
90	0x3e3fa7f8	0.18716419
91	0x3e4ca72d	0.19985647
92	0x3df5be57	0.11999195
93	0x3e2131a7	0.15741597
94	0x3e0e40af	0.13891862
95	0x3da25c85	0.07927803
96	0xbd2fae30	-0.042890728
97	0x3ddb93df	0.107215635
98	0x3e0ca3d6	0.13734373
99	0x3e001d78	0.12511241
100	0x3e7f3009	0.24920668
101	0x3e3b0135	0.18262179
102	0x3e5e2a9b	0.2169594
103	0x3d347301	0.04405499
104	0x3d640ec6	0.05567815
105	0xbdbd164b	-0.09232768
106	0xbe02821c	-0.12744945
107	0x3dd84044	0.10559133
108	0xbd8f0342	-0.06983043
109	0x3e8e9c69	0.27853706
110	0x3e1534d9	0.14570941
111	0x3cf8f887	0.030391945
112	0x3cfc829c	0.030823998
113	0x3c9e9b62	0.019361202
114	0x3dc3429a	0.095341876
115	0x3e2b20c8	0.16711724
116	0xbcbc2738	-0.02296792
117	0x3dce9ccc	0.100885004
118	0x3d57c930	0.0526821
119	0x3d8d1a4d	0.06889782
120	0x3e38193c	0.17978376
121	0x3dd0666a	0.10175784
122	0x3c43fc9c	0.011962082
123	0x3da3d822	0.080002084
124	0x3dad604a	0.08465631
125	0x3e1beb58	0.15226495
126	0x3debad8e	0.11507712
127	0x3ed8e33b	0.42360863
128	0x3e056821	0.13028003
129	0xb991e10e	-0.00027824234
130	0x3da57519	0.08078975
131	0x3e37b7dc	0.1794123
132	0xbd80216b	-0.06256374
133	0x3e0b23d1	0.13587882
134	0x3d36a829	0.044593964
135	0xbdde112d	-0.1084312
136	0xbc9e9b2b	-0.0193611
137	0xbb3b1142	-0.0028544222
138	0x3e14d2d7	0.14533554
139	0xbced241c	-0.028947882
140	0xbe0b16c3	-0.13582902
141	0x3e1fd9c5	0.15610416
142	0xbe34d3c2	-0.17658904
143	0x3e072125	0.13196237
144	0x3ee2a913	0.44269618
145	0x3e06c960	0.13162756
146	0x3dfe8f4f	0.12429678
147	0xbb624315	-0.0034524847
148	0x3d8d073a	0.06886144
149	0xbd2b654c	-0.04184465
150	0xbd1c3d9d	-0.038144697
151	0x3ebe2a0c	0.37141454
152	0x3cd1b7e3	0.02560038
153	0x3dac599e	0.084155306
154	0x3e52ae15	0.2057422
155	0x3df35335	0.11881105
156	0x3dab8668	0.08375245
157	0x3bb37775	0.005476887
158	0x3d57a4c4	0.052647367
159	0xbd46b1d6	-0.04850944
160	0xbea67f0a	-0.32518798
161	0x3c996f52	0.01872984
162	0x3db672ca	0.08908613
163	0x3e008559	0.12550868
164	0x3e4cb9b3	0.19992714
165	0x3de79dda	0.11309405
166	0xbda98dbb	-0.08278986
167	0x3dba63da	0.091010764
168	0xbe17d57b	-0.1482753
169	0x3d47ba54	0.04876168
170	0x3f69c6a4	0.91318727
171	0x3e54e01d	0.20788617
172	0x3dd0989e	0.101853594
173	0x3e2fa193	0.1715148
174	0x3e02c752	0.12771347
175	0x3cbf39b4	0.023342945
176	0xbb451b80	-0.0030076206
177	0x3df43b6f	0.119253986
178	0x3e2cd73c	0.1687898
179	0x3e08423a	0.13306513
180	0xbd41f985	-0.0473571
181	0x3e32a513	0.17445783
182	0x3e42a754	0.19009143
183	0x3de2fcc3	0.11083367
184	0x3d88358c	0.06650838
185	0x3e1a6c93	0.1508048
186	0xbe29e38a	-0.16590706
187	0x3d65deeb	0.056120794
188	0x3dd6c2bb	0.10486361
189	0x3c9d40e1	0.019195976
190	0xbeeda568	-0.46415257
191	0xbd998322	-0.07495715
192	0x3eb7dd62	0.3591109
193	0x3e2aa97d	0.16666217
194	0x3e09a1ec	0.13440675
195	0x3dd0b9b0	0.10191667
196	0xbd94c133	-0.07263412
197	0x3e183216	0.14862856
198	0xbe05818c	-0.130377
199	0x3e1630f5	0.14667113
200	0x3e3152f1	0.17316796
201	0x3cf3ed69	0.029776292
202	0x3d93cf7d	0.072173096
203	0xbd8451a2	-0.06460883
204	0xbe3570d9	-0.17718829
205	0x3db10c4d	0.08644924
206	0x3d807f4e	0.062742814
207	0xbdf49a3a	-0.11943479
208	0x3e79f613	0.24410276
209	0x3e60132d	0.21882315
210	0x3ef5a935	0.47980657
211	0x3db767ab	0.0895532
212	0x3ecf9097	0.4054
213	0x3db53d42	0.088495746
214	0xbeb9de8c	-0.36302602
215	0x3e5dec35	0.21672137
216	0x3e256c1c	0.16154522
217	0x3e4fd79f	0.20297097
218	0x3e1405f7	0.144554
219	0x3e390bfc	0.18070978
220	0xbe8c6078	-0.2741735
221	0xbc9f6546	-0.01945747
222	0x3cba494d	0.02274003
223	0xbf10c38a	-0.5654837
224	0x3e5529ef	0.20816778
225	0x3e6b626f	0.22986768
226	0x3db755ac	0.089518875
227	0x3d4c45bd	0.049871195
228	0x3e116e8b	0.14202325
229	0x3e3ac9d9	0.18241061
230	0x3e007a7d	0.12546726
231	0xbdf1bb23	-0.118032716
232	0xbe8149b7	-0.25251552
233	0x3e19aff8	0.15008533
234	0x3e230fbf	0.15923975
235	0x3d3caf4a	0.046065606
236	0x3d8f91c6	0.07010226
237	0x3dd1d740	0.10246134
238	0x3e183d99	0.14867248
239	0x3c93549a	0.017984677
240	0x3dd67c89	0.10472972
241	0x3d910f97	0.07083052
242	0x3df67253	0.12033524
243	0x3d7c5c71	0.061611596
244	0x3e373e3e	0.17894837
245	0x3e4140fe	0.18872449
246	0x3dd672db	0.10471126
247	0x3e9b865a	0.3037594
248	0x3e0e142c	0.13874882
249	0x3e0a61fe	0.13513944
250	0x3df5e657	0.120068245
251	0x3ad2b300	0.0016075075
252	0xbcccd640	-0.025004506
253	0x3e3c12bf	0.18366526
254	0x3e7cd315	0.24689896
255	0x3d881933	0.06645431

net.2.bias f4 [128]
0	0x3e2f53fe	0.17121884
1	0x3cac0cdc	0.021002226
2	0x3e0973aa	0.13423029
3	0xbd8f3ca9	-0.06993992
4	0x3b7dd9c6	0.003873454
5	0xbd89596f	-0.06706511
6	0x3cef5575	0.029215554
7	0x3d4de64f	0.050268468
8	0x3caf83a9	0.021425085
9	0x3d2ebe44	0.04266192
10	0x3e073ceb	0.13206832
11	0xbbf26290	-0.0073970035
12	0xbc8d951a	-0.017283011
13	0xbd74a8f0	-0.059731424
14	0x3e3fc18a	0.18726173
15	0x3e2015cd	0.15633316
16	0xbce963a2	-0.028489891
17	0x3e30f259	0.17279948
18	0x3c535537	0.012898735
19	0x3e1dcd8d	0.15410443
20	0xbd11c843	-0.035591375
21	0x3e4977f7	0.19674669
22	0x3c52eced	0.01287387
23	0xbd4ecb98	-0.05048713
24	0x3d31902f	0.043350395
25	0x3d03b653	0.0321563
26	0x3e128fb9	0.14312638
27	0x3c178782	0.009248616
28	0x3e3332a7	0.17499791
29	0x3e5cd781	0.21566583
30	0x3d0bcd7b	0.03413151
31	0xbc161858	-0.009161077
32	0x3ea08682	0.3135262
33	0xbd2faea9	-0.04289118
34	0x3d35ba18	0.044366926
35	0x3cbb5ea7	0.022872282
36	0x3d11d1f3	0.035600614
37	0xbd498e90	-0.049208224
38	0x3e3a3481	0.18184091
39	0xbcf5cb0f	-0.030004052
40	0xbcb4b38f	-0.022058276
41	0x3bc386fe	0.00596702
42	0x3dc74737	0.0973038
43	0xbd16014f	-0.03662234
44	0x3d47dac1	0.048792604
45	0x3e0a8bf8	0.13529956
46	0x3e5b0849	0.2138988
47	0x3cc2ec63	0.023794359
48	0xbd5e91a2	-0.054338105
49	0xbd676cdc	-0.0565003
50	0x3de04262	0.109501615
51	0x3b61dcbc	0.0034463843
52	0x3e225dc5	0.15856083
53	0x3e1571e1	0.14594223
54	0x3d1fbeea	0.03900043
55	0xbd691e35	-0.056913573
56	0xbd2adbf9	-0.04171369
57	0xbd96946b	-0.07352527
58	0x3c17d816	0.0092678275
59	0x3dfb48b7	0.12269729
60	0x3e845023	0.2584239
61	0x3ea525e5	0.32255474
62	0x3e1d2e57	0.15349708
63	0xbbb65808	-0.0055646934
64	0xbcf7e86b	-0.030262193
65	0xbd10b3ae	-0.035327606
66	0x3d0797ab	0.033103626
67	0x3e21789e	0.15768668
68	0x3cb73bcc	0.02236738
69	0x3d349deb	0.044095915
70	0x3e44bf34	0.19213563
71	0xbc424831	-0.011858032
72	0xba53c7f0	-0.0008078804
73	0x3e90f8a6	0.28314704
74	0xbd58ca62	-0.052927382
75	0x3c802717	0.01564364
76	0xbc7eda7f	-0.015555023
77	0x3d187e0f	0.037229594
78	0x3df6a3e5	0.12042979
79	0xbd9af909	-0.07567031
80	0x3e667761	0.22506477
81	0xbd3b649e	-0.045750253
82	0xbd83f9c9	-0.06444127
83	0x3e909c13	0.28244075
84	0x3d9d23cd	0.07672844
85	0xbd53ee16	-0.05174073
86	0x3d371ce0	0.04470527
87	0x3dec0960	0.11525226
88	0x3e32a5d5	0.17446072
89	0x3e0d0ce3	0.13774447
90	0x3db18c2c	0.08669314
91	0x3d06a20f	0.032869395
92	0xbd53f41f	-0.051746484
93	0xbd7196dd	-0.058981765
94	0xba1d6860	-0.0006004628
95	0x3e6de6f3	0.23232631
96	0xbc85c90f	-0.016331224
97	0x3e640c4a	0.22270313
98	0xbd4d3ae9	-0.05010501
99	0x3e59b3c1	0.21259977
100	0xbd659639	-0.056051467
101	0xbcb76ae6	-0.02238984
102	0x3c944334	0.018098451
103	0xbc25b59a	-0.010114098
104	0xbcddf4ff	-0.027094362
105	0x3ce45f10	0.02787736
106	0x3d8ef305	0.06979946
107	0x3992c2c4	0.00027992402
108	0x3e70b444	0.23506266
109	0x3e85b9cf	0.26118323
110	0x3e8892a1	0.2667437
111	0xbd656826	-0.056007527
112	0x3c81821e	0.015809115
113	0xbd03fabe	-0.03222155
114	0x3d9915bb	0.07474848
115	0x3e4c727f	0.19965552
116	0xbd49acc1	-0.049237017
117	0x3d83ff76	0.0644521
118	0xbd8456af	-0.06461846
119	0x3d5a0a46	0.053232454
120	0x3ddb69e3	0.10713556
121	0x3e14b411	0.14521815
122	0xbb60061d	-0.0034183331
123	0xbcf16982	-0.029469255
124	0x3e33b4f2	0.17549494
125	0xbd05b4e9	-0.032643232
126	0x3e5813c5	0.21101291
127	0x3e3b85b5	0.18312724

net.4.weight f4 [54, 128]
0	0x3de98716	0.11402719
1	0x3c10786e	0.008817775
2	0x3e108154	0.14111835
3	0xbdb89d15	-0.09014336
4	0x3d974818	0.07386798
5	0xbcfbc081	-0.030731441
6	0x3d8bb9c3	0.068225406
7	0x3c80a674	0.015704371
8	0x3da5ffda	0.081054404
9	0xbd54df24	-0.051970616
10	0x3e0b82ff	0.1362419
11	0x3c95c53c	0.018282525
12	0xbc99a45f	-0.018755136
13	0x3d1b61f5	0.037935216
14	0x3e3320dd	0.17493005
15	0x3db99cac	0.09063086
16	0xbdc57f23	-0.0964339
17	0x3e091257	0.13385902
18	0xbd564ba4	-0.05231823
19	0x3e4adbf7	0.19810472
20	0xbdb07c3a	-0.08617444
21	0x3e184f21	0.14873935
22	0x3d3de325	0.0463592
23	0xbd96a9a8	-0.07356578
24	0x3d9aad56	0.075525925
25	0xbd287529	-0.041127358
26	0x3e31dc49	0.17369188
27	0x3d6703d8	0.05640015
28	0x3dde7de6	0.10863857
29	0x3e0201f7	0.12696062
30	0xbd9fb6a4	-0.07798508
31	0x3d998c9f	0.074975245
32	0x3e411b65	0.18858106
33	0xbcb35abc	-0.021893851
34	0x3d8ffc25	0.07030515
35	0xbd8ad862	-0.06779553
36	0xbd6c5a9c	-0.0577036
37	0x3dcfdccc	0.101495355
38	0x3d90fb73	0.0707921
39	0x3d7e13b9	0.062030528
40	0x3d8d142f	0.06888615
41	0x3d943bd2	0.07237972
42	0x3d5157b6	0.05110904
43	0xbda80e14	-0.0820581
44	0x3cecd307	0.02890922
45	0x3d3cd291	0.04609925
46	0x3cb97ac4	0.022641547
47	0xbce329ae	-0.027729835
48	0x3c9435b0	0.018092006
49	0x3d8b9fd1	0.06817592
50	0x3dd991ff	0.1062355
51	0x3c30f021	0.010799439
52	0x3e574cec	0.21025437
53	0x3e3cfcf7	0.18455873
54	0xbcda5ecf	-0.026656536
55	0x3d3f7b5a	0.046748497
56	0xbd939285	-0.07205681
57	0xbd7786aa	-0.06043116
58	0xbd1b6edd	-0.037947524
59	0x3e440579	0.19142713
60	0x3d8fea4d	0.07027111
61	0x3cb00970	0.021488875
62	0x3df0fa7e	0.117665276
63	0x3dd47dfd	0.10375593
64	0xbcb36524	-0.021898814
65	0xbda609e1	-0.08107353
66	0xbd8de538	-0.06928486
67	0x3d6f5b14	0.05843647
68	0x3a9fe0a0	0.0012197681
69	0x3d5818b6	0.05275794
70	0x3d1788b3	0.0369956
71	0xbd3ef738	-0.046622485
72	0xbd82a070	-0.06378257
73	0x3e1f9e59	0.15587749
74	0xbd9b9112	-0.07596029
75	0x3cc1518c	0.023598455
76	0xbdb74936	-0.08949511
77	0x3d5f3f75	0.054503877
78	0xbdae7495	-0.0851833
79	0x3d6e8b1a	0.058238126
80	0x3cc4c2a7	0.024018599
81	0xbd0cea39	-0.03440306
82	0xbc8bd888	-0.017071024
83	0x3d3b3ad1	0.04571039
84	0x3d23681e	0.039894216
85	0x3d196102	0.03744603
86	0x3d92d348	0.07169205
87	0x3d9cfd20	0.07665467
88	0x3ce41c62	0.027845565
89	0x3d3a419b	0.045472723
90	0xbd22fe0b	-0.039793056
91	0x3def74fa	0.116922334
92	0x3d19d5f6	0.037557565
93	0xbd93587a	-0.0719461
94	0xbd9fce31	-0.07803
95	0x3e2102f2	0.1572378
96	0xbd40b627	-0.047048714
97	0x3caf9204	0.02143193
98	0x3d3e7989	0.046502624
99	0x3e179fb7	0.1480702
100	0x3cdab4b3	0.026697492
101	0x3d99b707	0.07505613
102	0x3d3803fa	0.044925667
103	0xbc9df5c8	-0.019282237
104	0xbc78a4c8	-0.015176006
105	0x39ee3760	0.00045436155
106	0x3dbe0a8c	0.092793554
107	0xbcf44502	-0.029818062
108	0x3dbb9f63	0.0916126
109	0x3e12dcf7	0.14342104
110	0x3d8cef92	0.06881632
111	0x3ce6bc48	0.028165951
112	0xbb84c1c0	-0.004051417
113	0x3ba37510	0.00498832
114	0x3d9bf721	0.076154955
115	0x3c9d8a4b	0.019230982
116	0x3d6a191e	0.05715286
117	0xbe120944	-0.14261347
118	0x3b5d2f20	0.0033750013
119	0x3e965d30	0.2936797
120	0x3e307fe3	0.17236285
121	0x3da54d22	0.080713525
122	0x3d893993	0.067004345
123	0xbda1a2fd	-0.07892416
124	0x3e0c2bd0	0.13688588
125	0x396cc800	0.0002258122
126	0x3e1e2d7e	0.15447041
127	0xbb876c09	-0.004132752
128	0x3d59d2c9	0.053179536
129	0x3c2b5b8e	0.01045884
130	0x3e0e638b	0.1390516
131	0xbc97970d	-0.018504644
132	0xbcfbae88	-0.030722871
133	0x3d4e122b	0.050310295
134	0x3ce278c0	0.027645469
135	0xbd0dc373	-0.034610223
136	0x3e42b139	0.19012918
137	0x3cc35ab4	0.023846962
138	0x3e06c063	0.13159327
139	0xbdb394f7	-0.08768647
140	0x3d3d6f9f	0.04624903
141	0xbd5202e4	-0.051272288
142	0x3b61f6bf	0.0034479348
143	0x3d37454c	0.04474382
144	0xbc7100b1	-0.0147096375
145	0x3deb013b	0.11474844
146	0xbc23f85e	-0.010007946
147	0x3dab95ff	0.08378219
148	0x3d816f8c	0.06320104
149	0x3e245266	0.16047058
150	0xbdbba5e9	-0.09162504
151	0xbd09d0b4	-0.0336463
152	0xbd34a509	-0.044102702
153	0x3c455ad0	0.012045577
154	0x3e0c44bd	0.13698097
155	0x3e0fffac	0.14062375
156	0x3de9e7ad	0.11421142
157	0x3e2c2956	0.16812643
158	0x3b257594	0.0025247084
159	0xbcd25454	-0.025674976
160	0x3d9ebb53	0.07750573
161	0x3d9a18f3	0.0752429
162	0xbca9a2c0	-0.020707488
163	0xbc8f11e3	-0.017464584
164	0x3c4b9196	0.012424847
165	0xbd114470	-0.035465658
166	0x3e00e3d8	0.12586915
167	0x3dba769d	0.09104655
168	0x3d90dfd0	0.07073939
169	0x3d7c4f0b	0.06159882
170	0x3d75a2d5	0.05996974
171	0xbda5972e	-0.08085476
172	0x3d8a9ace	0.06767808
173	0x3d3c3997	0.04595336
174	0x3c81516b	0.015785893
175	0x3daa46c7	0.08314281
176	0xbd42bf8f	-0.047545966
177	0x3abda040	0.0014467314
178	0xbae7fd36	-0.0017699364
179	0x3e1a5328	0.15070784
180	0x3d8f54fe	0.06998633
181	0x3db4c884	0.08827308
182	0xbd8b524a	-0.06802805
183	0xbd2ee38a	-0.042697467
184	0xbc285461	-0.010274024
185	0xbdb4c65a	-0.08826895
186	0x3d161746	0.03664329
187	0x3d4be987	0.049783256
188	0x3d119cae	0.035549812
189	0x3e1f5604	0.15560156
190	0x3e18f007	0.14935313
191	0x3dc1be3b	0.09460112
192	0xbc831f44	-0.01600612
193	0x3ca05149	0.01957001
194	0xbcdf71b6	-0.027275901
195	0x3d232dd7	0.03983864
196	0xbc5a4d46	-0.0133240875
197	0xbd95155f	-0.07279467
198	0x3dba5a8a	0.090993
199	0x3c8b1136	0.01697598
200	0xbcc1cea9	-0.023658114
201	0x3e12c816	0.14334139
202	0x3cf5b57c	0.029993765
203	0x3db37a09	0.08763511
204	0x3d28dc3e	0.041225664
205	0x3d9b8c3b	0.07595106
206	0x3c3ed4a3	0.011647376
207	0xbd89d921	-0.06730867
208	0x3dc782f8	0.09741777
209	0xbd7c3134	-0.06157036
210	0x3dae7a4f	0.08519422
211	0x3e249764	0.16073376
212	0x3e318407	0.1733552
213	0x3d3894a9	0.04506365
214	0xbd9f682e	-0.077835426
215	0x3ddd6c37	0.10811656
216	0x3ddb496e	0.10707365
217	0x3d90fb9a	0.07079239
218	0x3c18eab9	0.009333306
219	0x3d7f6b62	0.062358268
220	0x3c23df00	0.010001898
221	0x3da34250	0.079716325
222	0x3d8c208d	0.06842146
223	0x3d4d708b	0.050156157
224	0x3d3b23c6	0.045688413
225	0x3dc0f06f	0.09420859
226	0x3d4df341	0.050280813
227	0x3e266376	0.16248879
228	0x3d8e4e4d	0.069485284
229	0xb989ef26	-0.00026308856
230	0x3d7aaf9a	0.061202623
231	0x3cd59c7c	0.026075594
232	0xbd9c1fca	-0.07623251
233	0x3d94e5e4	0.07270411
234	0x3e025397	0.127272
235	0x3d5f6bc8	0.054546148
236	0x3d8a0782	0.06739713
237	0x3d81cbe6	0.06337719
238	0x3e0e91db	0.13922827
239	0xbd16f0db	-0.03685079
240	0xbcc2c0d8	-0.023773596
241	0xbdaa71b1	-0.08322466
242	0x3e01b2eb	0.12665908
243	0x3e2d9d37	0.16954504
244	0xbc826e99	-0.015921878
245	0x3e1c9e3e	0.1529474
246	0x3da1d65f	0.07902216
247	0x3cea5839	0.028606521
248	0x3e1dab61	0.15397407
249	0x3e3ff758	0.18746698
250	0x3bc498fb	0.005999682
251	0x3db7f7a1	0.08982778
252	0x3d6cb62d	0.057790924
253	0xbda385e4	-0.07984522
254	0x3d12554f	0.035725888
255	0x3cd982e6	0.026551675

net.4.bias f4 [54]
0	0x3e1e37b3	0.15450935
1	0x3dc3ecc7	0.09566646
2	0x3dce9803	0.10087588
3	0x3e12170c	0.14266604
4	0x3daca831	0.084305175
5	0x3e06dcae	0.1317012
6	0x3e5035da	0.20333043
7	0xbc6cd560	-0.014455169
8	0x3dcb6ed7	0.099332504
9	0x3e314ac0	0.17313671
10	0xbc89f7b8	-0.016841754
11	0x3e45cd29	0.19316544
12	0x3d3742ea	0.04474155
13	0x3d4e0cec	0.050305292
14	0x3e3eb608	0.18624127
15	0x3e5a3507	0.21309291
16	0x3e241c53	0.1602643
17	0x3dbc1d8f	0.09185325
18	0x3e033346	0.12812528
19	0x3de93b8d	0.113883115
20	0x3e1a54f9	0.15071477
21	0x3d9c66dc	0.07636806
22	0x3dcd7ad9	0.10033197
23	0x3d5fe6e3	0.05466355
24	0x3e1ce121	0.15320255
25	0x3dc0a2ca	0.094060495
26	0x3ad7815f	0.0016441754
27	0x3c179c5b	0.009253587
28	0x3df9ce82	0.12197591
29	0x3ded0c44	0.11574605
30	0xbd9093d7	-0.07059448
31	0x3da629e3	0.08113458
32	0x3e101049	0.14068712
33	0x3e827bdc	0.25485122
34	0x3d791404	0.060810104
35	0x3da121ef	0.078678004
36	0x3bc13f7d	0.005897461
37	0x3d23d271	0.039995614
38	0x3e8b0356	0.27150983
39	0x3dccf437	0.10007518
40	0x3e802c6e	0.25033897
41	0x3e2a2194	0.16614372
42	0xbca745ed	-0.020419085
43	0xbce50a74	-0.027959086
44	0x3db2ceca	0.08730848
45	0x3dd7f09a	0.10543938
46	0x3e26dcf5	0.16295226
47	0x3e173348	0.14765656
48	0x3e260f2b	0.16216724
49	0x3e1520a8	0.14563239
50	0x3dd9ae3d	0.106289364
51	0x3e3d68ae	0.18496963
52	0x3ca27380	0.019830465
53	0x3e1ae2f3	0.15125637
