Assets/bot_brain.pth (torch, 181596 bytes, 6 tensors)

net.0.weight f4 [256, 18]
000000 88 79 c3 bd 81 7b 29 bd 94 d0 2b bd bd 91 2d 3e
       -0.095446646 -0.041377548 -0.041946962 0.16950126
000010 39 2c 13 3e cf cf 24 bd 4b 4d ba bd e8 eb 26 3d
       0.14372338 -0.040237244 -0.09096774 0.04075232
000020 a4 41 6f 3d f9 22 5f be 50 5f 07 be f4 e0 de 3d
       0.05841221 -0.21790685 -0.13219953 0.1088275
000030 14 89 20 bd 4b 1c 4f 3e e6 a8 ab 3d d2 1e 6a be
       -0.039193228 0.20225637 0.08381824 -0.2286332
000040 7f e2 81 be 53 58 1c bd 37 73 29 3e 12 22 22 be
       -0.25368115 -0.03817017 0.16547857 -0.1583331
000050 fd 5d a3 bd 47 12 a2 3e 43 64 d9 bd c4 f0 c6 3d
       -0.07976911 0.3165457 -0.106148265 0.09713891
000060 38 2d e9 3c 9e b4 a0 3c 51 c2 8f bd ba 18 70 be
       0.028463945 0.019617375 -0.07019485 -0.23446932
000070 bb fc db bb d6 ff df bd 88 5f 56 bd de 88 94 3d
       -0.0067134774 -0.10937469 -0.0523372 0.07252668
000080 64 ff 61 bd 30 2c 0f be 9b 09 96 be b5 31 bb be
       -0.0551752 -0.139817 -0.29304203 -0.3656136
000090 99 8e a8 bd 46 f6 64 3d 62 b1 2a be 01 46 d8 3d
       -0.08230323 0.055898927 -0.16669229 0.10560227
0000a0 9b d1 ac 3d 77 eb 0e 3d 17 57 9c 3d 74 ef 39 be
       0.084384166 0.034892526 0.076337986 -0.1815775
0000b0 9f 9b 05 3e 42 2d 13 3d 97 ff 63 be 00 9e 67 3c
       0.13047646 0.035931833 -0.22265469 0.014136791
0000c0 80 4e ac 3a 2c a4 11 be bd 6e 2e 3e 12 bd 18 bd
       0.0013145953 -0.14222783 0.17034431 -0.037289687
0000d0 61 da 56 be 21 87 c9 bd 42 b4 87 bd 6b 79 4b be
       -0.20981742 -0.09840227 -0.06626178 -0.19870536
0000e0 d6 65 a7 3d c4 46 e4 bd 00 bb 2b ba 73 99 fd bd
       0.081737205 -0.1114631 -0.00065509975 -0.12382784
0000f0 20 88 68 3c e4 bb 52 bd 32 8b 8e 3d 11 72 0f be
       0.014192611 -0.051448718 0.06960143 -0.14008357
000100 fa a2 8e 3d 41 03 65 3e e7 ae 45 be 63 73 4e be
       0.06964679 0.22364523 -0.19305001 -0.20161204
000110 d1 5b 31 3e 0c e8 3a be e0 7c 5d be c9 7c f1 bd
       0.17320181 -0.18252581 -0.21629667 -0.11791379
000120 45 8e 79 3d 73 f9 62 3e 71 45 09 bf ed d1 04 3f
       0.060926694 0.2216547 -0.53621584 0.5188282
000130 92 b5 f3 3d 37 f5 b0 be 32 4f 10 be 4b e7 28 3e
       0.11899866 -0.34562084 -0.1409271 0.16494481
000140 a8 01 3f 3f d3 67 94 be ed d9 07 be df f0 bc be
       0.746119 -0.28985462 -0.13266726 -0.3690252
000150 d8 a6 2c be 9b d5 38 be 14 18 cc bd 06 08 25 3e
       -0.16860521 -0.18050234 -0.0996553 0.16116342
000160 ef 69 77 3d 4a 67 0a 3e bb a6 a3 3e af 6d 10 3e
       0.06040376 0.13515964 0.31963143 0.14104341
000170 63 ac ac be 71 bd cc 3c 92 ee c9 be f3 7f 9d be
       -0.3372527 0.024992676 -0.39439827 -0.3076168
000180 80 14 70 3e a4 a6 04 3c ae f8 8c 3f 83 fd f4 3d
       0.2344532 0.008096371 1.1013391 0.11962416
000190 c4 30 71 3e 59 f0 cb be 13 64 52 3e 47 aa 61 be
       0.23553759 -0.39831808 0.20545988 -0.22037612
0001a0 19 b0 1c be ff ea 3e 3e 9a 99 b4 3d c4 da 00 be
       -0.15301551 0.18644331 0.0881836 -0.12583452
0001b0 11 9e 30 be c5 94 b8 bd 8d a3 1c bf 56 04 ea bd
       -0.17247798 -0.090127505 -0.6118706 -0.11426608
0001c0 d3 4a 98 3e 8c b4 3b be 40 6f 84 be 3f c0 18 be
       0.29744586 -0.18330592 -0.25866127 -0.14917086
0001d0 12 89 ee bd 08 1b f2 bd 99 5e 12 be cc fb 62 bf
       -0.11647238 -0.11821562 -0.14293899 -0.8866546
0001e0 0c c2 80 bd 68 5a ad 3c 36 2c ae bd 0e 40 3d bd
       -0.062870115 0.021161273 -0.08504526 -0.046203665
0001f0 a7 4b 64 bf 54 57 e5 3d 75 ba cb bd 6a 53 30 3e
       -0.89177936 0.11198297 -0.09947673 0.1721932
000200 ef d8 ea bd 19 fa 5d 3e 54 24 b3 be 66 70 a1 bd
       -0.11467158 0.21677436 -0.34988654 -0.078827664
000210 d8 1a a9 3e bb 69 de be 57 7f c2 be de 59 8f 3b
       0.33028293 -0.4344004 -0.37987778 0.0043747267
000220 c5 dd 90 3e 3f 21 cc be 7d d7 11 be 64 df 3f 3d
       0.28294197 -0.39869115 -0.14242359 0.0468439
000230 7d d1 08 3e 61 7f 72 3e d1 e7 a2 3d c8 6a 0c be
       0.13361163 0.23681404 0.07954372 -0.13712609
000240 02 39 4a be 55 08 3e 3d 08 e2 f3 be 7c 00 dd 3e
       -0.19748309 0.046394665 -0.47633386 0.43164432
000250 77 47 77 3d fb 1a 4f 3e 89 71 9b be 7b d3 d0 be
       0.06037089 0.20225136 -0.30360058 -0.40786347
000260 48 bb 1f 3f 51 52 ae be 80 40 75 3e de 9a 4a be
       0.62395144 -0.34047177 0.23950386 -0.1978564
000270 99 43 5e 3e 6c 68 35 be e3 35 23 3e 14 20 e3 3d
       0.21705474 -0.17715615 0.15938525 0.11090103
000280 78 88 b8 bc f2 68 e3 3d 53 d3 a4 3e 6e 33 9e 3e
       -0.02252601 0.11104001 0.32192478 0.30898613
000290 06 b0 90 3d a1 0b b6 3e 49 1e 07 3e 16 fd c6 3e
       0.07064824 0.35555747 0.13195147 0.38864964
0002a0 b5 b1 8f bc e5 31 b1 be 6d be ca bd e0 33 df bd
       -0.017540792 -0.3460838 -0.09899602 -0.10898566
0002b0 a3 8e 69 3e fc c7 ac bc fb 25 59 3e 14 7b 34 be
       0.22808318 -0.021091454 0.21205895 -0.17625076
0002c0 38 c7 e5 3c 44 9b b8 3d ab b2 b7 bd 67 be c3 bd
       0.028049096 0.090139896 -0.08969625 -0.09557801
0002d0 6c ef e2 bc 14 76 0e 3c 76 c0 3e bf 7a 31 99 3d
       -0.027702056 0.008695144 -0.7451242 0.0748014
0002e0 43 10 d6 bc ae 07 8a bd 82 61 a9 be 56 3c b1 3c
       -0.026130801 -0.06739746 -0.33082205 0.021635216
0002f0 df 45 0a be ba cc 71 be 91 9b b8 be 44 68 62 bf
       -0.13503216 -0.23613253 -0.36056188 -0.88440347
000300 ee 8c a3 3d b7 bc 33 3e 10 5c 05 bd b3 af f9 3d
       0.079858646 0.17552458 -0.0325585 0.12191715
000310 64 e4 14 bf fd 35 f9 be cd b7 c3 3d 48 7e 38 be
       -0.58160996 -0.48674002 0.095565416 -0.18016922
000320 d5 26 4a be f0 33 87 be 59 4e a2 3d c2 c5 e1 3d
       -0.19741376 -0.26406813 0.079251 0.110240474
000330 d7 8a 6b bc ee de 91 be 68 85 44 3e a5 d7 96 be
       -0.014376364 -0.28490394 0.19191515 -0.294614
000340 8b e6 2d 3b 9a a2 aa bb 00 52 cc ba 98 8c 44 bd
       0.002653512 -0.005207372 -0.0015588403 -0.047985643
000350 8d 93 3c be c0 97 01 be 93 62 92 be 12 d9 83 3d
       -0.18415661 -0.12655544 -0.2859083 0.06437887
000360 c7 3f 1c be 3a ab 90 be 63 96 23 be 3c b8 9a 3d
       -0.15258704 -0.28255635 -0.15975337 0.07554671
000370 79 d2 f8 3d ce f0 b4 3c 04 90 af 3b d1 01 12 be
       0.121495195 0.02208748 0.005357744 -0.14258505
000380 64 73 e4 3d 8c 1c e0 3d b8 52 f9 3d 1b 85 06 bc
       0.111548215 0.10942945 0.121739805 -0.008210446
000390 98 6b 91 3c 52 ea 85 3d 3e 78 22 be 32 8f 43 be
       0.0177515 0.06538834 -0.15866181 -0.19097593
0003a0 cb c3 2c 3c 2d 6b 8b bd 1c e5 ae bd 53 0f 87 be
       0.010544728 -0.068075515 -0.08539793 -0.2637888
0003b0 2b 6d af 3d 81 fb de be 2f 06 b4 3b d2 55 e7 3d
       0.08565744 -0.43551257 0.005493901 0.11295666
0003c0 aa 2e 5a bd 70 95 91 be c4 22 51 3e 80 34 ad 3c
       -0.05326716 -0.28434324 0.20423418 0.021143198
0003d0 86 18 3a 3e 67 d3 a0 3d 58 28 d9 3c 51 0b 03 3e
       0.18173417 0.07852822 0.026508495 0.12797286
0003e0 52 bc cc 3d 12 30 d2 bd f2 96 35 be 4c 09 07 be
       0.09996857 -0.10263075 -0.17733362 -0.1318714
0003f0 59 e8 e7 bc e4 e0 9f 3c ff 06 17 be 59 fd 33 3e
       -0.028309034 0.019516416 -0.14748763 0.17577113

net.0.bias f4 [256]
000000 64 e8 87 be 1c c2 b4 3d e3 53 2d be 5d 50 41 be
       -0.26544487 0.08826086 -0.16926531 -0.18878312
000010 91 33 3a bc 6c ab b2 3e 6f 66 e5 3d cb 68 8d 3e
       -0.011364833 0.3489641 0.11201178 0.27619013
000020 8c b6 6b 3e 58 cd 1c be 95 73 e9 bd a2 56 4b be
       0.23018855 -0.15312707 -0.11398999 -0.19857267
000030 0a 70 c3 bc 78 52 50 3c 1f ac ab bd b7 5e da 3c
       -0.023857135 0.012714975 -0.08382439 0.026656492
000040 49 39 8d be 0a c1 c2 bd 89 b3 85 3e 24 fb 37 3e
       -0.27582768 -0.095094755 0.26113537 0.17966896
000050 65 ca 2d be 35 28 71 be 61 34 4e 3c d2 ba 62 be
       -0.16971739 -0.23550494 0.01258573 -0.22141579
000060 47 a2 c8 bd 0f 1c c1 bd 59 f2 93 be 5c 9f 3c 3d
       -0.09796577 -0.0942918 -0.28895834 0.046050414
000070 e9 1b 7e 3e b3 63 b5 be a0 ed 95 3e 5d 9e 9a 3c
       0.24815334 -0.35427627 0.29282856 0.018874342
000080 54 d4 9d 3e ec bf aa be 15 0d 60 be 0e e8 d4 3d
       0.30826056 -0.3334955 -0.2187999 0.103958234
000090 86 61 b9 be 1b 8e d6 3b 63 47 59 be a5 41 a5 bb
       -0.36207217 0.006547702 -0.21218638 -0.005043226
0000a0 e4 23 42 bd 97 e2 b7 3d f6 41 20 bd 27 8b 8f be
       -0.04739751 0.089787655 -0.039125405 -0.28035852
0000b0 9e dc 00 bd 88 92 c4 bc 7f a1 ab bd 91 31 62 be
       -0.031460397 -0.023995653 -0.08380412 -0.2208922
0000c0 90 60 c7 bd 4e 41 33 be bf ac a9 3d 41 e7 a9 3d
       -0.09735215 -0.1750538 0.08284902 0.08296061
0000d0 45 18 50 be 34 66 a1 be 6d 22 b7 3d 74 88 8c be
       -0.20321758 -0.31523287 0.08942113 -0.27447855
0000e0 31 cb 6c 3e 03 d4 05 be fd 5f aa bc 9f 2d 66 bb
       0.23124386 -0.13069157 -0.020797724 -0.0035122407
0000f0 41 91 fc bd 6a b9 b0 be 23 3d 3b bd 29 7f c5 bd
       -0.123323925 -0.3451646 -0.0457126 -0.096433945
000100 ad 99 e4 3d 13 73 b4 be dc 9f 07 be 29 5b ab bd
       0.11162124 -0.35244045 -0.13244575 -0.08366997
000110 c8 42 0a bb 0c 2a 9e 3d 1e 38 f7 3d 72 5f 32 3e
       -0.0021096934 0.077228636 0.120712504 0.17419222
000120 0c 23 88 bd ae ab 3d 3d fc 8a a6 bc b5 39 97 be
       -0.0664731 0.046306305 -0.020329945 -0.29536214
000130 f2 73 0c be 38 1f 94 3e 9f 17 8e be 24 69 7a be
       -0.13716105 0.28930068 -0.27752396 -0.2445417
000140 31 1e 82 bc 81 bb 4e 3e 1a f1 c1 3d 4a 72 b6 bd
       -0.015883537 0.20188715 0.094698146 -0.08908518
000150 92 1b 50 3e 5c 10 24 bc 64 9a cd bd 95 8b 63 3d
       0.20323017 -0.010013666 -0.10039213 0.055553038
000160 67 70 93 bd 41 46 6f 3e 6c 07 21 be 20 bf 7e be
       -0.071991734 0.23366643 -0.15725487 -0.24877596
000170 51 d3 5c bd 17 24 a4 3e 28 b2 1d bd 89 ee 37 3d
       -0.053912465 0.32058784 -0.03849998 0.04490522
000180 35 76 fc 3d 53 15 ce bd 87 fd 9c be 99 7b d9 bd
       0.12327234 -0.10062661 -0.30662176 -0.106192775
000190 5c 02 61 3e 0e c1 25 bc 9a e5 92 3d 7f 20 99 be
       0.21973556 -0.010116829 0.07172699 -0.29907605
0001a0 fa 3a 34 3d 9a 85 28 be 2d 73 74 3e b7 53 82 be
       0.044001557 -0.16457215 0.23872061 -0.25454494
0001b0 b8 03 2a be d2 b2 20 bd 29 ef 38 be 46 5e c4 3c
       -0.16602981 -0.039233036 -0.18059982 0.023970734
0001c0 d7 76 a6 bd 2c f3 5b be 41 cd 48 bd 24 1e a3 3a
       -0.08128136 -0.21479481 -0.04902387 0.0012444896
0001d0 af 71 a5 be cc b5 b3 bd e4 b0 84 3b b1 b3 07 3c
       -0.32313296 -0.087749094 0.0040494073 0.008282588
0001e0 61 2c 5d 3e 06 25 11 3e 69 51 58 3d 0c d2 83 bd
       0.2159896 0.1417428 0.052812014 -0.06436548
0001f0 50 00 39 be a9 d1 46 be 8f 76 52 be 1a a6 84 be
       -0.18066525 -0.19415917 -0.20553039 -0.25907975
000200 16 be 38 bb 1f 56 67 be f7 3e 44 bd 2b 50 cc 3d
       -0.0028189472 -0.22591446 -0.04791161 0.09976228
000210 be 0c dc 3d cc cf ea 3d 27 9d ed bd a8 df 44 bd
       0.10744618 0.11465415 -0.1160224 -0.048064858
000220 6e 64 46 be 47 04 1f 3e 44 22 26 be 15 9d fc 3d
       -0.19374248 0.15528975 -0.16224009 0.123346485
000230 04 bc 53 3e be d3 0a 3c f7 1d e6 3c 41 a0 f5 bd
       0.20677191 0.008473335 0.02809046 -0.11993457
000240 e4 10 0c 3d 16 88 67 be 61 a2 90 3e 82 23 39 bd
       0.034195796 -0.22610506 0.28248885 -0.04519988
000250 81 ef 79 be c6 eb 86 bd 54 10 aa 3d 3e d9 a3 bd
       -0.2440777 -0.06587939 0.083038956 -0.0800042
000260 c1 90 a5 be de 8f c2 3d f6 c1 f2 3d 6f 71 42 be
       -0.32337 0.09500097 0.11853401 -0.18988584
000270 c2 53 63 be c6 f1 a2 3d aa 62 42 be be cd 46 bc
       -0.2219992 0.07956271 -0.1898295 -0.012134014
000280 f1 2f bb 3d d6 3b dc bd 41 c3 4f be 2f 23 1f 3b
       0.091400035 -0.107536 -0.20289327 0.0024282446
000290 eb e3 1b be 00 1b b9 3d 8d 9c 85 be 2f 91 8c bd
       -0.15223663 0.09038353 -0.26096 -0.06863629
0002a0 a9 06 cc bc 09 83 e2 3d 79 60 13 be 68 db 66 3e
       -0.02490552 0.11060149 -0.1439227 0.22544634
0002b0 3c 75 54 3c d8 05 83 be 47 44 78 3e 70 f7 df 3d
       0.012967404 -0.25590396 0.24244796 0.10935867
0002c0 ca 02 a6 3e e2 a7 d5 ba 0a a3 c5 3d bd 80 7f 3e
       0.32424003 -0.0016300643 0.09650238 0.24951454
0002d0 81 85 03 3e 77 ff b4 be 8f af 8e 3e 0a 8d d4 3d
       0.12843896 -0.35351154 0.27868316 0.103784636
0002e0 6a 14 4e 3e 41 65 b1 3e dd 5e d7 3c 8e 7b 82 3e
       0.20124975 0.34647563 0.026290352 0.2548489
0002f0 db bb ce bd e6 12 b1 3e d2 48 84 3e f8 57 15 bd
       -0.10094424 0.3458473 0.25836807 -0.036460847
000300 6a 1f 6d be f9 18 d1 bd 05 7d db 3d ba 46 df 3d
       -0.23156515 -0.10209841 0.10717205 0.10902162
000310 8b f1 1e 3e bb 74 78 be 8b 68 99 3e d6 a9 59 3e
       0.15521829 -0.24263279 0.29962572 0.21256194
000320 82 38 3e 3c c5 72 1a bb 0e 8f 81 be 11 f3 67 bd
       0.011610152 -0.0023566943 -0.25304455 -0.05662829
000330 61 0e 78 3d d6 5b 37 be 5f 5c 97 be 75 05 24 be
       0.060560588 -0.17906126 -0.2956266 -0.16017707
000340 e5 14 39 3e 12 00 83 be fe 07 5c bd 18 8e da bc
       0.18074377 -0.2558599 -0.05371856 -0.026679084
000350 a5 8a 3e bd 46 e7 d7 3c a1 b1 9c 3e 05 6b 14 be
       -0.04651894 0.026355397 0.3060427 -0.1449395
000360 48 78 b3 3c b2 fb a5 3d aa 47 19 be 2a 91 3b 3e
       0.02190794 0.08104648 -0.14968744 0.18317094
000370 f9 6b 90 be 2f 8b 89 3d 09 4f 3e 3e 38 a0 72 be
       -0.28207377 0.06716 0.18584837 -0.23693931
000380 e1 f8 d9 3d b5 43 34 3e c1 89 74 3e af 11 1d be
       0.10643173 0.17603953 0.23880674 -0.15338777
000390 25 cd c0 bd f9 43 bc bd 80 7f 33 be 6a e3 b2 3c
       -0.09414128 -0.09192652 -0.17529106 0.021836955
0003a0 2e cc 62 3e 08 a4 a8 3e 45 83 07 3e a8 44 25 3e
       0.22148201 0.32937646 0.13233669 0.16139472
0003b0 2f 5e b5 be 40 d8 5c be b7 f6 4c be 83 7f 25 3e
       -0.3542342 -0.21566868 -0.20015989 0.16161923
0003c0 55 1e 4b be 0f 94 7e be f5 2f af 3d aa ff 0e bd
       -0.1983579 -0.24861167 0.08554069 -0.03491179
0003d0 dd 95 8b be b6 10 18 3d 31 fc 7d 3d 23 19 70 3d
       -0.27262774 0.03712531 0.062008087 0.058617722
0003e0 02 cb 84 3d 4f 63 af 3d a4 79 7a be 1a b3 25 bc
       0.06484033 0.085638635 -0.24460465 -0.010113502
0003f0 d8 6f 9a bd 90 64 86 be b0 7c e7 bd 9a a1 b6 bd
       -0.07540864 -0.26248598 -0.11303079 -0.08917542

net.2.weight f4 [128, 256]
000000 44 33 66 bd c8 1a 4d 3d d0 40 39 bd 60 98 c0 3b
       -0.056201234 0.05007437 -0.045227826 0.0058775395
000010 86 10 e4 bd b2 aa 02 be 50 4a a9 bc 5d 08 84 bc
       -0.11135964 -0.12760428 -0.020665318 -0.01611727
000020 bf 42 f6 3d bc f6 57 be d7 f2 5d bd 6f f8 04 bd
       0.120244496 -0.21090215 -0.05418667 -0.032463487
000030 b0 49 c9 bc 64 74 71 bd 20 5c eb bb be 99 90 bb
       -0.02457127 -0.05894889 -0.007182613 -0.0044128587
000040 fa 46 c0 bc f2 2b 07 3e f3 0e d0 bd e0 7a 11 3c
       -0.023471344 0.13200358 -0.10159101 0.008879393
000050 0a b6 25 be 2e 7f 7b 3c d0 a0 93 be 86 e4 a9 3c
       -0.16182724 0.015350146 -0.28833628 0.020738851
000060 93 bc dc 3b 12 06 08 be d0 da a0 3e f3 68 6e be
       0.006736347 -0.13283566 0.3141694 -0.23282222
000070 06 5e 9f be 4e 98 24 bd 2d 2f b3 bd 2a 78 92 be
       -0.31126422 -0.04018431 -0.087492324 -0.28607303
000080 db 4c 31 bd 3e 16 40 bb 53 fc f3 bd 53 d2 74 bd
       -0.043286186 -0.0029310132 -0.119133614 -0.059770893
000090 ae 21 c9 bc e6 8c 19 3d c1 4e 5c bd 12 4c 06 bd
       -0.024552193 0.037487887 -0.053786043 -0.03278739
0000a0 9f 70 be bb 27 fd 79 bd ba c3 2e bd d8 b6 48 bc
       -0.0058117653 -0.06103244 -0.04266713 -0.012250625
0000b0 10 4d cd bd 80 5b d0 3c 66 f9 f8 bc f0 a4 d0 bb
       -0.10024464 0.025434256 -0.03039236 -0.0063673183
0000c0 40 16 ab bc d9 a6 18 bd b0 4c 25 bd 1e 1c 91 3c
       -0.020884633 -0.037268493 -0.040356338 0.017713603
0000d0 e1 2f 97 bb 10 d4 91 3b ea c0 30 3d 9f b6 8e bd
       -0.004613862 0.0044503286 0.043152727 -0.06968426
0000e0 ba c0 a8 be 79 20 25 bd 45 44 aa 3e 61 cf d4 3a
       -0.3295954 -0.04031417 0.3325521 0.001623612
0000f0 00 5d 03 3b ad 88 36 bd 95 44 5b 3d af 8b 8b bd
       0.0020044446 -0.044563938 0.0535322 -0.06813752
000100 2e b4 1d bd 17 ac a2 3d 33 51 b6 3c 04 84 0c 3d
       -0.03850191 0.0794298 0.022255516 0.034305587
000110 97 99 27 bd 85 bd 7e 3c 9b f5 15 3e ee a7 50 3d
       -0.04091796 0.015548115 0.14644472 0.0509414
000120 a1 f1 61 bd 88 ee 05 bd de 24 02 be bf 80 de bd
       -0.055162076 -0.032698184 -0.12709376 -0.108644
000130 28 8a b9 bc d4 46 82 3d 99 c6 4d bc 52 88 a3 3c
       -0.022648886 0.06361166 -0.012559556 0.019962464
000140 d6 3b 55 3d a8 fd 75 3e 88 f7 34 bd ac 82 c7 bc
       0.052059017 0.24022543 -0.044181377 -0.024354301
000150 b6 3f ac 3d 4f 96 ae 3d f0 fa 91 3c 53 23 9c bd
       0.084105894 0.08524763 0.017819852 -0.07623925
000160 7b 02 47 3e 3c 48 3c bd 81 fd e3 bc 14 d7 d3 bd
       0.1943454 -0.045967326 -0.027830841 -0.10343757
000170 1a d9 0a 3b e6 d6 a1 3d 76 50 a9 3d fc df 5a 3c
       0.0021186532 0.07902317 0.082673 0.013359066
000180 ac 76 e2 3c d7 97 06 be 76 4f 84 3b cf 37 b5 be
       0.027644478 -0.1314386 0.004037793 -0.3539414
000190 25 00 4c be 1a a3 e2 bb a2 35 1b 3c 92 d6 5e 3d
       -0.1992193 -0.006916416 0.009473236 0.05440385
0001a0 bd ae 88 bd 89 5a a3 bd d5 c1 a9 bd 2c e8 bf 3b
       -0.06673954 -0.079762526 -0.08288924 0.0058565345
0001b0 52 d7 5c 3d 2f e4 08 3e fc d1 46 3d 2e 44 b5 bd
       0.053916283 0.13368295 0.0485401 -0.08850895
0001c0 40 54 8f ba 18 ff 0f bd 0c 51 e2 bb 40 ab c5 bb
       -0.0010935143 -0.035155386 -0.006906634 -0.0060323775
0001d0 c5 b8 87 bc 32 95 84 bd ff 86 f8 bc 8d a1 0e 3c
       -0.016567597 -0.06473769 -0.030337809 0.008705509
0001e0 49 c4 77 3e ac 23 7a 3d e0 8a bf bc 3a a0 f7 be
       0.2419597 0.061069176 -0.02338165 -0.4836443
0001f0 08 90 22 3c 61 c3 d4 bd 99 13 4e bd ea aa d3 bb
       0.009922035 -0.10388828 -0.05031166 -0.0064595835
000200 60 08 24 3b 6c 5d 27 bd 3d 82 a7 bd 61 20 6a bd
       0.0025029406 -0.04086058 -0.08179138 -0.057159785
000210 ac 4b 42 bd e7 01 25 bf 2b 13 de bc bc 2a 03 3d
       -0.047435448 -0.6445603 -0.02710875 0.032023177
000220 06 86 1b bd 88 f9 10 3c 4a 06 49 be dd 84 8c 3d
       -0.03796961 0.008848555 -0.19631305 0.06861279
000230 d3 5d 77 bd d3 a0 24 3d b5 ab 9e 3d 96 5a 08 bd
       -0.060392212 0.040192436 0.07747594 -0.033289514
000240 22 53 5a bd 40 fe f0 bb 83 8b c3 3d 94 9c 9f 3d
       -0.053301938 -0.0073545277 0.09548094 0.07793537
000250 54 2b 29 3d af ae bb bc 0f de 53 3e b3 52 8f 3d
       0.041301087 -0.022910444 0.20690177 0.069981955
000260 40 6a a1 bd c3 0b 73 3c db 24 a7 bd e1 1d 09 be
       -0.07881594 0.014834347 -0.081613265 -0.13390304
000270 b4 8b 2d bd 75 51 56 bd 42 55 35 bd 06 ff b1 3d
       -0.04236956 -0.052323777 -0.04427076 0.0869122
000280 81 a3 34 bd f0 eb 3e 3d f0 47 b1 3a 14 52 83 bc
       -0.044101242 0.046611726 0.0013525467 -0.016030349
000290 64 fa 77 3d 19 13 02 3e 62 1f 8a bd 88 c6 95 3c
       0.060541525 0.12702598 -0.06744267 0.018283144
0002a0 a5 b3 9f bd 11 1e ab bc 21 34 e4 bd 44 fd af bc
       -0.07797936 -0.02088836 -0.11142755 -0.021483071
0002b0 db bd c0 3b 84 c1 8b bc 50 cf 21 3e 28 a7 e2 3c
       0.0058820075 -0.017060049 0.1580174 0.027667597
0002c0 45 63 53 be 51 c8 a5 be e7 77 a8 bc ce a9 81 be
       -0.20643337 -0.32379392 -0.020564986 -0.25324863
0002d0 6d d1 81 bd 4d 4c e5 3c e2 e7 0a 3e 5c 88 a5 bc
       -0.06338773 0.027990485 0.13565019 -0.020206623
0002e0 3a 3f c0 be de 6f 85 3e 16 ef 1b 3e b4 54 50 be
       -0.37548238 0.2606191 0.15227923 -0.20344812
0002f0 6e 18 1d 3c c5 da 4a 3e 52 ef 64 3e 7d 81 59 bd
       0.009588344 0.19810016 0.22356918 -0.053102005
000300 3e 6b f6 bd 1f 8c cd bd ca 79 3e 3d 2e a5 4e 3d
       -0.120321736 -0.100364916 0.046502866 0.050450496
000310 00 5e ab 3b e2 ff 1f bd 42 f5 85 be 9c ca 30 3d
       0.0052297115 -0.03906239 -0.2616368 0.043161973
000320 ac c5 21 3d c8 df 17 3d e0 f8 de bd 5a f9 49 3d
       0.039495155 0.03707865 -0.10887313 0.049310066
000330 8e 3e 33 3c 30 0a 48 3d 57 23 ce bb 4b 18 9b 3b
       0.010940207 0.04883784 -0.006290834 0.0047331206
000340 0c 0e 89 3c 91 e7 f5 bc 3c 70 20 bd 0e ef 72 be
       0.01673033 -0.030017646 -0.039169535 -0.23724005
000350 4e cc 9e 3d 69 c3 23 bd 99 da 5b bc 3a 5f 69 bc
       0.07753812 -0.03998128 -0.013418817 -0.014243895
000360 9a 9e 7d be 18 df 30 be 3d 8b 83 bd 31 ae 03 3e
       -0.24767533 -0.17272604 -0.06423042 0.12859417
000370 d4 a1 41 3b 58 a5 11 3c df 45 cf bd 37 53 0a bd
       0.002954592 0.008889519 -0.10120749 -0.033770766
000380 c3 dc 1c bd 8d ef 08 3e 29 82 11 bc 48 65 b1 bc
       -0.038296472 0.13372631 -0.00888113 -0.02165474
000390 98 49 b1 3e db 2b 85 bd c0 0a b5 bd 8d 07 1a 3e
       0.3462646 -0.065025054 -0.08839941 0.15041943
0003a0 aa 4b 48 3d e9 9e 7d be 17 54 9e bc 01 3e 20 bd
       0.048900284 -0.2476765 -0.019327207 -0.03912163
0003b0 13 b9 52 bd a1 a9 d8 bd 41 12 8f bc 00 50 9a 39
       -0.05144603 -0.10579229 -0.017464759 0.00029432774
0003c0 ce 7d 26 bd 2c 44 4f bd 01 4e f9 bc 14 1e 70 bd
       -0.04064732 -0.050602123 -0.030432703 -0.058622435
0003d0 27 e2 e8 bb 70 e7 66 bd 20 fd 15 be 71 27 76 bc
       -0.0071070376 -0.05637306 -0.14647341 -0.015024052
0003e0 9c f4 0f be 95 73 20 3d f1 29 4a 3c bf 40 90 bd
       -0.14058155 0.039172728 0.012339101 -0.07043599
0003f0 59 b3 92 3c 2f d0 86 39 03 3b 88 be aa 14 51 bd
       0.017907785 0.0002571358 -0.26607522 -0.051045097

net.2.bias f4 [128]
000000 70 b3 60 3d c1 b5 aa bd 60 e7 77 3c 47 ed 43 bb
       0.054858625 -0.08335448 0.015130848 -0.0029896067
000010 0c 5a e6 bc 4c 46 93 3e db 46 a8 bd 58 93 61 bd
       -0.02811911 0.2876457 -0.082166396 -0.05507216
000020 65 77 bf bd 0a a7 b8 3c db 04 8e bd f3 fc 49 bd
       -0.093489446 0.022540588 -0.0693452 -0.049313497
000030 55 bb d0 bd 3d 1c e1 bc 09 1e 83 3d 93 6a 8f 3b
       -0.10191981 -0.027479285 0.06402213 0.0043767183
000040 94 87 b7 bd 8a 07 69 bd e3 f7 4b bd 67 52 26 bd
       -0.08961406 -0.056891955 -0.04979695 -0.04060593
000050 89 10 2d bc ee 2e d5 bc 32 27 6d 3d 3f 3a 25 3e
       -0.010563024 -0.026023354 0.057898708 0.161355
000060 f1 08 20 bd e3 11 67 bc 8d d1 ad bd 9c d5 5b bd
       -0.039071027 -0.014103386 -0.08487234 -0.05367051
000070 6d 5a a0 bd f0 dc 7a bd 84 88 a7 bd b9 df ed 3c
       -0.07829747 -0.06124586 -0.08180335 0.029037343
000080 1c 5d 1a bd 93 ac 1e 3c f0 8c 49 3b c5 92 a9 bc
       -0.037686452 0.0096847 0.0030754171 -0.020699868
000090 19 9a e2 bc a4 da 44 bd 75 23 8a 3d e0 10 3b bb
       -0.02766137 -0.048060074 0.06745044 -0.0028543994
0000a0 2c 4d 79 bd 1a 69 c3 bc 0b d0 8b bd cc 96 7c bd
       -0.060864612 -0.023853827 -0.068267904 -0.06166725
0000b0 0b 0b 71 3e be 21 f8 3c 8c 73 ac bc af fe ae 3b
       0.23539369 0.030289527 -0.02105119 0.0053404192
0000c0 f5 55 1b bd 0e 08 fe bc 4f 93 b3 bc e9 34 5e 3e
       -0.037923772 -0.0310097 -0.021920828 0.21699871
0000d0 16 40 86 bd bd 70 07 bd bc ea 20 bc bf f4 95 3b
       -0.06555192 -0.0330665 -0.00982159 0.004576295
0000e0 7a 07 4b 3d c6 0e 4a 3e 91 63 81 3b 30 bf 73 3a
       0.049567677 0.19732198 0.003948637 0.00092982035
0000f0 af 80 57 bd e6 0b e8 bc 19 d0 b4 3c 31 3c 6b bd
       -0.052612957 -0.028325986 0.022071885 -0.05743045
000100 01 28 fb bc 8f a5 ad bd 7e 73 1d bd 50 ec 09 3b
       -0.030658724 -0.084788434 -0.03844022 0.0021045394
000110 55 f2 d6 bc 38 9f aa 3c 41 d6 e6 bc 89 ae 38 bd
       -0.0262386 0.020827875 -0.028178336 -0.045088325
000120 5e 3e 12 3d 1b b0 9e bd 43 bc 00 bd 98 36 82 3b
       0.03570401 -0.07748433 -0.03142954 0.0039737932
000130 1f 7a f5 bc 87 bf bb bd 5d 72 4c bc 47 3e 1f bc
       -0.029965458 -0.0916739 -0.012478438 -0.009719438
000140 21 d0 37 bb 58 43 73 bd ed a1 23 bd c3 72 1f 3c
       -0.0028047638 -0.059390396 -0.039949346 0.009731951
000150 5d 25 0f bd ab ec 80 bd b3 57 5f ba be b8 aa 3c
       -0.03494774 -0.06295141 -0.0008519843 0.020840045
000160 94 2c 20 bd 8c 09 6e bd 06 2d 8c 3c b3 e6 9a 3e
       -0.039105013 -0.058114573 0.017111313 0.30254135
000170 bd c6 29 3a 48 54 b1 3e c0 5a 9e 3c bd 41 99 3e
       0.00064764527 0.34634614 0.019330382 0.29932967
000180 22 a1 f0 bd 32 00 14 3d 7d f7 86 3c 16 93 59 bd
       -0.11749484 0.036133 0.016475433 -0.053118788
000190 20 5d fa bc 93 cf 64 3c 37 c4 f7 3b a1 45 a0 3e
       -0.030561984 0.013965505 0.0075612324 0.31303123
0001a0 30 e8 f7 bd 57 53 d8 bc 3f 10 92 3c 0a a8 3f bd
       -0.12104833 -0.026406927 0.017830012 -0.046791114
0001b0 19 dc 53 bc f3 3b 99 bd 22 6b b8 3c 44 f2 b0 bd
       -0.012930893 -0.074821375 0.022512022 -0.086399585
0001c0 b2 10 cb bd 61 8e 03 bd 00 77 2e bd 04 15 9a 3e
       -0.09915294 -0.032118205 -0.042593956 0.3009416
0001d0 47 c3 a1 3d fd 21 b3 bc be c6 22 bd 6d de 0b bd
       0.07898574 -0.021866793 -0.039740317 -0.03414767
0001e0 a2 a2 be bd 7f 2c f0 3b dd 9c 41 3e 53 03 82 bd
       -0.093083635 0.007329523 0.18907495 -0.0634829
0001f0 44 53 8d 3b 16 e5 93 bc 6b 8a 46 bd bc 30 cf bd
       0.0043129046 -0.018053573 -0.04847185 -0.10116717

net.4.weight f4 [54, 128]
000000 2c 5f 6a bd 8e e4 a0 bd fe ae 1f bd 6a 11 67 bd
       -0.05721967 -0.07856093 -0.038985245 -0.05641309
000010 5e 8b cb 3d 4d 9e 1e 3e 46 e4 32 3d 00 07 d8 3c
       0.099386916 0.15490074 0.04367473 0.026370525
000020 3b 64 a7 3d 7f 66 b3 3d f8 9d dc bc 77 07 37 3d
       0.08173414 0.08759784 -0.026930794 0.044684853
000030 68 ea 60 bc 87 c4 95 3d 62 a2 5f 3e a0 e1 41 3b
       -0.013727762 0.07312875 0.21839288 0.0029583946
000040 05 97 33 bd f3 eb b9 3c 64 9c 42 bd 48 4d 92 b9
       -0.043845195 0.022695517 -0.047512427 -0.0002790487
000050 54 0e 0d bd c0 5d aa 3c e2 6c 50 3e d8 10 8c 3e
       -0.034437492 0.020796657 0.20354035 0.273566
000060 68 cb af 3c 50 42 8d 3b 6d c9 0f bd 00 bb 0e 3a
       0.021459296 0.0043108836 -0.035104204 0.0005444735
000070 27 17 14 bd 00 26 fd b9 10 fc 09 3c bb ef 16 3c
       -0.036154892 -0.00048284233 0.008421913 0.00921243
000080 95 64 51 bd d2 3d 17 3d 92 97 3e 3d c0 8c 3c 3c
       -0.051121313 0.03692419 0.046531267 0.011508167
000090 00 8d 0a 3b 7c 24 42 3d 2f 7e 33 be 94 42 13 3e
       0.0021141171 0.047398075 -0.17528604 0.14380866
0000a0 b8 8c 09 bc 86 5a 42 3d 10 62 fd bb a7 35 5a bd
       -0.008395366 0.04744961 -0.007732637 -0.053273823
0000b0 04 0e 69 3e 2e f7 4f bd a0 15 09 3d 12 1b 41 3d
       0.22759253 -0.05077284 0.03346789 0.047144957
0000c0 67 d3 26 bd 72 ad 95 bd 23 ba bb 3d 94 ad f7 3d
       -0.040728953 -0.07308473 0.09166362 0.12093654
0000d0 ce b5 e9 3d 81 64 fd bd 69 ac 36 3d 78 45 f4 3c
       0.114116296 -0.12372685 0.044598017 0.029818282
0000e0 13 78 e3 bc 2a a4 ed 3d c2 28 3e 3d dd 5c a8 bd
       -0.027767217 0.116035774 0.04642559 -0.08220837
0000f0 ed 62 a3 3d e4 24 a0 bd 77 2c 76 3c 18 fe 7a bc
       0.07977853 -0.07819536 0.01502525 -0.01531937
000100 d9 16 9d 3d 81 d2 85 3d ec 4e e6 3d 6a 8b 80 bd
       0.076703735 0.06534291 0.11245522 -0.06276591
000110 be 8a 6b bd 16 f8 26 3e ca 4e 71 3c 4d 93 93 bd
       -0.05750536 0.16305575 0.014728257 -0.0720583
000120 fc 33 17 bd 80 55 09 ba 7a 94 76 3d 28 d2 98 bd
       -0.03691481 -0.0005238876 0.060200192 -0.07461959
000130 e0 bf b0 3c 6d c5 6a 3d 44 64 d6 3d e9 c0 45 bd
       0.021575868 0.057317186 0.10468343 -0.048279677
000140 86 a9 2b 3d b7 f1 07 ba 5e c1 8a 3d 00 c7 b7 bc
       0.041909717 -0.00051858596 0.06775163 -0.022433758
000150 06 17 29 3d 1e ce 53 3d 21 99 16 3d 63 9f 65 bd
       0.041281722 0.05171024 0.03676713 -0.056060206
000160 a6 a7 b8 3d 20 1d c0 3c 30 07 de 3c b1 10 56 3e
       0.090163514 0.023451388 0.027103037 0.20904805
000170 0b 7f 9b 3d 0a 4c 06 3e 10 cd d6 bc 8d 4d 68 3e
       0.07592591 0.13114944 -0.026220828 0.22685833
000180 84 79 b6 3d 33 52 6a 3d d6 62 16 3d 48 7e 75 bd
       0.08909896 0.057207298 0.03671535 -0.059934884
000190 2b f1 5e bd ec 4e cd 3c 40 20 41 3e 82 12 44 3e
       -0.054429214 0.025062047 0.18859959 0.19147685
0001a0 24 d1 e9 3c 52 06 2a bd ec e5 4e bd 6a 8d 26 3d
       0.028542109 -0.041509934 -0.05051224 0.040662207
0001b0 8a 2e 4c 3c 6d b9 4f 3d 78 fa 9d bc c0 0f ce bb
       0.012462268 0.050713945 -0.019284472 -0.0062884986
0001c0 31 63 d1 bb 54 d4 2a bd b4 92 37 bd ae e3 5a 3e
       -0.0063899984 -0.041706398 -0.04481764 0.21375915
0001d0 16 27 4d bd d8 6f 4e 3c 85 46 14 bd 12 7c 33 3d
       -0.050086103 0.012599908 -0.036200065 0.043819495
0001e0 30 c5 c9 3b b0 3d 4c bb e9 f9 62 3e 27 8d 92 bd
       0.00615754 -0.0031164698 0.22165646 -0.07155829
0001f0 eb 7e f0 ba 52 be 0d bd ae 87 1c 3d d9 1e b1 3d
       -0.0018348371 -0.03460533 0.03821533 0.08648462
000200 48 e4 39 3e c0 38 b8 ba fb 95 05 bd f0 17 49 bc
       0.18153489 -0.0014054999 -0.032613736 -0.012273774
000210 28 2f 20 bd 00 48 3d 3e e0 25 c4 3b 93 9d 3a 3b
       -0.03910747 0.18484497 0.0059859604 0.002847527
000220 6e ae 41 3d 9e 43 02 3d dc 21 bb 3c 75 78 b8 bc
       0.04728549 0.031802766 0.022843294 -0.022518376
000230 cc 0c 1d 3c a6 61 95 bd 01 b9 69 3e 4b fb ae 3d
       0.009585571 -0.072940156 0.2282448 0.08544024
000240 47 f8 46 3c ec d9 9d bb 42 a6 13 bd 6f 9c ff bc
       0.012144155 -0.004817238 -0.036047228 -0.031202523
000250 b1 1a ae 3d 35 40 89 bd d4 a5 1e 3d cf 17 53 3e
       0.08501185 -0.067017 0.038732365 0.20614551
000260 e4 79 83 bc b0 81 81 bc 20 1d 02 3c a4 3a 93 bc
       -0.016049333 -0.01580891 0.007941514 -0.017972298
000270 f7 b8 d7 bc 10 03 9f 3b b4 e3 c0 3c 34 83 7e bd
       -0.026333315 0.00485266 0.023546077 -0.062136844
000280 76 dc 6e bd 5a 30 ac bd 6b 58 9d 3d 9a a9 56 3d
       -0.058315717 -0.0840766 0.0768288 0.05240784
000290 ec 20 68 bd f4 e7 40 3c 46 34 ac bd 65 c4 a9 3c
       -0.05667202 0.011774052 -0.08408408 0.020723531
0002a0 8a ea 7b 3d 56 66 6e 3d 90 60 45 bc 98 44 a2 3c
       0.06150297 0.058203064 -0.012046948 0.019808099
0002b0 3b 69 12 3e de f7 66 3d c9 1b e9 3d e8 22 4b bd
       0.14297955 0.05638873 0.11382253 -0.049593836
0002c0 8e f8 41 3d 34 b2 05 3d 14 d4 06 3d 1f 5f c1 ba
       0.04735618 0.03264065 0.032917097 -0.001475308
0002d0 82 9c 49 bd 4c 0f 83 bd 60 c6 7b 3c 8d 00 99 bd
       -0.049221523 -0.06399402 0.0153671205 -0.07470808
0002e0 da 3b d1 3c b8 52 43 3e 0f a6 96 3d b9 59 bf 3c
       0.025541235 0.19074523 0.07355892 0.023358213
0002f0 00 7c 8a b9 ff 82 32 bd a9 a9 ab 3d 66 f9 1a 3d
       -0.00026413798 -0.04358196 0.083819695 0.0378355
000300 81 7f af bd 28 f5 d8 bc b1 fb 90 3e 30 fd e4 3c
       -0.08569241 -0.026484087 0.28317025 0.02795276
000310 a5 d0 88 bd 4a 5a b0 3d 4a 29 19 3d 88 a9 9c 3c
       -0.06680421 0.08610971 0.037392892 0.019123808
000320 78 3f 4d bc 58 1d 4c bd 50 30 83 3d 71 45 84 bd
       -0.012527339 -0.049832672 0.06405699 -0.064585574
000330 2e 82 92 bc 4b c0 70 3c 04 b4 84 bc f7 e2 9c 3d
       -0.01788434 0.014694284 -0.01619912 0.076604776
000340 c2 d1 43 3d 91 e1 04 3d 3a 16 22 3c c7 28 6d bb
       0.047807463 0.03244168 0.009892995 -0.0036187635
000350 00 58 36 38 2c 43 ae bd c4 a6 0f 3d 9b 44 63 bd
       4.3474138e-05 -0.08508906 0.03507115 -0.05548535
000360 e0 9e 69 bb 80 82 87 bc b4 50 c4 bd 05 ac 6b 3e
       -0.0035647675 -0.01654172 -0.095857054 0.23014839
000370 60 df f0 3c 21 fc 85 3e 98 0a 9f bc 60 9d 16 3e
       0.029403389 0.26168922 -0.019414231 0.14708471
000380 9a a2 23 3e 24 86 32 3e f6 71 7d 3d 6e c4 e2 bc
       0.15979996 0.17433983 0.06187626 -0.027681556
000390 3f cb 1e 3d ee 3a 85 bd 5d 83 8d bd bf c0 37 3e
       0.03876805 -0.065053806 -0.06909821 0.1794462
0003a0 28 64 39 bc 60 f3 59 bb 69 60 88 3d 6c b2 a5 bc
       -0.011315383 -0.0033256635 0.06659014 -0.02022668
0003b0 bd d3 54 bd 38 ec 18 3b 1f e0 a5 bd 5f c3 16 3c
       -0.05195974 0.0023334157 -0.08099388 0.009201854
0003c0 8a 3a c6 bd 92 19 e8 bc c4 ac 15 3d d1 1c 4f 3e
       -0.09679134 -0.028332505 0.036541715 0.20225836
0003d0 d2 c3 44 bd 6d 61 ad 3d 10 1b e6 bb 00 61 1c bb
       -0.04803831 0.08465848 -0.007022269 -0.0023861527
0003e0 ba ea 93 bd 46 81 15 3d 29 34 04 3e 4c 57 0c be
       -0.07222505 0.036500238 0.12910523 -0.13705176
0003f0 3e 3f 71 3d 1a 38 0a 3d ee 36 3c bd 10 fd aa bc
       0.058898203 0.03374491 -0.045950823 -0.020872623

net.4.bias f4 [54]
000000 e0 89 3d 3e b3 58 bf 3e d0 b8 51 3e d7 30 58 3e
       0.18509626 0.3737236 0.20480657 0.21112381
000010 65 4d a5 3e 31 2f 8e 3e 0b 7c 58 3e a1 e2 5b 3e
       0.3228561 0.2777038 0.21141069 0.21473171
000020 ec 9e 2b 3e b5 80 61 3e c8 82 73 3e be 97 59 3e
       0.16759843 0.22021754 0.23780358 0.21249291
000030 1e 22 8c 3e 01 57 df 3d c5 f1 c0 3e d9 73 a4 3e
       0.2736978 0.109052666 0.37684456 0.32119635
000040 bb fc 86 3e 3e 51 95 bc 20 93 80 3e b3 78 bf 3e
       0.26364693 -0.018227216 0.25112247 0.37396774
000050 55 c5 0f 3e d1 3d db 3e ad 49 35 3e ec bf 47 3e
       0.1404012 0.428206 0.17703886 0.19506806
000060 b7 73 b9 3e db 0e 8f 3e c4 a6 1e 3e 97 b0 80 3e
       0.36221096 0.2794102 0.15493304 0.25134727
000070 e1 16 86 3e d2 6c 5a 3e f3 d5 85 3e 0b 57 9b 3e
       0.2618933 0.21330574 0.26139793 0.30339846
000080 fa 13 ff 3d 54 40 9a 3e e9 d4 be 3e a1 0a 80 3e
       0.12454982 0.30127203 0.37271813 0.2500811
000090 49 10 64 3e b0 be 5e 3e 08 af 74 3d 56 66 65 3e
       0.22271837 0.21752429 0.059737235 0.2240232
0000a0 43 8a 86 3e 3c 38 8d 3e 8c 23 24 3e c5 ba 53 3e
       0.2627736 0.27581966 0.16029185 0.20676716
0000b0 48 57 87 3e 8b cb e5 3e 6d b7 d2 3e 31 e6 f3 3d
       0.26433778 0.44881853 0.41155568 0.1190914
0000c0 70 cb a1 3e e5 fd cf 3e 7b 42 e1 3e 36 c7 83 3e
       0.31600523 0.40623394 0.43996033 0.25737923
0000d0 47 83 2b 3e 5a ab 21 3e
       0.16749297 0.15788022
