Assets/bot_brain_latest.pth (torch, 181730 bytes, 6 tensors)

net.0.weight f4 [256, 18]
00000000: f3bc b7bd 26e4 4c3e 26ab c3be bde2 e2be
00000010: a94c 94be c9f7 a13e 1a4a a9be af3f cfbe
00000020: 3a2b b1bd 8efc 683c 4313 fbbc 435d b8be
00000030: 3abe 813d 6c4f abbd f6cf acbd d647 5fbe
00000040: d5e7 59be 2240 9f3e dddb 42be 7567 4dbe
00000050: 20c3 273e 9743 38be c82e b23e 66f0 21be
00000060: f4af 4bbd bcf1 123d 661b 053e c91d edbe
00000070: 589a acbd f5b6 0e3c 21c0 683e 6990 5bbe
00000080: 902f 7b3c 1765 793c 4d1f 7a3e aba5 8bbe
00000090: 2064 853a f1f4 8e3e fced a5bd e7ed 2cbe
000000a0: b053 a13d 869c 633e 5716 753e f58d 14bd
000000b0: 873c 723c c4cc e33d 79ba b83d 715a b8be
000000c0: 32bb 843d 7eed a03d 5e92 25be 9473 cabd
000000d0: 361e 22be dbf3 903e 599c 71be 05ed 153e
000000e0: e670 d6be 8186 95bd 3aa5 c23d d699 0b3e
000000f0: 3a21 b9bd 8107 143e 472a c1bd 6616 98be
00000100: 0611 7d3d e203 c6bd 70b0 e2bc 6c54 1ebd
00000110: aae6 12be a3ec cd3b 3e87 f9be 4547 82be
00000120: cbd9 e13d 25b5 b7bd 6098 ffbd 44e5 56be
00000130: 76c2 9dbb 0474 593e ea39 013e 10e6 803e
00000140: 3905 29be e740 f73d af46 173e de7a b5be
00000150: 4dc3 15be dcb5 9abd 480d 7abd 3bd1 43be
00000160: a1b2 8b3e 5836 703e c66c cabc 7f02 1d3e
00000170: 7cce a23d 59cf 90be f3b1 20be ed6a 1f3e
00000180: 623a 8bbd 945a 2e3d a40d 983d da6f 883e
00000190: 7c8e 523d 152a 8dbe 829d dfbd 58d2 96bd
000001a0: aba7 1ebe edd7 de3c 8e8d 6f3e 0e16 043e
000001b0: a260 613d 3e1f c33e 3dd3 50be 4f35 42be
000001c0: 068c 4f3e c3d8 143e 206f 813e 67b3 423d
000001d0: b856 13be 1f30 463d 8830 5b3e 241c bc3b
000001e0: d088 48be 7a3b bd3d 2ed5 a2bd bbad 5c3e
000001f0: 7ffa 9e3e d999 d83d 12c0 b7bc e7bb e5bd
00000200: ddc5 b43e 54b7 a6be fd83 933d ef91 1e3e
00000210: ce85 b83d 348a c63e 55f6 88b9 679c c2be
00000220: a81e 6b3e 836a 793e 3c50 3c3d 2cdb 1a3d
00000230: bfdc 443e 83cb c13d 30cf 16bd a1a8 a83d
00000240: 4026 47bd d905 d63c ab87 b6bd 9723 babd
00000250: c08a 7abd 4338 c23e ca41 91be 46a7 30bf
00000260: 82d9 da3d 2992 fe3e e830 073c 1409 f1bd
00000270: df8a 543e edc0 533e e699 a1bd 6362 70bd
00000280: 55ee 9e3e 78e9 4a3e 8517 05be fcbf 583e
00000290: d569 c73b de74 bebe 1c3d 8d3e c543 72bd
000002a0: 3bcb 163e c6f6 953e 60e0 88bc d409 36bd
000002b0: 1b2f 233e 2b98 4cbd 8082 443c d149 60be
000002c0: 6434 11be b748 903d b14e a2bd 8dd5 843e
000002d0: 0697 8f3d 30c2 b9bd 15ec 1dbd d7a1 a23e
000002e0: 08f1 3ebe ba1c ca3e 1061 173d fc39 f53d
000002f0: 28db 4a3e eadf 803e 5839 6dbd c8b1 643e
00000300: 308d 99bc 92a2 5bbe 9a97 813d ae3c 933c
00000310: 7657 8fbd fdb5 c43e 0198 a5be db35 533e
00000320: 535b 9f3e 20bb 2ebe 85ca 2c3e 7e05 0b3f
00000330: 2725 773d dc32 8bbe d338 35be 6497 7e3d
00000340: ef5c d3bd 011e 923e eccc 403d baac 973d
00000350: 9b05 063e 66c5 4fbe 308a 613c 447d 1fbe
00000360: bb5a 013e debd a3bd 3a31 f53d 5114 183e
00000370: c424 8fbd 027a fd3d d47f 683d 3132 16be
00000380: 10a8 6ebd 59f7 12be 9ab3 c7bd 258d 223e
00000390: 3da3 04be 457b 26be a2e1 01be 7350 05be
000003a0: 8058 e3bc 5821 20be 0ef7 c6bd ac0b 53be
000003b0: 41ba 263e 0bc9 08bf 9c9e e73e 81fa aa3e
000003c0: 173c 183d e097 473e 1345 6f3e 65e8 3dbe
000003d0: 1e9d babd 0f7e 8abb c0cb 7dbb e07c d7bd
000003e0: dcdf 54be 876a 50bc f935 4d3e e0d6 273e
000003f0: c1be 513e 1a71 62be 1e66 b43d 3a7b dfbd
-0.08971586 0.20008907 -0.38216513 -0.44313613 -0.28964737 0.31634358 -0.33064348 -0.40478274
-0.08650823 0.01422037 -0.030648833 -0.36008653 0.06335111 -0.08364758 -0.08438103 -0.21804747
-0.21279843 0.31103617 -0.19029184 -0.20058997 0.16383028 -0.17994533 0.34801316 -0.15814361
-0.04972835 0.035875067 0.12998733 -0.46311787 -0.08427876 0.008710613 0.22729541 -0.21441807
0.015331164 0.015221856 0.24426003 -0.27274832 0.0010176934 0.2792125 -0.081020325 -0.16887628
0.0787729 0.22227678 0.23934303 -0.036268193 0.014784939 0.1112304 0.09019942 -0.360065
0.06481017 0.07857798 -0.16169116 -0.09885326 -0.15831837 0.28311047 -0.23594798 0.14641197
-0.4188301 -0.07301045 0.09504171 0.13632903 -0.090395406 0.14455988 -0.09431892 -0.2970459
0.061783813 -0.09668709 -0.027672023 -0.03865473 -0.14345804 0.006284313 -0.48735994 -0.25445
0.11027869 -0.089700975 -0.12480235 -0.20985895 -0.0048144413 0.21235663 0.12619749 0.25175524
-0.16505899 0.12072926 0.14773057 -0.35445303 -0.14625283 -0.07554218 -0.061047822 -0.19122784
0.2728472 0.2345823 -0.02471007 0.15332983 0.0794954 -0.28283194 -0.15692882 0.15568133
-0.06798245 0.04256685 0.07424477 0.26647836 0.051405415 -0.2757117 -0.10918714 -0.07364339
-0.15493648 0.02720257 0.23393843 0.12899038 0.055023797 0.38109773 -0.20393081 -0.18965648
0.20268258 0.14535813 0.25280094 0.047534373 -0.1438855 0.048385736 0.21405232 0.0057406593
-0.1958344 0.0923986 -0.07950817 0.21550648 0.31050488 0.10576219 -0.022430453 -0.1121748
0.35307208 -0.32561743 0.07202909 0.15485357 0.09009896 0.38777316 -0.00026123473 -0.3800995
0.22960913 0.24357037 0.045974955 0.037806675 0.19224833 0.09462645 -0.036818683 0.082352884
-0.048620462 0.026125835 -0.08912595 -0.090888195 -0.06116748 0.3793355 -0.28370506 -0.6900524
0.106860176 0.49720886 0.008251406 -0.1176931 0.207561 0.20679064 -0.07890682 -0.05868758
0.31041208 0.19815624 -0.12997253 0.21166986 0.006085614 -0.37198538 0.27585685 -0.05914666
0.14725964 0.29289836 -0.016708553 -0.044442967 0.15935938 -0.049949806 0.011994004 -0.21903159
-0.14180142 0.07045119 -0.079251654 0.25944176 0.07011227 -0.090702415 -0.038555223 0.317641
-0.18646634 0.39475042 0.0369578 0.1197395 0.19810164 0.25170833 -0.057916015 0.22333443
-0.018744081 -0.21448734 0.06327744 0.01797327 -0.06999104 0.38420096 -0.32342532 0.20626013
0.31124362 -0.1706357 0.1687413 0.54305255 0.060338166 -0.2718724 -0.17697458 0.062156096
-0.1032046 0.28538516 0.04707043 0.07405992 0.13088076 -0.20290145 0.013765857 -0.15575129
0.12632267 -0.07995199 0.1197228 0.148515 -0.06989434 0.12376787 0.05676253 -0.14667584
-0.058265746 -0.14352168 -0.09751053 0.15874155 -0.12952895 -0.16257961 -0.12683728 -0.1301897
-0.027752161 -0.1563772 -0.09715091 -0.20609921 0.16281988 -0.5343177 0.45238197 0.33394244
0.03716668 0.1949153 0.23366193 -0.18545683 -0.09111999 -0.004226453 -0.003872618 -0.10521865
-0.2078852 -0.012720711 0.2004012 0.16390562 0.20482923 -0.22113457 0.0880854 -0.109121755

net.0.bias f4 [256]
00000000: 2a2c be3e 09dd 09bd a926 c63e 7d5f 47be
00000010: 4d81 b93d 46a8 733e 2a61 583e b0af 63be
00000020: 3dfc 0abe 9805 033e 29a4 c4bd f6ea 373e
00000030: 9e75 01be efb1 4dbe 8411 a6bd eda3 963e
00000040: 8488 ad3e f0c3 80bd 2194 c93e 093b 01be
00000050: 309f da3c 9a9e 1e3e be5e 703d 07df c53d
00000060: 1555 58be 0472 983e a885 2abd f4db 5a3e
00000070: c6f0 ef3b f925 fb3d 02be 3a3e 25a6 8fbd
00000080: c366 74bd 99a5 233e 8fa8 143e be7d aa3e
00000090: 6dd7 0c3e ec01 643e 28dd 573d ea89 f33e
000000a0: 6378 cebd 5acb a03e 61c9 c83e a914 723e
000000b0: e565 f73d 19cc f13d d1f2 8b3e a331 4c3e
000000c0: 7cc3 babd 4634 bb3e 081c 453e 7ad1 923e
000000d0: 7f70 33bd f813 c03b c87b bfbd 6af4 293d
000000e0: f7b2 b43e b043 c13c f84d 773e 17c2 b33e
000000f0: 038f 983e 2363 9f3e a548 a0bd ea9a c73d
00000100: 03ca b4bd 3d18 cc3e dba5 163a e8c6 163e
00000110: 7b6c b3bd b78f a53d ee28 463e 24ac 8a3d
00000120: a33c 143e 42df 3c3e d5a0 7b3e d734 ce3e
00000130: aa65 e03d c22a 9dbd 938a f73d 194a 4c3e
00000140: 2554 323e 34a2 5bbe 13b4 353e 74a3 1b3e
00000150: 7dd1 ab3e 4749 8fbd e9e7 003e 5092 cebd
00000160: 9559 52bd a14b 243e 5516 16be 6ebb b5bd
00000170: ccd3 bb3e d0bf 823e 7f3c 52bd ffa7 9a3e
00000180: 54a8 e8bd 309f b03e ad81 563d 3539 3c3e
00000190: 91c9 853d 428d 9c3e e8c5 3b3e 9f17 313e
000001a0: beae aa3e e3bc 26be e266 963e 29f2 07bd
000001b0: aa00 c93d 34a5 49bd 8590 b83e 454e 363d
000001c0: 2a70 ecbd 4a3f a0bd 7bc0 d1bd e19a bb3e
000001d0: 562e 46be 75d1 493e eba4 383d d932 7c3d
000001e0: 0d49 ab3e 644e 463e c110 ab3d 9b82 823e
000001f0: 4827 2ebe 15df 5b3e e298 363e 94eb c13e
00000200: c293 0c3e 0914 58be a3c7 cc3e 968f e23d
00000210: 9d09 543d 71c2 5f3e 505d fc3d 51b8 78be
00000220: 2020 d53d 0f09 613e 4fd4 323e e86d 93bd
00000230: 109f 28be efc1 103e 3945 053e 6a50 893e
00000240: a16d 903e 4ac9 c03e 592b 983e ea6e c5bd
00000250: 4edd 7a3e 7d9d f5bd 0b7d c5bc b686 8f3e
00000260: 9ba3 823e f3de 9abd 1e12 493e a122 473e
00000270: d048 bf3e ef4c f23a 330d e23d 07ea 833e
00000280: 1007 3dbe 8b75 dcbd 9823 813e e031 8b3e
00000290: 46fe 133e 9ddd 7c3e 2800 073d 4a8d 803e
000002a0: 63f0 61bd 7c3f 7dbd 1edd c3bc 0173 16be
000002b0: 4c93 c43b f377 2a3e c3cc a43d 2ca7 053d
000002c0: d2f1 cbbd 4d26 793e 3214 8c3e 5c20 9d3e
000002d0: 12af 3cbd 450e ba3e ea2b a13d a170 b23e
000002e0: 1701 26be 8f69 8e3e 3dae d13d 623d 8c3d
000002f0: 499a b5bd 0d8a 14be 6079 893d 5732 b03e
00000300: 4097 5a3e 790b af3d aaef be3e abd5 383c
00000310: 3645 a33d f37a c33d bcc6 96be 1c41 663d
00000320: bbcf 853e c706 7bbe d3d4 dbbd d5ca 07be
00000330: f79d 22bc 17d0 913e 0412 bb3d fef2 c83c
00000340: 67cf 973e 67e1 0fbe 04c3 513e e1fe 863e
00000350: 1aae 70bd 180a 833d 9bf6 213e 495e 9e3d
00000360: 6bb5 ae3e a945 8ebd 687e f7bc 5c43 b53e
00000370: c073 78bc d474 1ebe f03d 2d3e 6a76 30be
00000380: 8689 6e3e f053 fc3c 1912 943e a172 1d3e
00000390: 77ec fdbc 1c37 a03c 341d 55bd c748 133d
000003a0: 3c17 7dbe f0fa 6e3e 646e 503d 433e e83c
000003b0: e151 b3bc 125c 313e b289 b9bd 7110 333d
000003c0: 2a3f 16be 261b 943e 9d31 d63c b456 c83d
000003d0: 0486 b2bc c6b7 3e3e 453d 0f3e ce23 82be
000003e0: c3f8 7e3e 8708 1e3e 623b a43d ff99 39be
000003f0: 8e76 88bd a1cf f83d c59c 823d b77f 8b3e
0.3714307 -0.03365806 0.3870137 -0.1947002 0.09057865 0.2379466 0.21130815 -0.22234988
-0.13572784 0.12795103 -0.096016236 0.17960724 -0.12642524 -0.20087408 -0.081088096 0.2942194
0.33893216 -0.06287372 0.39370826 -0.12620176 0.026687235 0.15490189 0.058684103 0.0966168
-0.21126206 0.29774487 -0.04163137 0.21372968 0.0073224036 0.12263102 0.18236545 -0.070141114
-0.059668314 0.15981139 0.14517425 0.3329906 0.13754053 0.22266358 0.052701145 0.47566158
-0.10081556 0.31405145 0.3921614 0.23640694 0.12079982 0.11806507 0.27333692 0.1994081
-0.09119317 0.3656332 0.19248974 0.28675443 -0.043808457 0.0058617555 -0.09349781 0.041492857
0.3529279 0.023591846 0.24150836 0.35109016 0.2979661 0.31130323 -0.07826356 0.097463444
-0.08827593 0.39862242 0.000574676 0.14724314 -0.087609254 0.08084052 0.19351551 0.067711145
0.14476256 0.18444541 0.24573071 0.4027469 0.10956891 -0.07674171 0.12086978 0.19950141
0.17414911 -0.21448594 0.17744474 0.15199071 0.33558264 -0.069963984 0.12588467 -0.10086501
-0.051354963 0.16044475 -0.14656956 -0.0887364 0.36685026 0.25536966 -0.051327225 0.30206296
-0.11360231 0.3449645 0.052369762 0.18381198 0.06532586 0.3057652 0.18337214 0.17294167
0.33336443 -0.16282992 0.29375368 -0.033189926 0.0981458 -0.049229816 0.3604776 0.044508237
-0.11544831 -0.078245714 -0.10241791 0.366416 -0.19353613 0.19708808 0.045079153 0.06157193
0.3345417 0.19365841 0.08352805 0.2549027 -0.17007172 0.21471818 0.17831758 0.37875044
0.1372824 -0.21101393 0.3999606 0.11062543 0.05176698 0.21851517 0.123224854 -0.24289061
0.10406518 0.21976112 0.17463802 -0.07198697 -0.16466928 0.1413648 0.13014688 0.26819164
0.2820864 0.3765357 0.29720572 -0.09640296 0.24498484 -0.11992929 -0.024107477 0.28032464
0.25515446 -0.075620554 0.19635817 0.19446804 0.3736024 0.0018486063 0.11037674 0.25764486
-0.18459725 -0.10764607 0.25222468 0.2718649 0.14452466 0.24693914 0.032959133 0.25107795
-0.05516089 -0.06182812 -0.023909148 -0.14692308 0.0059990045 0.1664732 0.08046868 0.03263013
-0.09958233 0.24331017 0.27359158 0.3068875 -0.046065398 0.36339012 0.07869704 0.34851554
-0.16211353 0.2781491 0.102383114 0.06847645 -0.08867318 -0.14505787 0.067126036 0.34413406
0.2134676 0.0854711 0.37292224 0.011281411 0.07972185 0.09544935 -0.29448497 0.056214437
0.26135048 -0.24514304 -0.107339524 -0.13260968 -0.009925357 0.28479072 0.091342956 0.02452993
0.29650423 -0.14050828 0.20484549 0.26366332 -0.058759786 0.063984096 0.15816729 0.07732827
0.34122786 -0.0694688 -0.030211642 0.35402954 -0.015164316 -0.15474254 0.16918159 -0.17232671
0.23294649 0.030801743 0.28920057 0.15375759 -0.030996544 0.019557528 -0.052029803 0.035958078
-0.24715894 0.23337913 0.050886527 0.028350001 -0.021889629 0.17320278 -0.090594664 0.04371685
-0.14672533 0.28926963 0.026146704 0.09782162 -0.02179242 0.18624792 0.13988216 -0.25417942
0.24899583 0.1543294 0.08019139 -0.18125151 -0.066632375 0.12148977 0.06377558 0.27245876

net.2.weight f4 [128, 256]
00000000: ed07 6d3e a118 cfbe e1aa 1f3e fdaf 7e3e
00000010: a2e4 9d3d 3a54 7d3c 0630 e33d 8e72 553d
00000020: 20a1 d3bd 4282 093e 89d3 07bd 29b0 81be
00000030: 40bd 8f3a fffc 81bd 9adb 70bd 4c59 293e
00000040: 56f8 053e b531 13bd 2a07 283e 68a1 debd
00000050: e8cc 39bc c647 983d 6261 fd3d 0412 b33d
00000060: e292 37bd 6992 f63d 615d db3d 736e 3e3e
00000070: 52a5 073e 8ea2 fe3d 5730 173e 705a 64be
00000080: 826e 88bc 866a 693e 7d1f 0e3e 33e6 1b3e
00000090: 917f 2abd 5244 eb3e 8c95 8c3d a433 533d
000000a0: 1460 a13d 0887 333e 7e3b c33d 8759 a13e
000000b0: 9b41 70be 56fe e33d 08d9 5f3e 003e f83d
000000c0: b452 0abf ae64 313e 8282 76bd 9146 133e
000000d0: fa7f 123d ea19 263d 97bc 003e 4b01 233e
000000e0: 19d0 163d 2d10 083e a24c 8abd 9b9c 7b3e
000000f0: d671 9a3d 70a9 0a3e df5c c53d 0c98 6b3d
00000100: 1dcd 35be dce2 cb3d af5b 293e e903 0a3e
00000110: e970 be3d b32d c7bd 94e3 1f3e ca00 423d
00000120: 8ced d83c 83be b1be e532 d83c a6ad e73d
00000130: d63b 6c3d 7ec8 243d 2a93 1e3e 0f25 f63d
00000140: 9e5c a83d fad5 bfbd a321 de3d 3cdf 383e
00000150: 036e 0e3e b1f7 a43d 3c3e 5ebe 9910 bf3d
00000160: e52c a13d a18d c43d 45ac 213e afe7 243e
00000170: 3ef4 c23d 6fae 273e 028b 323e 6a64 b13d
00000180: 30ae 2fbd c615 b63d a780 0d3e 6024 2a3e
00000190: 84ed 783e b81d 493e 779f 553e 6bf6 963c
000001a0: fa65 5e3d 7ea8 efbd 0ac7 32be 8f51 c23d
000001b0: b76b eebd 8678 503e 03c2 ee3d d5b0 3c3d
000001c0: 04f9 9a3c 5289 8f3c 85bb a83d a06a 363e
000001d0: 3827 bcbc a6ce e43d 28f1 c9bb ed4e 6c3d
000001e0: ef8a 0f3e 0246 bb3d bd91 553d 6101 473d
000001f0: 863c 073d 1fa0 1d3e 4543 e73d 28f3 d03e
00000200: 3a78 fb3d 60b0 ad3c 49c0 973d e7a8 3e3e
00000210: 5220 3fbd cd81 d63d 4655 cc3c 4c1b 2fbe
00000220: 99bc eabc 3d4e 34bd e3e9 f73d 1c24 edbc
00000230: 213e 43be d124 113e b2c2 1fbe 7cea dd3d
00000240: 8b09 c53e 75e7 183e 1fb4 283e 21c0 a1bd
00000250: 4444 353d c9bd 53bd 6487 02bd 0bc0 9d3e
00000260: f73f ab3c 9d55 ab3d d454 4c3e 5f2b fa3d
00000270: 9540 a63d 7ddc 54bc 297e d33a 7974 9bbd
00000280: c3bd b8be 164f f23c cf1b fa3d 90b7 dc3d
00000290: 6134 2c3e f656 933d edb7 febd 6488 923d
000002a0: 1e3d 36be 8e9c 283d aebc 3f3f 0833 463e
000002b0: e9f7 bc3d f9af 0a3c dd81 e33c b439 bf3c
000002c0: 801b 45bb a87b abbc 515b 2c3e d354 b23d
000002d0: 5665 ed3c a942 453e 35b1 f93d 8d7d e93d
000002e0: 2ea2 4cbd cc32 f73d 4e3e 52be 6b9d 613d
000002f0: 9381 cc3d 170c c8bc 4733 fabe a50a 11be
00000300: 081e 8a3e 1b8c ae3d 803c e53d 9001 be3d
00000310: 33aa a9bd 9163 183e cc3a 43be e7f5 173e
00000320: 3d8d 123e 69ed f33c bcf7 8dbc 5d0f 16be
00000330: f211 5dbe fa82 9c3d a77f 373d 3a9a f4bd
00000340: 7dda 5c3e 6cf5 4d3e 1cef d13e a65f 773d
00000350: 401b c13e 891b a13d ad42 a0be 2cf8 633e
00000360: 19c9 193e 053a 403e 4bea 163e 349b 453e
00000370: ac01 9cbe 06c4 efbc b1c6 883d 959a d0be
00000380: 949a 393e fe3b 593e 043c 983d 8046 44ba
00000390: 7f4d 193e 9bea 273e fbca 003e 5648 f2bd
000003a0: 6056 20be 9770 473e 278a 173e 38fc 593c
000003b0: e3db 6b3d 2c01 933d eb19 413e 9a54 933c
000003c0: 897c d63d d7e5 533d 493b 993d 19f7 b2bd
000003d0: 4dc6 303e 0e87 343e a2ef d83d 6c85 9f3e
000003e0: bcef 053e 58e3 de3d 83b2 bb3d 00b3 d23a
000003f0: 40d6 ccbc 204a 3d3e 1de6 2c3e f996 8f3d
0.23147555 -0.40448478 0.15592529 0.24871822 0.07709624 0.015461976 0.11093144 0.0521112
-0.103334665 0.13428596 -0.03316072 -0.25329712 0.0010966435 -0.06347083 -0.05880318 0.1653797
0.13083014 -0.035936076 0.16408983 -0.108706295 -0.011340357 0.07435565 0.1237209 0.087436706
-0.044817813 0.12039644 0.1071117 0.1859682 0.13246658 0.124333486 0.14764534 -0.22300124
-0.016654257 0.22794542 0.138792 0.15224533 -0.041625563 0.45950562 0.06864461 0.05156292
0.078796536 0.17531979 0.095328316 0.31513616 -0.23462527 0.11132495 0.21860135 0.121212006
-0.54032445 0.17323563 -0.060183056 0.14382388 0.03576658 0.040552057 0.12571941 0.15918462
0.03681955 0.1328742 -0.06752898 0.24571459 0.07541244 0.13541198 0.096368544 0.05751805
-0.17754026 0.09955379 0.16538881 0.13478054 0.0929888 -0.09725513 0.15614158 0.047364034
0.026480459 -0.3471566 0.026391456 0.11312418 0.05767425 0.040230267 0.15485826 0.12018787
0.0822079 -0.09366985 0.108462594 0.18053907 0.13909154 0.08055056 -0.21703428 0.093293376
0.07869891 0.09597326 0.15788372 0.16104005 0.09519242 0.16375135 0.1743584 0.086617306
-0.042890728 0.08890872 0.13818608 0.16615438 0.24309355 0.19640243 0.20861612 0.018428048
0.05429647 -0.11702059 -0.1745874 0.09488212 -0.11641639 0.20358476 0.116580985 0.046067078
0.018917568 0.017521534 0.082388915 0.17814112 -0.02296792 0.111722276 -0.0061627813 0.057692457
0.14017843 0.09144212 0.05214094 0.0485853 0.033016704 0.15393113 0.112921275 0.40810513
0.12278791 0.021202266 0.07409722 0.18619119 -0.046661682 0.10473976 0.024943005 -0.17100257
-0.028654383 -0.044019926 0.12105157 -0.028947882 -0.19066669 0.141742 -0.15601614 0.1083574
0.38483843 0.14932044 0.1647496 -0.07897974 0.044254556 -0.051694665 -0.0318674 0.3081058
0.020904524 0.08365939 0.19954234 0.12215304 0.08117787 -0.012992022 0.0016135621 -0.07590575
-0.36082277 0.029578727 0.12212335 0.10777199 0.16816856 0.07194321 -0.12437425 0.07154921
-0.17796752 0.041164927 0.7489728 0.19355404 0.092269726 0.008464807 0.027771885 0.023342945
-0.0030076206 -0.020932987 0.1683171 0.08707585 0.028978985 0.1926371 0.12192003 0.114009
-0.049959354 0.120702356 -0.2053158 0.055081766 0.09985652 -0.024419827 -0.48867247 -0.14164217
0.26976037 0.08522817 0.1119318 0.09277642 -0.08284416 0.14881732 -0.19065398 0.14839898
0.1431169 0.029776292 -0.017330043 -0.14654298 -0.21588877 0.07642169 0.044799473 -0.11943479
0.21567722 0.20113152 0.41002738 0.06039395 0.37716103 0.0786658 -0.3130087 0.22262639
0.15018119 0.18772133 0.14737813 0.19297487 -0.30470026 -0.029268276 0.066785224 -0.40742937
0.18125373 0.21214291 0.07433322 -0.0007487312 0.14970969 0.16398089 0.12577431 -0.11830203
-0.1565795 0.19476543 0.14798795 0.013304763 0.057582747 0.07177958 0.18857543 0.017984677
0.10472972 0.051732864 0.07482011 -0.087385364 0.17263146 0.17629644 0.10592581 0.3115648
0.13079733 0.10883206 0.09164908 0.0016075075 -0.025004506 0.18485308 0.16884656 0.070112176

net.2.bias f4 [128]
00000000: 7772 083e dc0c ac3c 457b c23d a93c 8fbd
00000010: c6d9 7d3b 6f59 89bd 7555 ef3c 4fe6 4d3d
00000020: 087c a33c 44be 2e3d 5438 ca3d 9062 f2bb
00000030: 1a95 8dbc f0a8 74bd ac29 0f3e 31aa f03d
00000040: a263 e9bc 9b71 083e 3755 533c efd5 ef3d
00000050: 43c8 11bd 75e8 1c3e edec 523c 98cb 4ebd
00000060: 2f90 313d 53b6 033d 9486 df3d 3605 733c
00000070: c3a9 0c3e 340d 2f3e ad66 243d 5818 16bc
00000080: e87c 8c3e a9ae 2fbd 18ba 353d a75e bb3c
00000090: f3d1 113d 908e 49bd 983c 0e3e 0fcb f5bc
000000a0: 8fb3 b4bc fe86 c33b 3f22 d23d 6468 d23b
000000b0: c1da 473d 7797 c53d 6f63 323e 63ec c23c
000000c0: a291 5ebd dc6c 67bd 87c0 923d bcdc 613b
000000d0: fe14 023e 9828 d73d eabe 1f3d 351e 69bd
000000e0: f9db 2abd 6b94 96bd 16d8 173c edbd a73d
000000f0: e1b7 683e 22d0 923e 8e89 fd3d 1b44 71bc
00000100: 6be8 f7bc aeb3 10bd ab97 073d 6956 f13d
00000110: 48ab 3bbc eb9d 343d a845 183e 3148 42bc
00000120: f0c7 53ba 2d4c 733e 62ca 58bd 1727 803c
00000130: 7fda 7ebc 0f7e 183d d7f8 db3d 09f9 9abd
00000140: 67dc 413e 9e64 3bbd c9f9 83bd 8c80 753e
00000150: eb09 4c3d 16ee 53bd e01c 373d 1192 843d
00000160: 8f7f e63d f3d9 ba3d 3832 f93d ae87 20bc
00000170: 1ff4 53bd dd96 71bd 6068 1dba 4eda 443e
00000180: 0fc9 85bc 5b84 303e e93a 4dbd b92d 2e3e
00000190: 3996 65bd e66a b7bc 3443 943c 9ab5 25bc
000001a0: fff4 ddbc b4e6 413c 5e30 ca3c c4c2 9239
000001b0: 5bbd 433e 8cc7 5e3e db53 693e 2668 65bd
000001c0: 2cfa 073d befa 03bd de00 e93c 3dac 233e
000001d0: c1ac 49bd 103b 973b af56 84bd 7bdc 1f3d
000001e0: 4ec6 8a3d 9a4a d83d 1d06 60bb 8269 f1bc
000001f0: 11fc 143e e9b4 05bd 0839 363e 735c 2e3e
0.13324915 0.021002226 0.09496168 -0.06993992 0.003873454 -0.06706511 0.029215554 0.050268468
0.019956604 0.04266192 0.09874025 -0.0073970035 -0.017283011 -0.059731424 0.1398074 0.117512114
-0.028489891 0.13324587 0.012898735 0.117107265 -0.035591375 0.1532305 0.01287387 -0.05048713
0.043350395 0.0321563 0.109143406 0.014832785 0.13736634 0.1709488 0.04013698 -0.009161077
0.27439046 -0.04289118 0.044366926 0.022872282 0.035600614 -0.049208224 0.13890302 -0.030004052
-0.022058276 0.00596702 0.10260438 0.0064211357 0.048792604 0.0964803 0.17420743 0.023794359
-0.054338105 -0.0565003 0.07165628 0.0034463843 0.1270332 0.105057895 0.03900043 -0.056913573
-0.04171369 -0.07352527 0.0092678275 0.08190522 0.22726394 0.28674418 0.12379752 -0.01472571
-0.030262193 -0.035327606 0.033103626 0.117840596 -0.011454411 0.044095915 0.14870322 -0.011858032
-0.0008078804 0.23759528 -0.052927382 0.01564364 -0.015555023 0.037229594 0.10740822 -0.07567031
0.18931733 -0.045750253 -0.06444127 0.23974818 0.049814146 -0.05174073 0.04470527 0.064731725
0.112547986 0.09123602 0.121677816 -0.009797974 -0.051746484 -0.058981765 -0.0006004628 0.19223902
-0.016331224 0.1723799 -0.05010501 0.1700963 -0.056051467 -0.02238984 0.018098451 -0.010114098
-0.027094362 0.011834789 0.024681266 0.00027992402 0.19115202 0.21755809 0.22785895 -0.056007527
0.033197567 -0.03222155 0.028442796 0.15983672 -0.049237017 0.004615195 -0.06461846 0.039028626
0.06776105 0.10561104 -0.0034183331 -0.029469255 0.1454928 -0.032643232 0.17795193 0.17027454

net.4.weight f4 [54, 128]
00000000: 7a8a d43d 6e78 103c ebb4 e83d 159d b8bd
00000010: 1848 973d 81c0 fbbc c3b9 8b3d 74a6 803c
00000020: b9b2 d13d 24df 54bd 2108 f13d 3cc5 953c
00000030: 5fa4 99bc f561 1b3d d162 c93d 2f0b 923d
00000040: 237f c5bd 942f 013e a44b 56bd 91ac 4b3e
00000050: 3a7c b0bd 945e 073e 25e3 3d3d a8a9 96bd
00000060: 56ad 9a3d 2975 28bd 57db 2b3e f0cf a73d
00000070: 74b3 b73d 81f9 ef3d a4b6 9fbd 9f8c 993d
00000080: 531f 303e bc5a b3bc 25fc 8f3d 62d8 8abd
00000090: 9c5a 6cbd ccdc cf3d 69ac 863d b913 7e3d
000000a0: 2f14 8d3d d23b 943d 6927 46bd 140e a8bd
000000b0: 07d3 ec3c ed49 253d 720c 6d3c ae29 e3bc
000000c0: b035 943c d19f 8b3d cf3e c83d 21f0 303c
000000d0: cc3d 493e 501e 333e cf5e dabc 5a7b 3f3d
000000e0: 8592 93bd aa86 77bd dd6e 1bbd f93c 3a3e
000000f0: 9f81 693d 805a fe3b c629 f03d 3a97 a73d
00000100: 2465 b3bc e109 a6bd 38e5 8dbd c2f8 2a3d
00000110: b011 07bc b618 583d bdee b43c 38f7 3ebd
00000120: 70a0 82bd c414 133e 1291 9bbd 8c51 c13c
00000130: 3649 b7bd 753f 5f3d 3a32 2e3d 1a8b 6e3d
00000140: 68b7 293c 39ea 0cbd 88d8 8bbc 82c5 123d
00000150: a258 033d 0261 193d 48d3 923d c797 9f3d
00000160: 0083 bd3d b8f9 153d 8287 2bbc 4588 c73d
00000170: f6d5 193d 7a58 93bd 31ce 9fbd db99 163e
00000180: 27b6 40bd 63b7 893c 8979 3e3d b353 0a3e
00000190: b3b4 da3c 07b7 993d fa03 383d c8f5 9dbc
000001a0: c8a4 78bc a1bf dc3d a50b d03d 0245 f4bc
000001b0: ded9 9b3d c457 023e a487 713d 48bc e63c
000001c0: c0c1 84bb 1075 a33b 8167 883d c180 e83b
000001d0: 1e19 6a3d 4fc4 43bd 202f 5d3b 3afc 733e
000001e0: 54a6 263e 20eb a03d 9339 893d fda2 a1bd
000001f0: a027 053e 00c8 6c39 bc38 0c3e fdab 1e3c
00000200: f185 0c3d 8e5b 2b3c 5c37 fd3d 0d97 97bc
00000210: 88ae fbbc 2b12 4e3d c078 e23c 73c3 0dbd
00000220: abdd da3d b45a c33c 83d4 033e f794 b3bd
00000230: 9f6f 3d3d e402 52bd 96ce 3cbd 9d4c 193d
00000240: b100 71bc 2be3 df3d 5ef8 23bc 4883 663d
00000250: 8c6f 813d 4a7f 233e e9a5 bbbd b4d0 09bd
00000260: 09a5 34bd d05a 453c 3b43 fc3d 4221 1b3e
00000270: dd6b d33d 9e60 2d3e 9475 253b 5454 d2bc
00000280: 8b7e 833d f318 9a3d c0a2 a9bc e311 8fbc
00000290: 9691 4b3c 7044 11bd 1f1d e73d 9d76 ba3d
000002a0: d0df 903d 0b4f 7c3d 4f67 083e 2e97 a5bd
000002b0: ce9a 8a3d 928d 3a3d 6a57 b93b c746 aa3d
000002c0: 8fbf 42bd 40a0 bd3a ef1c 69bc 2853 1a3e
000002d0: 3285 803d 0863 9c3d 4a52 8bbd 8ae3 2ebd
000002e0: 6154 28bc 5ac6 b4bd 4617 163d c5e5 413d
000002f0: f242 b43c 77c2 113e 4229 173e 18af 613d
00000300: 441f 83bc 4951 a03c b671 dfbc e16d d03c
00000310: 4dae 99bd 5f15 95bd 443a b83d 3611 8b3c
00000320: a9ce c1bc 601f 043e 7cb5 f53c 097a b33d
00000330: 3edc 283d 3b8c 9b3d d6b0 843c 21d9 89bd
00000340: e541 b53d 3431 7cbd 4f7a ae3d f131 1e3e
00000350: cb1a 093e a994 383d 2e68 9fbd 5319 d53d
00000360: 37c0 8c3d 0df3 833d 7cea a73c 0e5c 0d3d
00000370: 00df 233c 5042 a33d 8d20 8c3d 9e8b 393d
00000380: c623 3b3d de41 af3d 41f3 4d3d bc07 1d3e
00000390: 4d4e 8e3d 26ef 89b9 9aaf 7a3d 7c9c d53c
000003a0: ca1f 9cbd eb80 5d3d 4460 b63d c86b 5f3d
000003b0: 3470 723d b7f3 613d 848e f43d dbf0 16bd
000003c0: d8c0 c2bc b171 aabd 6450 043e 8c9b 293e
000003d0: 996e 82bc e7cc 3d3e 5fd6 a13d f1c0 5f3d
000003e0: c1a8 143e b0b0 333e fb98 c43b a1f7 b73d
000003f0: f99f 383d e485 a3bd f72e 9c3c ac3c f03c
0.10377975 0.008817775 0.11362632 -0.09014336 0.07386798 -0.030731441 0.068225406 0.015704371
0.10239167 -0.051970616 0.117691286 0.018282525 -0.018755136 0.037935216 0.09833301 0.07131039
-0.0964339 0.12615806 -0.05231823 0.19890048 -0.08617444 0.13219672 0.0463592 -0.07356578
0.075525925 -0.041127358 0.1678289 0.08193958 0.08969775 0.11717511 -0.07798508 0.074975245
0.17199449 -0.021893851 0.07030515 -0.06779553 -0.0577036 0.101495355 0.065758534 0.062030528
0.06888615 0.07237972 -0.04837743 -0.0820581 0.02890922 0.040353704 0.014468299 -0.027729835
0.018092006 0.06817592 0.09777605 0.010799439 0.1965248 0.17492032 -0.026656536 0.046748497
-0.07205681 -0.06043116 -0.037947524 0.18187322 0.057008382 0.0077622533 0.11726718 0.08183141
-0.021898814 -0.08107353 -0.06928486 0.04174114 -0.008243963 0.05275794 0.022086496 -0.046622485
-0.06378257 0.1436339 -0.07596029 0.023598455 -0.08949511 0.054503877 0.04252837 0.058238126
0.010358669 -0.03440306 -0.017071024 0.03583289 0.03206695 0.03744603 0.07169205 0.07792621
0.09253502 0.036615103 -0.010469319 0.09742788 0.037557565 -0.0719461 -0.07803 0.14707129
-0.047048714 0.016811078 0.046502624 0.13508491 0.026697492 0.07505613 0.044925667 -0.019282237
-0.015176006 0.10778738 0.10158471 -0.029818062 0.07609914 0.12728792 0.058967248 0.028165951
-0.004051417 0.00498832 0.06660367 0.007095427 0.05715286 -0.047794636 0.0033750013 0.23826686
0.16274387 0.078573465 0.067004345 -0.07892416 0.13003397 0.0002258122 0.13693517 0.00968456
0.034307424 0.01045884 0.123640746 -0.018504644 -0.030722871 0.050310295 0.027645469 -0.034610223
0.10686811 0.023846962 0.12874036 -0.08768647 0.04624903 -0.051272288 -0.046095453 0.03742658
-0.0147096375 0.10932001 -0.010007946 0.056277543 0.06320104 0.15966526 -0.09162504 -0.0336463
-0.044102702 0.012045577 0.12317511 0.15149406 0.10323308 0.16931388 0.0025247084 -0.025674976
0.064206205 0.0752429 -0.020707488 -0.017464584 0.012424847 -0.035465658 0.11284851 0.09104655
0.07073939 0.06159882 0.13320659 -0.08085476 0.06767808 0.04554517 0.0056561725 0.08314281
-0.047545966 0.0014467314 -0.01422809 0.15070784 0.06275405 0.07636076 -0.06802805 -0.042697467
-0.010274024 -0.08826895 0.03664329 0.047338266 0.022004578 0.14234339 0.14761832 0.055098623
-0.01600612 0.01957001 -0.027275901 0.02544302 -0.07503948 -0.07279467 0.08995488 0.01697598
-0.023658114 0.12902594 0.029993765 0.08763511 0.041225664 0.07595106 0.016197603 -0.06730867
0.08850459 -0.06157036 0.08519422 0.15448739 0.13389127 0.04506365 -0.077835426 0.10405221
0.068725996 0.06442843 0.020497553 0.03451162 0.010001898 0.079716325 0.06842146 0.045299165
0.045688413 0.08557485 0.050280813 0.15334982 0.069485284 -0.00026308856 0.061202623 0.026075594
-0.07623251 0.054078024 0.0890508 0.054546148 0.059189036 0.055164065 0.11941245 -0.03685079
-0.023773596 -0.08322466 0.12921292 0.16563243 -0.015921878 0.18535195 0.07902216 0.054627363
0.145175 0.1754787 0.005999682 0.08982778 0.045074437 -0.07984522 0.019065363 0.029325806

net.4.bias f4 [54]
00000000: 5253 0c3e 5ed6 b03d 248a 9c3d b8a3 193e
00000010: 18e5 9c3d d809 d93d c284 193e 62d2 74bd
00000020: df02 dc3d c990 2a3e 97e1 edbc fd24 523e
00000030: 7a51 d23b f6fa 543d 6ebd 293e d6d2 513e
00000040: 8a7c dd3d 8a01 ca3d 060b 093e 6a9c e53d
00000050: c020 013e b576 db3d ba88 c33d 5578 133d
00000060: 9310 3d3e d8b7 ee3d 62fb 58bc 9e1b b3bc
00000070: 9335 f53d b7af d53d edea 88bd 7af5 313d
00000080: f961 ee3d 70b8 773e f7cf 743d a404 913d
00000090: 4744 01bd f1cf bd3c dc6c 713e 77d7 b53d
000000a0: 562c 6a3e 32e4 0b3e 5259 46bd 6168 a6bd
000000b0: 9a62 b23d a73a cd3d b7d7 123e d330 183e
000000c0: f707 283e e8f9 be3d b1ea c43d bc81 413e
000000d0: 3908 6e3c 09c6 023e
0.13703659 0.08634637 0.07643536 0.1500386 0.07660884 0.10597581 0.1499205 -0.05977095
0.10742735 0.16656794 -0.029038234 0.20521922 0.006418404 0.051997148 0.16576168 0.20490584
0.108147696 0.09863575 0.13383111 0.11211474 0.1261015 0.10716001 0.09547563 0.03600343
0.18463354 0.11656159 -0.013243528 -0.021863755 0.11973109 0.104339056 -0.066854335 0.043446995
0.116397806 0.24191451 0.059768643 0.07080963 -0.031559255 0.023170443 0.23576683 0.08878987
0.22868475 0.13661268 -0.048425026 -0.081253774 0.08710213 0.10020953 0.14340101 0.14862375
0.16409288 0.093250096 0.09615076 0.18897146 0.014528328 0.12770857
