Assets/dqn_model.pth (torch, 75356 bytes, 6 tensors)

fc.0.weight f4 [128, 6]
00000000: 680a 72c2 cb4e 8f43 f80f 3a43 d3d3 96c3
00000010: 4580 3b43 66f4 3242 be5f e6c1 70b3 9c43
00000020: 2167 6943 bf75 a4c3 77f6 1b43 b664 0f41
00000030: c2b9 acc2 85f0 8943 3bb6 4343 93cb 90c3
00000040: 3d7e 5b43 4b1a 8242 0446 e7c1 c0d7 9c43
00000050: 409d 6943 0e96 a4c3 ece5 1b43 d988 1941
00000060: 6b2e e9c1 30e0 9c43 7e5e 6943 ef63 a4c3
00000070: 232f 1c43 7f6e 1441 cc4d fbc2 37a9 6d43
00000080: 5b2f 2a43 264d 80c3 725f 6b43 0172 cf42
00000090: 1bb2 e2c2 3005 8b43 82c0 3443 cdcd 91c3
000000a0: f98d 7743 0f40 b642 0e8f c2c2 d192 8743
000000b0: 41bc 3d43 b57c 8dc3 7817 6943 5cb4 9642
000000c0: 9987 79c2 345d 8e43 f595 2543 732e 94c3
000000d0: 9c17 3d43 5197 4c42 0cfc d1c2 5f20 8643
000000e0: e744 3c43 0c17 8cc3 f47a 7043 1905 a342
000000f0: 70da eac1 3675 9c43 383f 6943 a12b a4c3
00000100: 4b10 1c43 3cc3 2041 a398 72c2 bb9e 8f43
00000110: 746b 3b43 e939 97c3 bdfb 3943 257a 2f42
00000120: e806 e3c1 e582 9c43 503c 6743 f413 a4c3
00000130: b4a8 1a43 2275 1041 c746 e9c1 95da 9c43
00000140: dfe3 6843 9a7f a4c3 b999 1b43 541e 1441
00000150: 3434 e5c1 dce1 9c43 0266 6843 c34d a4c3
00000160: 522a 1b43 bdb9 1141 a959 e8c1 c39e 9c43
00000170: b697 6843 a571 a4c3 a23b 1b43 7472 1241
00000180: eb40 ebc1 7a9c 9c43 a4a2 6943 6657 a4c3
00000190: 91bc 1b43 b2e1 1341 52f9 70c2 9913 8e43
000001a0: a6d0 2943 6726 94c3 d31a 3c43 fe2b 4042
000001b0: 2cde 59c2 130e 9243 148e 5043 b9d8 99c3
000001c0: c099 3443 0a07 0942 c565 64c2 2bb6 9143
000001d0: 6b08 4e43 885a 99c3 bcce 3743 c178 1542
000001e0: ecd5 eac1 afd0 9c43 66c0 6943 a730 a4c3
000001f0: c840 1c43 f846 1541 86c6 eac1 cbb1 9c43
00000200: e578 6943 0b68 a4c3 91fc 1b43 6be0 1c41
00000210: 4c76 71c2 e26b 8f43 a54e 3c43 e2c5 96c3
00000220: fe0c 3b43 05e7 3142 42d4 6ac2 b5a7 8e43
00000230: 2c07 2c43 fc43 95c3 09de 3b43 b747 3c42
00000240: 3e31 ebc1 87c7 9c43 42ab 6943 3b2f a4c3
00000250: c162 1c43 67ab 1c41 fd9e 64c2 f774 9143
00000260: 7317 4e43 3689 99c3 337b 3743 5783 1342
00000270: 5d16 52c2 8cb4 9243 0d57 5643 eb91 9ac3
00000280: 08cc 3343 6424 0242 ea8c 69c2 7169 9143
00000290: 3359 4d43 db62 99c3 703d 3943 70a1 1842
000002a0: f459 5fc2 fe97 8e43 3572 2843 f8ac 94c3
000002b0: 7a53 3843 46cc 3742 06e6 5dc2 e6fa 8d43
000002c0: 7ea1 2643 3ff9 93c3 eaff 3843 9c44 3e42
000002d0: e93b e6c1 a3d8 9c43 ce16 6843 6a55 a4c3
000002e0: ceed 1a43 876e 1941 0d86 55c2 db05 9343
000002f0: 382e 5543 0dab 9ac3 1a16 3443 9d69 0342
00000300: b32e 69c2 1fc5 9043 3a1a 4043 7042 98c3
00000310: af13 3743 b13d 2742 ef54 6ac2 675c 9143
00000320: 0e25 4d43 b889 99c3 e3b7 3943 7183 1b42
00000330: 5c9c e5c1 77c9 9c43 e86a 6743 933a a4c3
00000340: 03fd 1a43 1462 1741 bc6a eac1 4ea7 9c43
00000350: 6998 6943 0359 a4c3 f02a 1c43 853d 1941
00000360: b2cd e5c1 1fe8 9c43 f646 6943 9c99 a4c3
00000370: 88eb 1b43 77fe 1141 5614 20c2 e99f 9843
00000380: 54b9 6243 2b63 a0c3 57cb 2643 6ff4 9d41
00000390: cbfd e8c1 0cc5 9c43 9d81 6943 db5f a4c3
000003a0: de3e 1c43 0205 1741 4c84 6ac2 19b4 9043
000003b0: cd60 5443 fcab 98c3 7907 3a43 c80a 1842
000003c0: f5c5 64c2 2780 9143 32d0 4d43 0d74 99c3
000003d0: 87f8 3643 ef03 1342 f20e 79c2 5c67 8d43
000003e0: 639c 2843 987d 93c3 b4f3 3e43 4dab 4a42
000003f0: 86d7 cfc2 d389 8643 6943 3c43 fd5b 8cc3
-60.510162 286.61557 186.06238 -301.65488 187.50105 44.73867 -28.79675 313.40186
233.40285 -328.9199 155.96275 8.962088 -86.36281 275.87906 195.71184 -289.59042
219.49312 65.05135 -28.909187 313.68555 233.61426 -329.1723 155.89813 9.59591
-29.147665 313.75146 233.36911 -328.78073 156.18413 9.276977 -125.65195 237.661
170.18498 -256.60272 235.37283 103.722664 -113.34786 278.04053 180.75198 -291.60782
247.55458 91.125114 -97.2794 271.147 189.73537 -282.97427 233.09167 75.352264
-62.38242 284.72815 165.58577 -296.36288 189.09222 51.14777 -104.99228 268.2529
188.26915 -280.18005 240.48029 81.50996 -29.356659 312.9157 233.24695 -328.34085
156.06364 10.047665 -60.64906 287.24008 187.41974 -302.45242 185.98335 43.86928
-28.378372 313.0226 231.2356 -328.15588 154.659 9.028597 -29.15956 313.70767
232.89012 -328.9969 155.60048 9.257404 -28.65049 313.76453 232.39847 -328.6075
155.16531 9.107846 -29.04378 313.24033 232.59262 -328.88785 155.23294 9.152943
-29.406698 313.22247 233.63531 -328.6828 155.73659 9.242601 -60.243477 284.1531
169.81503 -296.30002 188.10478 48.04296 -54.466965 292.10995 208.555 -307.69315
180.60059 34.256874 -57.099384 291.4232 206.03288 -306.70728 183.80756 37.367924
-29.354454 313.63034 233.75156 -328.3801 156.25305 9.329826 -29.346935 313.389
233.47224 -328.81284 155.98659 9.80479 -60.365524 286.84283 188.3072 -301.54596
187.05075 44.475605 -58.707283 285.3102 172.02802 -298.53113 187.86732 47.070034
-29.399044 313.5588 233.66898 -328.369 156.38576 9.791846 -57.155262 290.9138
206.0916 -307.07196 183.48125 36.87826 -52.52184 293.41052 214.34004 -309.13998
179.797 32.535538 -58.38761 290.82376 205.34843 -306.7723 185.23999 38.157654
-55.837845 285.18744 168.44612 -297.35132 184.32608 45.949486 -55.474632 283.96014
166.63083 -295.94724 184.99966 47.567 -28.779253 313.69247 232.08908 -328.6673
154.92892 9.589484 -53.38091 294.04575 213.18054 -309.33633 180.08633 32.853138
-58.295605 289.54 192.10245 -304.51904 183.07689 41.810246 -58.582943 290.7219
205.14474 -307.07593 185.7183 38.87836 -28.701347 313.57394 231.4176 -328.4576
154.98833 9.461445 -29.302116 313.30707 233.59535 -328.6954 156.16772 9.577519
-28.725437 313.81345 233.27719 -329.20007 155.92004 9.124625 -40.01986 305.2493
226.72394 -320.77475 166.7943 19.744352 -29.123922 313.53943 233.5063 -328.74887
156.24557 9.438723 -58.629196 289.407 212.37813 -305.34363 186.02919 38.01053
-57.193317 291.0012 205.81326 -306.90665 182.97081 36.75384 -62.264595 282.8075
168.61089 -294.9812 190.95197 50.667286 -103.920944 269.07675 188.26332 -280.71866

fc.0.bias f4 [128]
00000000: ec7e e043 2ab7 ed43 b03d dc43 8ead ed43
00000010: edb4 ed43 e00f cd43 6fbe dc43 a791 da43
00000020: 01ef dd43 c7a7 d943 9ca1 ed43 2ebc e043
00000030: dcb4 ed43 e284 ed43 d999 ed43 dca9 ed43
00000040: 9361 ed43 bcd5 dd43 315b e343 2f38 e343
00000050: 887a ed43 9aae ed43 692e e043 8a35 df43
00000060: 13a8 ed43 ed25 e343 954a e443 a336 e343
00000070: 5c2f de43 19e1 dd43 429a ed43 0a8d e443
00000080: 77d2 e143 8c06 e343 3c79 ed43 58be ed43
00000090: aadc ed43 b28b e943 2498 ed43 b67e e243
000000a0: 3039 e343 2f5a dd43 2dff d943 ca7d de43
000000b0: efc7 ed43 41d8 ed43 4175 e543 92d9 ed43
000000c0: 4b8f ed43 07bf ed43 709b ed43 6b80 ed43
000000d0: 4c83 ed43 72f4 e243 2794 ed43 0c9e e443
000000e0: 13e4 e243 9f9a e243 64d2 ed43 0eb1 ed43
000000f0: cd77 ed43 f2ab dc43 4aa8 ed43 47f9 dd43
00000100: 93a5 ed43 a6bd ed43 3f24 e443 463a e443
00000110: 56c2 ed43 3179 ed43 1c0c e343 5ccd e243
00000120: 80cb e443 ad9c de43 f39d ed43 e7aa e443
00000130: ed6b ed43 ea36 d143 b6eb dd43 e9b2 e243
00000140: 2693 ed43 85ac ed43 7a39 e343 5d1a e343
00000150: c9a8 e043 f58c ed43 d327 e343 98f6 dd43
00000160: 905f ed43 6fc3 db43 7893 e443 5aa7 ed43
00000170: 0952 ed43 9bfb e243 d667 ed43 94a5 ed43
00000180: c58a e443 5181 ed43 8aaa ed43 d554 df43
00000190: 45e0 ed43 46a2 e043 a9e1 ed43 0213 e343
000001a0: fb8e ed43 6719 df43 a7bd ed43 a39d ed43
000001b0: 0ac7 e043 7e6d ed43 4087 e443 bb5a e843
000001c0: 2dc4 e243 4979 cb43 ac68 ed43 e4ec e243
000001d0: ecbd ed43 cf1c e343 c903 e343 5498 ed43
000001e0: 4289 ed43 ec11 e343 7ebf ed43 50a1 ed43
000001f0: d914 d143 49db ed43 3aa5 de43 f3b5 e943
448.99158 475.43097 440.48193 475.3559 475.41348 410.12402 441.48776 437.1379
443.86722 435.31076 475.26257 449.47015 475.41296 475.03815 475.20193 475.32703
474.7623 443.6698 454.71243 454.43893 474.95728 475.36407 448.36258 446.41827
475.31308 454.2963 456.58267 454.42685 444.37 443.75858 475.20514 457.10187
451.64426 454.05115 474.94714 475.48706 475.72394 467.09137 475.1886 452.98993
454.44678 442.70456 435.99356 444.98273 475.56198 475.68948 458.91605 475.69977
475.11948 475.4924 475.21436 475.00327 475.02576 453.90973 475.15744 457.23474
453.78183 453.20798 475.64368 475.38324 474.93594 441.34332 475.31476 443.94748
475.29355 475.48163 456.28317 456.45526 475.51825 474.9468 454.0946 453.60437
457.58984 445.22403 475.23398 457.33517 474.84317 418.42902 443.8415 453.39774
475.1496 475.3478 454.44904 454.20596 449.31863 475.10123 454.31113 443.9265
474.74658 439.52682 457.1521 475.30743 474.6409 453.96567 474.81122 475.29358
457.08414 475.01028 475.33234 446.66275 475.7521 449.26776 475.76297 454.1485
475.11703 446.19846 475.48166 475.23154 449.555 474.8554 457.05664 464.70883
453.53262 406.94754 474.81775 453.8507 475.48376 454.22507 454.02957 475.19006
475.07233 454.14 475.49603 475.26025 418.16287 475.71317 445.29083 467.42148

fc.2.weight f4 [128, 128]
00000000: 33f5 fabe 31e8 99c0 ce28 a43e 11de 9cc0
00000010: a848 9bc0 dd3c e940 0d24 1340 6aec 0540
00000020: 2d02 6d3f b39c 2e40 f60b 89c0 0de4 ddbf
00000030: c6ad 9ac0 51f8 99c0 0c98 99c0 5dd7 99c0
00000040: 3481 9bc0 6d2e 01c0 bae8 96bf 881d 85bf
00000050: c18d 99c0 8cd5 99c0 05ce d9be a341 01c0
00000060: 4924 99c0 fced c5bf 3466 68c0 f6bb cfbf
00000070: 4af6 04c0 d30f 4541 6c91 9dc0 1e4d 2ac0
00000080: d423 78bf f346 c9bf 8f68 9bc0 a97b 99c0
00000090: fdf2 99c0 1ce8 88c0 9301 9bc0 2cb6 81bf
000000a0: 5bcb d0bf 7690 b6bf 9487 0c40 041e f0bf
000000b0: a84e 9cc0 aff4 9ac0 a322 86c0 41a8 9bc0
000000c0: 0c14 9bc0 d27f 9ac0 947d 99c0 b9aa 67c0
000000d0: 05cf 6dc0 c9a7 bebf 3602 9dc0 c515 05c0
000000e0: 7189 c7bf a219 82bf ad89 9bc0 5243 9cc0
000000f0: 0c18 9dc0 e7a2 8a40 7afb 98c0 cb56 b8bf
00000100: 737b 9ec0 0632 9ac0 cd27 30c0 3cec 0ec0
00000110: 7f8b 9bc0 7cbd 9bc0 d324 cbbf 7972 c4bf
00000120: 3c0b 67c0 105e f5bf bbdb 99c0 e33b 6dc0
00000130: 9c46 99c0 1e82 8040 71ae e5bf 2687 c7bf
00000140: 9a7b 9cc0 7810 9ec0 5f8b d2bf 708a cdbf
00000150: 5d47 dabf d17a 9ec0 e4f3 cbbf 3625 5741
00000160: 801a 9bc0 794a bebf 2098 0cc0 1bf4 9cc0
00000170: c542 88c0 439e bcbf 605c 99c0 badd 98c0
00000180: 761d 6bc0 2e28 9bc0 0623 9bc0 a6c7 ddbf
00000190: 6347 9cc0 990e cabf 50cd 9ac0 bfe5 c9bf
000001a0: 6885 9ac0 65d4 febf eab0 9dc0 a23b 9ec0
000001b0: 0884 88bf d89a 9dc0 8443 07c0 e6d3 89c0
000001c0: c675 bfbf 4fd8 1841 a689 9dc0 41b7 cabf
000001d0: a6ac 9ac0 d1a5 bdbf 82fd d1bf c532 9ac0
000001e0: f262 9ec0 021c d2bf 2d1c 99c0 c24f 9ec0
000001f0: 08ba 8740 51da 9bc0 49a5 d2bf 4e32 88c0
00000200: d6a9 4844 c4d6 2d44 71bf 3c44 0dbf 2d44
00000210: 5bd9 2d44 44a4 4744 67a8 4744 d8a6 4144
00000220: eaf9 5744 017b 4144 40d4 2d44 b3f6 4644
00000230: 34ca 2e44 ac2c 2e44 8950 2e44 4646 2e44
00000240: 64bd 2d44 51d4 5444 1681 3644 35a4 3744
00000250: f89e 2d44 beb6 2d44 ea9a 4644 70e9 5244
00000260: ba98 2d44 607b 3744 d737 3244 9a1a 3844
00000270: 5da4 5544 ac64 5744 6377 2e44 abad 3344
00000280: 498c 4244 b33a 3844 c9b4 2e44 daad 2d44
00000290: 13ea 2d44 ff2c 2f44 7fb4 2d44 9768 3344
000002a0: 66ae 3744 4dd9 5544 95b1 4144 36ce 5044
000002b0: e546 2e44 18eb 2d44 2796 3144 232a 2e44
000002c0: e525 2e44 c1d3 2d44 4cf6 2d44 fde4 2d44
000002d0: 5c9b 2e44 55e8 3744 0ec4 2d44 f842 3444
000002e0: 6eb0 3844 8df7 3b44 ac1b 2e44 23bb 2d44
000002f0: f3c4 2d44 7115 4644 6cd0 2d44 6b0f 5644
00000300: f7fd 2d44 ffed 2d44 1118 3444 f445 3444
00000310: ea7f 2e44 e3b1 2d44 d6d8 3844 c590 3744
00000320: 6214 3244 5540 5244 396d 2e44 500b 3244
00000330: cbac 2d44 9d6f 4444 40ea 5644 1201 3944
00000340: a09d 2d44 2ba8 2d44 6aca 3744 4ea5 3744
00000350: 9083 4944 a4fb 2d44 7047 3644 7627 5744
00000360: d199 2e44 710a 3644 b02c 3444 5393 2d44
00000370: 0eb7 2d44 9959 3944 517e 2e44 fbd6 2d44
00000380: a216 3244 469f 2e44 43a0 2d44 5fbf 4d44
00000390: cb1e 2e44 d5e0 4644 0ae7 2d44 194f 3844
000003a0: aceb 2d44 068c 5144 50e4 2d44 2279 2e44
000003b0: 250f 4744 e562 2e44 eac0 3344 072c 3044
000003c0: e2c0 3844 2d5d 4944 18c9 2d44 596a 3744
000003d0: ce1b 2e44 9fce 3744 f0b0 3744 f4da 2d44
000003e0: ebab 2d44 d44c 3744 d5c7 2d44 5f83 2e44
000003f0: 3985 4444 7b94 2e44 f5e7 4a44 5230 2f44
-0.49015197 -4.8095937 0.32062382 -4.9021077 -4.852619 7.2886796 2.2990754 2.0925546
0.92581445 2.7283142 -4.28271 -1.733522 -4.8337126 -4.811562 -4.7998104 -4.8075395
-4.859522 -2.0184586 -1.1789773 -1.0399637 -4.798554 -4.8073177 -0.42539993 -2.0196311
-4.7856793 -1.5463252 -3.631238 -1.6229236 -2.0775323 12.316363 -4.9240017 -2.6609569
-0.9692967 -1.5724777 -4.8565135 -4.796345 -4.8109117 -4.2783337 -4.843942 -1.013372
-1.6312059 -1.4262836 2.195775 -1.875916 -4.8846016 -4.8423686 -4.191728 -4.864289
-4.846197 -4.828103 -4.7965794 -3.619795 -3.7157605 -1.4894954 -4.90652 -2.0794537
-1.5588819 -1.0164073 -4.860556 -4.883218 -4.9091854 4.3323855 -4.780698 -1.4401487
-4.9525695 -4.8186064 -2.7524292 -2.2331686 -4.8607783 -4.8668804 -1.5870613 -1.5347434
-3.6100607 -1.9169331 -4.8080726 -3.7067802 -4.7898693 4.0158834 -1.794386 -1.5588119
-4.890088 -4.9395103 -1.6448783 -1.6057873 -1.7053028 -4.952492 -1.5933805 13.446585
-4.846985 -1.4866477 -2.196785 -4.904798 -4.2581506 -1.4735798 -4.7925262 -4.777066
-3.6736732 -4.8486547 -4.8480253 -1.7326553 -4.883714 -1.5785705 -4.8375626 -1.5773238
-4.828785 -1.9908568 -4.927846 -4.9447794 -1.0665293 -4.925152 -2.1134958 -4.3071165
-1.4957817 9.55281 -4.923053 -1.5837175 -4.8335752 -1.4816228 -1.640549 -4.8186975
-4.9495783 -1.6414797 -4.7846894 -4.947236 4.241459 -4.8704 -1.6456691 -4.2561407
802.6537 695.3557 754.9913 694.98517 695.3962 798.56665 798.6313 774.60693
863.9049 773.92194 695.3164 795.8547 699.1594 696.698 697.25836 697.098
694.9592 851.31744 730.01697 734.56573 694.4839 694.85535 794.42053 843.64746
694.38635 733.92773 712.8725 736.41565 854.5682 861.573 697.8654 718.71356
778.19196 736.9172 698.82477 694.71643 695.6574 700.70306 694.82025 717.6342
734.725 855.3953 774.7747 835.22205 697.1077 695.67334 710.3461 696.6584
696.5921 695.30865 695.8484 695.57794 698.4275 735.6302 695.06335 721.0464
738.7567 751.868 696.4324 694.924 695.07733 792.335 695.2566 856.2409
695.9682 695.7187 720.37604 721.093 697.99866 694.7795 739.38806 734.262
712.3185 841.0052 697.7066 712.17676 694.6999 785.74396 859.66016 740.0167
694.4629 694.6276 735.1627 734.5829 806.05566 695.9319 729.1162 860.6166
698.4034 728.16315 720.69824 694.30194 694.8602 741.39996 697.9737 695.3591
712.35364 698.48865 694.5041 822.9902 696.48114 795.513 695.61 737.2359
695.6824 838.18787 695.5674 697.8927 796.23663 697.5452 719.0143 704.6879
739.0138 805.4559 695.1421 733.6617 696.43445 735.22845 734.76465 695.42114
694.6862 733.20044 695.1224 698.0527 786.0816 698.32 811.6243 700.755

fc.2.bias f4 [128]
00000000: c346 e643 409d dc45 7510 d545 e5e5 cf45
00000010: 5715 ce43 6f44 d8bf b17f 09c0 544a d145
00000020: a89f dc45 5caf d245 12fb d245 3048 dc45
00000030: 59ab dc45 b214 08c0 619a d045 22e2 ce45
00000040: 326a 0cc0 9885 d345 4502 d945 eca9 dc45
00000050: f73f d845 ba19 94bf ec16 d645 b8a8 dc45
00000060: 2596 d245 31b9 dc45 b01a d745 269e dc45
00000070: 40eb d345 1801 d745 36f4 d845 56b1 dc45
00000080: 209c dc45 31af 0ec0 dde4 cf45 2274 1dc0
00000090: 92a5 dc45 31bb dc45 ad4d d445 e428 02c0
000000a0: 7b7e d245 2f18 26c0 ef3f 17c0 107b d445
000000b0: 1dab dc45 a552 d445 498b d045 53ef d245
000000c0: edba dc45 a647 d7bf 94ec cf45 10b1 dc45
000000d0: 3c2d d245 2517 d545 2fc1 cd45 0a33 d145
000000e0: 6ad8 d745 87f2 d343 de0d d445 9b84 dc45
000000f0: 57a2 dc45 5d38 d845 cb3a d345 5d76 d245
00000100: fcb3 05bf 380d b3bf 3a27 22bf f831 d745
00000110: d6a9 db45 d19e dc45 f368 12c0 7047 d445
00000120: 588f db45 43ca d945 2784 d3bf d070 d145
00000130: 828d 08c0 2e10 17c0 b403 db45 5ea5 d245
00000140: 47d8 95bf efac dc45 9323 db45 f4cd 95bf
00000150: c490 d145 a9a0 dc45 481c d345 bafd d545
00000160: b0a3 dc45 dd9a d445 2c0f d245 c49f d445
00000170: b36d 0cc0 0fb0 d545 99b8 dc45 e9a4 dc45
00000180: b850 dc45 987f d345 43b6 dc45 050d d345
00000190: cdb5 d245 fc60 d745 a7a5 dc45 9106 8ebf
000001a0: d704 db45 11a5 d345 93c5 d945 ed1f d545
000001b0: 7ab9 dc45 2695 37bf 29a1 dc45 a3a1 dc45
000001c0: ebd7 d145 f4ae d345 9821 d245 cba6 dc45
000001d0: 59f0 da45 6aa2 dc45 8f81 d445 7ac0 08c0
000001e0: c72d 90bf 8296 d445 a5ba da45 da5f d345
000001f0: 7d68 d245 2479 d245 829e d945 acba dc45
460.55283 7059.6562 6818.057 6652.737 412.16672 -1.6895884 -2.1484187 6697.291
7059.957 6741.92 6751.384 7049.0234 7061.4185 -2.1262631 6675.2974 6620.2666
-2.1939816 6768.699 6944.2837 7061.24 6919.9956 -1.1570351 6850.865 7061.09
6738.768 7063.149 6883.336 7059.7686 6781.4062 6880.1367 6942.5264 7062.167
7059.5156 -2.2294428 6652.608 -2.4602132 7060.6963 7063.399 6793.7095 -2.0337458
6735.81 -2.595226 -2.3632772 6799.383 7061.389 6794.3306 6673.4106 6749.9155
7063.3657 -1.681874 6653.5723 7062.133 6725.6543 6818.893 6584.148 6694.38
6907.052 423.89474 6785.7334 7056.5757 7060.2925 6919.0454 6759.349 6734.7954
-0.5222776 -1.3988409 -0.63341105 6886.246 7029.2295 7059.852 -2.2876556 6792.9297
7025.918 6969.2827 -1.6524705 6702.1016 -2.133637 -2.3603625 7008.463 6740.671
-1.1706628 7061.6167 7012.447 -1.1703477 6706.0957 7060.0825 6755.535 6847.716
7060.461 6803.358 6721.8965 6803.9707 -2.1941955 6838.0073 7063.0747 7060.614
7050.09 6767.949 7062.7827 6753.6274 6742.725 6892.123 7060.7065 -1.1095754
7008.605 6772.6333 6968.697 6819.9907 7063.1846 -0.7171196 7060.145 7060.2046
6714.9897 6773.869 6724.199 7060.849 7006.0435 7060.302 6800.195 -2.1367478
-1.126397 6802.8135 6999.3306 6763.9814 6733.061 6735.1426 6963.8135 7063.334

fc.4.weight f4 [6, 128]
00000000: 22c1 0e40 e417 a743 9706 8f43 e3c5 8843
00000010: 4609 32bf ea72 aebd c0ce 133f 6332 9043
00000020: 86f5 a643 9447 9543 6566 8e43 eeeb a043
00000030: 83ed a643 ffca 213f 4446 8c43 1341 8843
00000040: 5362 0440 9d7c 9443 1250 9e43 bff1 a643
00000050: d657 9843 6052 a6bc 6867 8d43 7617 a743
00000060: ff0a 9243 aee3 a643 6052 9743 bb09 a743
00000070: 8a36 9243 af86 9b43 d584 9e43 a3f5 a643
00000080: b109 a743 7030 1d3f 5fc9 8a43 cb20 0f3f
00000090: 2f08 a743 65f6 a643 79bd 9343 5d40 913f
000000a0: 1ec6 8b43 efd4 1840 c2a2 143f e593 8f43
000000b0: 99eb a643 0614 8743 75e2 8843 04e2 9243
000000c0: 21f7 a643 1f18 3bbe 3c58 8943 c4e1 a643
000000d0: 8833 8b43 bc11 8f43 9600 8243 547e 9043
000000e0: c5a4 9d43 db2f 803f cfc5 8f43 5ccb a643
000000f0: 9624 a743 2ef1 9543 40d3 8c43 98b5 9543
00000100: 4bc3 0e3f fb70 17bd 20d2 1f3f 0ba4 9b43
00000110: 7aa9 a243 a811 a743 2efd 153f 27ed 9643
00000120: b327 a143 1dfb a143 76d5 afbe da73 8c43
00000130: 540e 0f3f 82b4 0b3f 7c63 9f43 7437 8e43
00000140: 6626 393d c11b a743 ce67 9843 f1ff 92bd
00000150: c3d3 8e43 020f a743 9a67 8843 cf9b 8c43
00000160: 1f23 a743 6f67 9043 fc5d 9143 7601 8f43
00000170: bd6e 043f e813 9543 8bec a643 7306 a743
00000180: 3d79 a143 ca81 8743 0edf a643 05e6 8a43
00000190: 3686 8c43 ea49 9e43 23fd a643 ef20 9bbd
000001a0: 554b 9943 d46d 8843 09f2 a143 79bf 9243
000001b0: 78ea a643 616d f43d 4d16 a743 8dd8 a643
000001c0: 2038 9243 bfc2 8843 c630 9543 5cfb a643
000001d0: 66c9 9f43 740d a743 9c56 8643 d857 063f
000001e0: d374 66bd 1835 9243 0e46 9843 3816 9543
000001f0: e8a7 8d43 d737 8843 1b36 9f43 0ceb a643
00000200: 1ccd 4441 18c5 a843 8cc9 8943 fe14 8443
00000210: 63d2 4f41 7e75 45bd 1d54 63bf ad94 8c43
00000220: 19a3 a843 6065 9043 7689 8743 9e18 9c43
00000230: a1c3 a843 6d6e 053f 526e 8843 8637 8743
00000240: d8f3 57bf a370 9243 2057 9943 4ac3 a843
00000250: c40d 9643 6876 413c 0300 8b43 5dc5 a843
00000260: 18fb 8d43 a7c6 a843 6115 9543 02b9 a843
00000270: 87a0 8c43 4bfd 9743 61fc 9d43 52c8 a843
00000280: d1c0 a843 bf70 86bf 0af4 8343 60d8 263f
00000290: 56bc a843 79c6 a843 1c49 8e43 37ca 373f
000002a0: 34e2 8743 728c c0bf 5623 0a3f 3008 8943
000002b0: 93a4 a843 bf31 8a43 f654 8543 1ac9 8f43
000002c0: 3dbf a843 5d58 223f fe26 8843 d3c1 a843
000002d0: f6ef 8943 da3c 8a43 f7e1 7c43 580f 8d43
000002e0: b251 9a43 2c4f a840 ccda 8e43 c86d a843
000002f0: 22c2 a843 0972 9643 b94b 8743 38d2 9043
00000300: e065 073f aebf 143f 03e4 073f 97f4 9843
00000310: 1320 9c43 17c1 a843 bf7e 0c3f 8e45 9243
00000320: 8f60 9c43 0986 9c43 12a0 41bf 8d40 8843
00000330: 3024 4cbf f9df 253f fcf9 9b43 92b6 8843
00000340: cc83 9cbd 58bf a843 8418 9743 e2f3 413d
00000350: 5c4b 8b43 0ab4 a843 7d9b 8a43 ea63 8a43
00000360: f5cb a843 1ee3 8a43 7399 8d43 04c3 8943
00000370: 948a 203f 682f 9243 59b9 a843 4495 a843
00000380: 8a1c 9c43 79a4 8a43 f2b8 a843 799d 8943
00000390: eda8 8843 2156 9a43 24ab a843 98c7 00bd
000003a0: 0dbc 9643 bb11 8a43 d47b 9c43 8bb0 8d43
000003b0: 5ec2 a843 28b1 2f3f c4c5 a843 dfb7 a843
000003c0: f1f8 8943 c507 8a43 3a7b 9043 d2a9 a843
000003d0: 09a0 9b43 49b7 a843 278d 8943 bccf 7dbf
000003e0: b7fc 853d 3367 8d43 b22e 9643 113f 9343
000003f0: 4bbf 8843 42ed 8943 c07f 9d43 5abe a843
2.230538 334.18665 286.05148 273.546 -0.695454 -0.08518012 0.5773735 288.39365
333.91815 298.5592 284.79996 321.8432 333.85556 0.6320037 280.54895 272.5084
2.0685012 296.97354 316.62555 333.88864 304.68622 -0.020302951 282.80786 334.1833
292.0859 333.77875 302.64355 334.07602 292.4261 311.05222 317.03775 333.91904
334.0757 0.61402035 277.5732 0.55909413 334.06393 333.92496 295.48026 1.1347767
279.5478 2.3879964 0.5806085 287.15543 333.8406 270.15643 273.7692 293.76575
333.9307 -0.1827092 274.68933 333.7638 278.4026 286.13855 260.00458 288.98694
315.28726 1.0014604 287.54538 333.58875 334.28583 299.88422 281.6504 299.4187
0.55766743 -0.03697298 0.6243 311.2816 325.32404 334.13794 0.58589447 301.85275
322.31015 323.96182 -0.34342545 280.9051 0.5588124 0.5457231 318.77722 284.43323
0.045202635 334.21683 304.81097 -0.07177723 285.6544 334.11725 272.8094 281.21725
334.27438 288.80807 290.73425 286.0114 0.51731473 298.15552 333.848 334.05038
322.94717 271.01398 333.7426 277.79703 281.04852 316.57745 333.97763 -0.07574641
306.58853 272.85803 323.8909 293.49588 333.8318 0.11934925 334.17422 333.6918
292.43848 273.52145 298.38104 333.96375 319.57343 334.1051 268.67664 0.5247779
-0.056263756 292.4148 304.5473 298.17358 283.31177 272.43625 318.4227 333.8363
12.300076 337.5398 275.5746 264.164 12.988864 -0.048207752 -0.8880022 281.16153
337.2742 288.792 271.0739 312.19232 337.52835 0.5212162 272.86188 270.43378
-0.8435645 292.87997 306.68066 337.5257 300.10754 0.011808015 278.0001 337.5419
283.96167 337.55197 298.16702 337.44537 281.25412 303.97885 315.9717 337.565
337.50638 -1.0503157 263.90656 0.6517391 337.47137 337.55057 284.57117 0.7179293
271.7672 -1.504286 0.5396017 274.06396 337.28574 276.38864 266.66376 287.5711
337.49405 0.6341608 272.30463 337.51425 275.8747 276.4754 252.88268 282.11987
308.63824 5.2596645 285.70935 336.85767 337.51666 300.8909 270.59158 289.64233
0.52889824 0.5810498 0.53082293 305.91086 312.25058 337.5085 0.548809 292.5434
312.75436 313.04715 -0.7563487 272.5043 -0.7974272 0.6479488 311.953 273.42633
-0.07642326 337.49487 302.19153 0.047351725 278.58875 337.40656 277.21475 276.78058
337.5934 277.77435 283.19882 275.52356 0.62711453 292.37036 337.44803 337.16614
312.22296 277.28494 337.4449 275.23026 273.31973 308.67288 337.33704 -0.031440347
301.46915 276.13852 312.9674 283.37924 337.5185 0.68629694 337.54504 337.4365
275.94485 276.0607 288.9627 337.32672 311.25027 337.43192 275.10275 -0.991451
0.06542342 282.80624 300.3648 294.4927 273.49448 275.85358 314.99805 337.48712

fc.4.bias f4 [6]
00000000: c51b 3dc4 423b 0c44 9359 f445 b23d 99c4
00000010: 2c68 0146 9e38 0246
-756.4339 560.9259 7819.197 -1225.928 8282.043 8334.154
