Assets/dqn_model.pth (torch, 74460 bytes, 6 tensors)

net.0.weight f4 [128, 6]
0	0x3eb46d67	0.35239717
1	0x3d05c0f3	0.032654714
2	0xbe57c559	-0.21071376
3	0xbe68b3f1	-0.22724892
4	0xbeace85e	-0.33771032
5	0xbde7581f	-0.11296105
6	0x3e716949	0.2357532
7	0xbd5cd7d6	-0.053916775
8	0xbd90bc42	-0.07067157
9	0xbe62c860	-0.2214675
10	0x3e82313e	0.25428194
11	0x3f2883e5	0.65826255
12	0x3eb90a43	0.36140642
13	0x3c13b1b6	0.009014538
14	0xbe85ee66	-0.26158446
15	0x3d56dd2b	0.052457016
16	0x3d20a5cc	0.039220616
17	0xbe843c50	-0.25827265
18	0x3ef9bc65	0.48776546
19	0xbe0a07ee	-0.13479587
20	0xbe9286cb	-0.28618464
21	0xbe9be604	-0.30448925
22	0xbeb55d8f	-0.35422942
23	0x3ee589e5	0.44831768
24	0x3e52dd6f	0.20592283
25	0xbdbb7adc	-0.09154293
26	0xbdc782c8	-0.097417414
27	0x3e4ce9f4	0.20011121
28	0xbe3b9cd1	-0.1832154
29	0x3e993ac7	0.29927656
30	0x3e8ee08e	0.27905697
31	0xbd230843	-0.0398028
32	0xbe3bbf9f	-0.18334816
33	0xbee12326	-0.4397213
34	0xbcd5e217	-0.026108785
35	0xbe5f5f28	-0.21813643
36	0x3cb3c1d8	0.021943018
37	0x3d6aa48f	0.05728584
38	0xbc818b80	-0.01581359
39	0x3f3a2c3f	0.72723764
40	0x3d906979	0.07051367
41	0xbef4d204	-0.4781648
42	0xbb4ffe22	-0.0031737168
43	0x3e144b49	0.14481844
44	0x3caa094a	0.020756382
45	0x3f29401f	0.66113466
46	0x3e7a6771	0.24453522
47	0xbf53e972	-0.82778084
48	0x3e22a34a	0.15882602
49	0x3ce65f81	0.028121712
50	0xbd87f654	-0.0663878
51	0xbe18c3be	-0.1491842
52	0xbe8b1776	-0.27166337
53	0x3dbbae86	0.09164147
54	0x3ed400a9	0.41406754
55	0x3d42d685	0.047567863
56	0xbe917296	-0.28407735
57	0x3e96a988	0.29426217
58	0x3d3bdee9	0.04586688
59	0xbebaeb71	-0.36507753
60	0x3dc55f75	0.096373476
61	0xbd480a03	-0.048837673
62	0xbe8abea8	-0.27098584
63	0xbdbd18b5	-0.09233228
64	0x3d996efe	0.07491873
65	0x3d85ec7c	0.065392464
66	0xbc927056	-0.017875832
67	0x3d392b85	0.04520752
68	0xbe7f6cbb	-0.24943821
69	0x3e8bf2cd	0.2733368
70	0x3e94167b	0.289234
71	0xbef8998c	-0.48554647
72	0x3e90966c	0.28239763
73	0xbe5ff53b	-0.21870892
74	0xbeffa102	-0.49927527
75	0x3f1a2148	0.60207033
76	0xbf086846	-0.5328411
77	0x3eb76206	0.35816973
78	0x3ee1a493	0.44070873
79	0xbdf02f51	-0.11727775
80	0xbe9a0151	-0.3007913
81	0xbe688f1c	-0.22710842
82	0x3f22c27e	0.6357802
83	0xbe8a7577	-0.27042744
84	0x3e91db9b	0.28487858
85	0xbd8a632c	-0.06757197
86	0xbdd55d6b	-0.10418209
87	0xbe6dce43	-0.23223214
88	0x3e17c218	0.14820135
89	0x3e89216b	0.26783308
90	0x3d7b3d77	0.061337914
91	0x3bae0d36	0.0053116335
92	0xbe065334	-0.13117677
93	0xbdd0eae7	-0.10201054
94	0xbeb68462	-0.35647875
95	0xbe43f55d	-0.19136567
96	0x3f0e2568	0.5552583
97	0xbdbb9321	-0.09158922
98	0xbe6edc35	-0.2332619
99	0xbe02d0a4	-0.12774903
100	0xbebaa1fa	-0.36451703
101	0x3f0243a4	0.5088446
102	0x3e95f1b0	0.29285955
103	0xbcab9d06	-0.020948898
104	0xbe141f18	-0.14464986
105	0xbda1a548	-0.07892853
106	0xbef37473	-0.4754978
107	0xbd247f47	-0.040160444
108	0x3e1425f1	0.14467598
109	0x3c222227	0.009895838
110	0xbe6245de	-0.22096965
111	0x3db5b791	0.08872903
112	0x3ea92d32	0.33042294
113	0xbe8dddc7	-0.27708265
114	0x3f82dadd	1.0223042
115	0xbf14ed58	-0.5817466
116	0x3e0d183e	0.13778779
117	0xbf4d5b32	-0.8021728
118	0x3f8a7afc	1.0818782
119	0xbfa0d9d8	-1.2566481
120	0x3daf31fd	0.085544564
121	0x3c57eb68	0.013178684
122	0xbd6fa03e	-0.05850243
123	0x3e7d8534	0.24757844
124	0x3decab18	0.11556071
125	0xbeca5b59	-0.39522818
126	0x3e4f834a	0.20264927
127	0x3db33077	0.08749478
128	0xbda9956d	-0.08280454
129	0x3f34cccf	0.70625013
130	0xbf02ed2f	-0.51143163
131	0x3cade649	0.021227973
132	0x3d04f416	0.03245934
133	0xbd920676	-0.071301386
134	0xbe538bad	-0.20658751
135	0x3f0f5dec	0.5600269
136	0xbdca9e03	-0.098934196
137	0xbf108b5f	-0.56462663
138	0x3ed77b0a	0.4208606
139	0xbd8e537e	-0.069495186
140	0xbed156d3	-0.40886554
141	0xbefcef6c	-0.49401414
142	0x3f1f78f8	0.6229396
143	0xbef1f8c6	-0.47260112
144	0x3d646968	0.055764586
145	0xbd38f218	-0.045152754
146	0xbd6c34f5	-0.05766769
147	0x3ea3516b	0.31898054
148	0xbf6f198a	-0.93398345
149	0x3ea5fc0d	0.32418862
150	0x3d82f273	0.063939
151	0x3da8705e	0.08224557
152	0xbe1d9c46	-0.15391645
153	0x3ea04a70	0.3130679
154	0x3e79e1db	0.24402563
155	0xbed7d475	-0.4215428
156	0x3c64edd2	0.013972716
157	0x3d72247f	0.059116837
158	0xbe271783	-0.16317563
159	0x3cf35342	0.029702786
160	0xbf0198be	-0.5062369
161	0xbe405d86	-0.18785676
162	0x3ecfcc2e	0.40585464
163	0xbe1721f6	-0.14759049
164	0xbe0ec58e	-0.13942549
165	0xbcaae1f0	-0.020859689
166	0x3df90cf8	0.12160677
167	0x3eace4aa	0.33768207
168	0x3e872bd2	0.2640062
169	0x3d237594	0.039907053
170	0xbe58d1ca	-0.21173778
171	0x3f053922	0.520403
172	0x3e7d88e1	0.24759246
173	0xbe43e53f	-0.19130419
174	0xbca48059	-0.020080732
175	0x3e13fa7b	0.1445102
176	0xbd56a24e	-0.05240088
177	0x3f0b4d99	0.5441528
178	0xbe90f487	-0.2831156
179	0xbde024c8	-0.109445155
180	0x3edc5c85	0.43039337
181	0xbe6a0da8	-0.22856772
182	0xbe8c4bfd	-0.27401724
183	0x3ea6fd64	0.32615197
184	0x3d5709ad	0.052499462
185	0xbe7329f1	-0.23746468
186	0xbdb92a6a	-0.09041293
187	0x3dcea8e5	0.10090808
188	0x3dd3ac71	0.10335625
189	0x3f1550ec	0.583266
190	0xbe82acc4	-0.25522435
191	0xbf52676a	-0.8218905
192	0x3ea88d87	0.32920477
193	0xbd3630f0	-0.044480264
194	0xbe25fa90	-0.16208863
195	0x3de47241	0.11154605
196	0x3e08cd8b	0.13359658
197	0x3ea913a1	0.33022788
198	0x3ef549f8	0.47907996
199	0x3c214be5	0.009844755
200	0xbe4ca513	-0.19984846
201	0x3de4f66d	0.111798145
202	0xbdee585d	-0.11637948
203	0xbd43397b	-0.04766224
204	0x3e80421a	0.2505043
205	0xbc15b0ea	-0.009136418
206	0xbd011007	-0.031509425
207	0xbea8b3d1	-0.3294969
208	0xbdec306e	-0.11532675
209	0x3ded5166	0.11587791
210	0x3e2b00a8	0.16699469
211	0xbe1d6c6b	-0.1537339
212	0xbedebbfb	-0.43502793
213	0xbe2a3a80	-0.16623878
214	0x3e092c19	0.13395728
215	0xbd9da3d2	-0.07697262
216	0xbbfb0f47	-0.0076617333
217	0xba7ec4e8	-0.00097186724
218	0xbebdd3ce	-0.37075657
219	0x3d258e16	0.040418707
220	0x3f1bd2c2	0.60868466
221	0xbf080ac1	-0.5314141
222	0x3eac641b	0.33670124
223	0x3cda0a0d	0.02661612
224	0xbe236f9b	-0.15960543
225	0x3e8a31b0	0.26991034
226	0xbeebfb11	-0.46089986
227	0xbe72e704	-0.23720938
228	0x3e71366a	0.23555914
229	0xbd0afb64	-0.03393115
230	0xbd3ac9eb	-0.04560272
231	0x3c458a05	0.012056832
232	0x3eb0c19d	0.34522715
233	0x3c529440	0.012852728
234	0x3e16fdc2	0.14745238
235	0xbdd643f3	-0.10462179
236	0xbe7db6fc	-0.24776834
237	0x3e9a1e12	0.30101067
238	0xbeac0a3d	-0.3360156
239	0xbeaf8d52	-0.34287506
240	0x3e040ede	0.12896296
241	0x3daf1ab9	0.08550019
242	0xbd473cf5	-0.048642118
243	0xbbbb2c3b	-0.00571206
244	0x3e59278e	0.21206495
245	0xbe9bfe3c	-0.30467403
246	0x3c07b2e5	0.008282398
247	0x3d663b12	0.056208678
248	0x3c5b5140	0.013386071
249	0x3d38201d	0.0449525
250	0x3aab36be	0.0013062579
251	0xbf1a3452	-0.60236084
252	0x3da6339a	0.08115311
253	0x3dc42c0f	0.09578716
254	0xbe12bcbc	-0.14329809
255	0x3f07ee53	0.5309803

net.0.bias f4 [128]
0	0xbf692982	-0.9107896
1	0xbea18e0c	-0.31553686
2	0xbf1e6605	-0.6187442
3	0x3e10f185	0.14154632
4	0xbe3b9e40	-0.18322086
5	0xbe89ba05	-0.26899734
6	0xbf1e2a7e	-0.6178359
7	0xbf9fae7c	-1.2475123
8	0xbf221216	-0.63308847
9	0xbf63f063	-0.89038676
10	0xbf080104	-0.5312655
11	0xbf353eba	-0.7079884
12	0x3e82fb94	0.25582564
13	0x3cd57328	0.026055887
14	0xbe956237	-0.29176494
15	0xbf412c3f	-0.7545814
16	0xbed2fc8f	-0.41208312
17	0xbe9bf509	-0.30460384
18	0xbf452a5f	-0.7701778
19	0x3e2dac9b	0.16960375
20	0xbef5a947	-0.4798071
21	0xbf36794a	-0.7127882
22	0xbf3c56dd	-0.7357004
23	0xbb5fd260	-0.0034152493
24	0x3eadc5da	0.3394001
25	0xbf8b545e	-1.0885122
26	0xbf73e7b3	-0.9527542
27	0xbdae3b04	-0.0850735
28	0xbf313d75	-0.692344
29	0xbf3d1009	-0.7385259
30	0xbe4f93ec	-0.20271271
31	0xbf23fe5c	-0.64059997
32	0xbe6ad2fd	-0.22932048
33	0xbf33f515	-0.7029584
34	0xbeaf8505	-0.34281173
35	0xbee82e7d	-0.45347968
36	0xbf3245b3	-0.696376
37	0xbf2efbe6	-0.68353117
38	0xbe40c272	-0.18824175
39	0x3b0786fe	0.0020679827
40	0xbf9a5021	-1.2055703
41	0xbf33d33a	-0.7024418
42	0xbf6217cd	-0.8831757
43	0x3dfabf08	0.122434676
44	0xbf79eea5	-0.9762977
45	0xbf1330ff	-0.5749664
46	0xbf2ec8b7	-0.68275017
47	0xbf60545c	-0.8762872
48	0xbea83bfa	-0.32858258
49	0xbef21e15	-0.47288576
50	0xbf2138e8	-0.6297746
51	0xbdb83abb	-0.08995577
52	0xbf12fc2b	-0.5741603
53	0xbf0609bd	-0.5235861
54	0xbe9c747b	-0.30557618
55	0xbeefeda0	-0.4686098
56	0xbeb8489b	-0.35992894
57	0xbf822d14	-1.0170007
58	0xbf435b76	-0.76311433
59	0x3e2c3b13	0.1681941
60	0xbf586593	-0.8452999
61	0xbf1733f2	-0.5906364
62	0xbf494fc2	-0.78637326
63	0xbe96f485	-0.2948343
64	0xbf6bcc77	-0.92108864
65	0xbf08f91c	-0.5350511
66	0x3e3f4090	0.18676972
67	0xbf19e737	-0.6011843
68	0xbfa142ce	-1.2598512
69	0xbc997ca7	-0.018736197
70	0xbed8f65a	-0.4237545
71	0xbfa30d93	-1.2738518
72	0xbe244bb3	-0.16044502
73	0xbe1e7818	-0.154755
74	0xbf4b1fb4	-0.7934525
75	0xbee28f34	-0.4424988
76	0xbe9cda9f	-0.30635545
77	0xbf62786d	-0.88465005
78	0xbf390205	-0.72268707
79	0xbe97a922	-0.29621226
80	0xbf4a04a1	-0.78913313
81	0xbe84460a	-0.25834686
82	0xbe3505d7	-0.17678009
83	0xbf20a61b	-0.62753457
84	0xbdd2197d	-0.10258768
85	0x3da96a95	0.08272282
86	0x3f2767f4	0.65392995
87	0xbf822a8a	-1.0169232
88	0xbe8b077e	-0.27154154
89	0xbf6fb5a1	-0.9363652
90	0xbf3d867c	-0.7403333
91	0xbe820201	-0.25392154
92	0x3e17d75a	0.14828244
93	0xbec291c8	-0.38001847
94	0x3e1cb21d	0.1530232
95	0xbf3fb546	-0.74885976
96	0xbf838ada	-1.0276749
97	0xbf511a3c	-0.81680655
98	0xbef68cb2	-0.48154217
99	0xbe56e347	-0.20985137
100	0xbe804066	-0.25049132
101	0xbcf3006c	-0.029663287
102	0xbe440899	-0.19143905
103	0xbf66a066	-0.900885
104	0xbf011811	-0.5042735
105	0xbf706525	-0.93904334
106	0x3e95f9ff	0.29292294
107	0xbfba95f6	-1.4577014
108	0xbed5d799	-0.4176605
109	0xbec03277	-0.37538502
110	0xbf1eab2f	-0.61979955
111	0xbf3f022f	-0.74612707
112	0xbf2ff9b8	-0.68740416
113	0xbf21b430	-0.6316557
114	0xbf349a26	-0.7054771
115	0xbe41a42f	-0.18910287
116	0xbe84305a	-0.2581814
117	0xbf005864	-0.50134873
118	0xbf445365	-0.7668975
119	0xbeced1c8	-0.40394425
120	0xbf57e28e	-0.8433007
121	0xbf473723	-0.77818507
122	0xbcc7f9db	-0.024411133
123	0xbec4e4af	-0.38455722
124	0x3dc25178	0.09488195
125	0xbf240256	-0.64066064
126	0xbf4ffce6	-0.8124527
127	0xbf3c74d2	-0.73615754

net.2.weight f4 [128, 128]
0	0xbcbfd110	-0.023415118
1	0xbd7a7c36	-0.061153613
2	0x3cc5cf8a	0.024146814
3	0xbd89f86b	-0.06736835
4	0x3b5a9aea	0.0033356496
5	0x3ceb271f	0.028705178
6	0xbc9ce14a	-0.019150395
7	0xbc056090	-0.008140698
8	0xbcae262e	-0.02125844
9	0xbdbd97c5	-0.09257463
10	0x3d86d959	0.065844245
11	0xbbee0b7f	-0.007264554
12	0x3c8560c3	0.016281491
13	0xbdd69e1f	-0.10479378
14	0xbc94ca72	-0.01816294
15	0xbc54f2c7	-0.012997336
16	0x3dad55a4	0.084636
17	0xbd1771d2	-0.036973782
18	0xbd893a22	-0.06700541
19	0xbd727c90	-0.059200823
20	0xbda3f06e	-0.08004843
21	0xbc5bfd42	-0.013427081
22	0x3b807682	0.003920377
23	0xbd9ce37b	-0.07660576
24	0x3d81d02f	0.06338536
25	0xbb5bf01a	-0.003355986
26	0xbde2121c	-0.1103861
27	0xbc906bd8	-0.017629549
28	0xbd74cb6f	-0.059764322
29	0x3d707852	0.058708496
30	0xbd91d10b	-0.0711995
31	0xbd675edb	-0.056486946
32	0xbd102c64	-0.035198584
33	0x3cf4d5b1	0.029887052
34	0xbd56136d	-0.05226462
35	0x3d4e0c50	0.05030471
36	0x3cd5d0b3	0.026100492
37	0xbd0c969c	-0.03432332
38	0x3d3704be	0.044682257
39	0xbd96d07e	-0.073639855
40	0x3d057314	0.03258045
41	0xbdf18b80	-0.11794186
42	0xbd30d6c4	-0.043173566
43	0xbd8e5cd8	-0.06951302
44	0xbe0242f5	-0.12720855
45	0x3d063e65	0.032774348
46	0x3d5e8957	0.054330196
47	0x3bd13bc2	0.0063852975
48	0xbded4315	-0.115850605
49	0x3cace33b	0.021104446
50	0xbd2af110	-0.0417338
51	0x3d1dcb4a	0.03852395
52	0xbd2833ac	-0.041064903
53	0xbda63a0c	-0.0811654
54	0x3d9dc643	0.07703831
55	0x3ce51297	0.027962966
56	0xbdda7076	-0.106659815
57	0xbdc4c04e	-0.09606992
58	0xbb066da1	-0.0020512121
59	0xbd8bdfd2	-0.068298
60	0xbbb5a2dd	-0.0055430965
61	0xbd14e7d5	-0.036353905
62	0xbd972058	-0.07379216
63	0xbdc45018	-0.09585589
64	0xbd107c2d	-0.035274673
65	0xbcf63074	-0.030052401
66	0x3da8c5b1	0.08240832
67	0x3caa2760	0.020770729
68	0xbd68f3c6	-0.056873105
69	0x3bacaa30	0.0052693114
70	0xbcfb4cda	-0.030676294
71	0xbd518774	-0.05115457
72	0x3c03e518	0.008050226
73	0x3d214410	0.03937155
74	0xbd88a84a	-0.066727236
75	0xbccb2731	-0.024798961
76	0xbd9a03fe	-0.07520293
77	0x3cc05090	0.023475915
78	0x3ce2fd36	0.027708631
79	0x3cf61b1e	0.030042227
80	0x3d643c2c	0.055721447
81	0x3d28b91c	0.04119216
82	0x3d6de1c6	0.058076642
83	0x3c137478	0.008999936
84	0xbcdfb2b5	-0.027306894
85	0x3c73a060	0.014869779
86	0xbc9b1f0c	-0.018935703
87	0xbd711460	-0.05885732
88	0x3a8d4741	0.0010778682
89	0xbdb21158	-0.08694714
90	0xb9549d9e	-0.00020276612
91	0x3d6a9883	0.057274353
92	0x3c730791	0.014833347
93	0x3c79f74c	0.015256714
94	0xbdffc3cf	-0.124885194
95	0xbd1716ac	-0.036886856
96	0xbd17abd2	-0.037029095
97	0x3cd01545	0.025400767
98	0x3d368b86	0.044566654
99	0x3d02d68d	0.031942893
100	0x3da30e08	0.079616606
101	0x3b8850f2	0.00416004
102	0xbdb9355f	-0.09043383
103	0x3d7f0de9	0.062269125
104	0xbca9c58f	-0.020724086
105	0x3cdf9443	0.027292376
106	0x3bf54d00	0.0074859858
107	0x3da38233	0.07983818
108	0x3d1e495c	0.03864418
109	0xbc987490	-0.018610269
110	0x3b8be24c	0.00426892
111	0xbaa77ed4	-0.0012778887
112	0xbcba33b7	-0.022729738
113	0x3db48b27	0.08815604
114	0xbd94ef2b	-0.0727218
115	0x3a8c0111	0.001068147
116	0xbcb668eb	-0.022266826
117	0x3cb5bd5f	0.022185026
118	0xbdad0214	-0.08447662
119	0xbb331451	-0.0027325342
120	0xbd43cb5e	-0.047801368
121	0xbd1ed468	-0.038776785
122	0x3c5a1950	0.013311699
123	0xbe09eed6	-0.13470015
124	0xbd086782	-0.033301838
125	0xbd94e0c5	-0.07269434
126	0xbdaab545	-0.08335356
127	0xbd29de1c	-0.041471586
128	0xbd90a751	-0.07063163
129	0xbab448b0	-0.0013754573
130	0xbde31938	-0.110887945
131	0xbe9a6519	-0.30155256
132	0x3e1b6ec1	0.15178968
133	0xbe5dae16	-0.2164844
134	0x3c737b6a	0.014860967
135	0xbdcf3884	-0.101182014
136	0xbcc8a9ca	-0.024495024
137	0xbddbb618	-0.10728091
138	0x3dd00552	0.10157265
139	0x3bc71d24	0.006076472
140	0xbae1a098	-0.0017213998
141	0xbe07fbf4	-0.13279706
142	0x3c3f16ba	0.011663133
143	0x3db434e3	0.0879915
144	0x3e124d5a	0.1428732
145	0xbd60dd46	-0.054898523
146	0xbd86386f	-0.065537326
147	0xbcaa33dd	-0.020776683
148	0xbc0c90f7	-0.008579484
149	0xbd4f0d45	-0.050549764
150	0xbdae1447	-0.08499961
151	0xbde16216	-0.110050365
152	0xbe4f7012	-0.20257595
153	0xbdf71728	-0.120649636
154	0xbd9e9b54	-0.0774447
155	0x3d10c394	0.035342768
156	0xbdae981d	-0.08525107
157	0xbd152b5e	-0.03641831
158	0xbd166c23	-0.03672422
159	0xbda87fcc	-0.082275
160	0xbcb41b65	-0.021985719
161	0xbd489149	-0.04896668
162	0xbdad1db5	-0.08452932
163	0x3dc6df37	0.097105436
164	0xbb9ec03e	-0.0048446944
165	0xbcd2aabe	-0.025716182
166	0xbae24a60	-0.0017264597
167	0x3d22b46a	0.039722838
168	0x3ceb6a77	0.02873729
169	0x3d2cbcde	0.042172305
170	0xbcc961d6	-0.024582785
171	0xbd7047cb	-0.058662217
172	0xbb433b96	-0.0029790155
173	0xbdf03791	-0.117293485
174	0x3d24993f	0.04018521
175	0x3bbe5f75	0.005809719
176	0xbde59e02	-0.11211778
177	0xbdc52137	-0.09625476
178	0xbdc1f290	-0.09470093
179	0xbdb1a051	-0.08673156
180	0xbdc6ccb7	-0.09707015
181	0x3d0a53a6	0.03377118
182	0x3e9973d4	0.29971182
183	0x3cda3809	0.026638048
184	0xbdf745e6	-0.12073879
185	0xbd984496	-0.07434957
186	0xbdcdeec1	-0.10055304
187	0x3c010811	0.007875458
188	0xbd90d493	-0.07071795
189	0x3d33e748	0.04392174
190	0x3d57aab6	0.052653037
191	0x3c2380a8	0.0099794045
192	0x3d0d8d32	0.034558482
193	0xbdad2f4b	-0.08456286
194	0xbd9dcbf1	-0.07704914
195	0xbe4a56a5	-0.19759615
196	0x3d0db9f7	0.034601178
197	0xbca02b1f	-0.019551812
198	0x3bf5f851	0.0075064083
199	0xbdc99ef8	-0.09844774
200	0x3c66581a	0.014059091
201	0xbe43005b	-0.19043104
202	0xbdabb151	-0.0838343
203	0xbddbc04d	-0.10730038
204	0xbd0de9ff	-0.034646984
205	0xbcf85508	-0.030313984
206	0x3d0bd698	0.0341402
207	0x3e3894cf	0.18025516
208	0xbd9a9ad9	-0.07549066
209	0xbd13f2d0	-0.036120236
210	0x3db25b11	0.08708776
211	0xbca5ae23	-0.020224636
212	0x3e6d02d1	0.23145606
213	0x3e5f0072	0.21777514
214	0xbddc43f0	-0.107551455
215	0xbdeee5ea	-0.116649464
216	0xbe8ad9d4	-0.27119315
217	0x3d801130	0.06253278
218	0xbdee6b3d	-0.11641548
219	0xbe033e13	-0.12816648
220	0x3d97a747	0.074049525
221	0x3c441969	0.011968949
222	0x3d1a17e8	0.037620455
223	0x3c8ed744	0.017436631
224	0xbd1699a6	-0.036767624
225	0x3d3a5c3b	0.045498114
226	0xbc89db28	-0.016828135
227	0xbda4b73d	-0.080427624
228	0xbd84676d	-0.064650394
229	0xbdfaa842	-0.12239124
230	0xbe4922da	-0.19642201
231	0x3d40fb1a	0.04711447
232	0xbdb21f2e	-0.08697353
233	0xbd4144b2	-0.047184654
234	0xbc9e4362	-0.01931924
235	0xbb6401d1	-0.0034791122
236	0xbdd3e7a6	-0.10346918
237	0x3d7ab0d3	0.06120379
238	0x3aa43c66	0.0012530207
239	0xbde27b57	-0.110586815
240	0x3c198ef2	0.00937246
241	0xbd30b88e	-0.043144755
242	0xbdec52a5	-0.11539201
243	0xbddde8be	-0.10835408
244	0x3c96706a	0.01836415
245	0x3ca519e8	0.020153955
246	0x3d13a1f1	0.03604311
247	0xbd9d64e4	-0.07685259
248	0xbd3d78e3	-0.046257865
249	0xbdf00e30	-0.11721456
250	0xbcb4c305	-0.022065649
251	0x3d0ce386	0.03439667
252	0xbe261d42	-0.16222098
253	0xbb45a751	-0.0030159543
254	0x3d15ce70	0.036573827
255	0xbd8c2e0c	-0.0684472

net.2.bias f4 [128]
0	0xbe005cff	-0.12535475
1	0xbe0dfabf	-0.13865183
2	0xbdf3e280	-0.11908436
3	0x3e85c66e	0.26127952
4	0xbddbc97e	-0.10731791
5	0xbdaede8e	-0.08538543
6	0xbcf186ee	-0.029483285
7	0xbd92096d	-0.07130704
8	0xbddd454d	-0.10804234
9	0x3e819c22	0.25314432
10	0xbd5bb6b3	-0.053641032
11	0xbe8fd0e6	-0.28089064
12	0xbd4f4fd0	-0.050613225
13	0xbe673b21	-0.2258115
14	0xbd560d32	-0.052258678
15	0xbe14421d	-0.14478345
16	0x3e4eba2d	0.20188208
17	0xbe1bc50c	-0.15211886
18	0xbe00f59c	-0.12593693
19	0xbe3a9db3	-0.1822422
20	0x3d487e14	0.048948362
21	0xbde1917b	-0.11014076
22	0xbba9872a	-0.0051735835
23	0x3df16487	0.11786752
24	0xbd076e59	-0.03306422
25	0xbe256507	-0.1615182
26	0x3cc6141e	0.024179514
27	0xbc814a88	-0.01578261
28	0xbd969480	-0.07352543
29	0xbd2328eb	-0.039833944
30	0xbde9cec3	-0.1141639
31	0xbe3b2de9	-0.18279232
32	0xbd184acf	-0.037180718
33	0xbeff32b2	-0.49843365
34	0xbe87408e	-0.2641644
35	0xbe54aebd	-0.20769782
36	0xbd415ad2	-0.047205754
37	0xbd9c4ff4	-0.07632437
38	0xbdf02081	-0.1172495
39	0xbdcdf950	-0.10057318
40	0xbe3ff93e	-0.18747422
41	0x3ee0f6d7	0.43938324
42	0x3cb92b05	0.022603521
43	0xbe2115b6	-0.15730938
44	0x3d818228	0.063236535
45	0xbd884fd3	-0.0665585
46	0xbdd3ce22	-0.10342051
47	0x3ea06ca2	0.3133288
48	0x3d2fb25a	0.0428947
49	0x3d4da6e9	0.050208006
50	0xbdf8d3e0	-0.12149787
51	0xbe15fd0b	-0.1464731
52	0x3e71f1a1	0.2362733
53	0xbcb0dcba	-0.021589626
54	0xbdd329f8	-0.10310739
55	0x3e5c658a	0.21523109
56	0xbd42b36b	-0.047534388
57	0xbe852220	-0.26002598
58	0xbd167ed5	-0.03674205
59	0xbd64f4c8	-0.055897504
60	0xbe3a77bd	-0.18209739
61	0xbca1a9a9	-0.01973422
62	0x3c2c442c	0.0105143
63	0xbe011be7	-0.126083
64	0xbded021b	-0.11572667
65	0xbc11c047	-0.00889594
66	0xbd8abf5f	-0.067747824
67	0xbe8649f6	-0.26228303
68	0xbdc3d3cd	-0.09561882
69	0xbe2ae7bb	-0.1668996
70	0xbd06c69e	-0.03290426
71	0xbe3b32b1	-0.18281056
72	0xbe3e1907	-0.18564235
73	0xbe8541e2	-0.26026827
74	0xbe3370d1	-0.17523505
75	0x3cffed9f	0.031241236
76	0xbdeb9b63	-0.11504247
77	0xbe2307ea	-0.15920988
78	0xbc138ca2	-0.009005697
79	0xbda6a22c	-0.081364006
80	0xbe131435	-0.14363177
81	0xbd350cbd	-0.0442016
82	0xbe2fcc5d	-0.17167802
83	0xbda4624c	-0.08026561
84	0xbda30553	-0.0796
85	0xbddce9b2	-0.10786761
86	0xbe29ee0f	-0.16594718
87	0xbd7841fc	-0.060609803
88	0xbd9bf04c	-0.07614192
89	0xbe1d307e	-0.1535053
90	0xbd8cdb4b	-0.06877764
91	0xbe42ae94	-0.19011909
92	0xbddce44f	-0.10785734
93	0xbef06d00	-0.4695816
94	0xbe6cac4a	-0.23112598
95	0xbe19b78d	-0.15011425
96	0xbe5e3339	-0.21699227
97	0x3db16c13	0.08663192
98	0xbe2ed773	-0.17074375
99	0xbdb97d95	-0.09057156
100	0xbe04130f	-0.12897895
101	0xbe388692	-0.18020085
102	0xbe1cc280	-0.15308571
103	0xbcccc8e7	-0.024998141
104	0xbe13fcd0	-0.14451909
105	0xbc090fe6	-0.008365607
106	0xbdbeb5cc	-0.09312019
107	0xbce1912c	-0.027535044
108	0xbea058d3	-0.31317768
109	0xbedec4ad	-0.43509427
110	0xbd1683b2	-0.03674669
111	0xbdb53ed4	-0.08849874
112	0xbe0078ac	-0.12546033
113	0x3c48ae2f	0.01224856
114	0xbe057e88	-0.13036549
115	0xbdea8ec8	-0.114530146
116	0xbe1b4675	-0.15163596
117	0xbe3dd4e0	-0.18538237
118	0xbe61281b	-0.21987955
119	0xbe2687a6	-0.16262683
120	0xbe1d7b20	-0.15379
121	0x3ed4876e	0.41509575
122	0xbe7314fb	-0.23738472
123	0xbe113725	-0.14181192
124	0xbdc83f52	-0.097777024
125	0xbea0b0d8	-0.3138492
126	0xbec62e7a	-0.38707334
127	0xbe75c06a	-0.23999181

net.4.weight f4 [4, 128]
0	0xbd44d29c	-0.048052415
1	0xbd2adb5b	-0.0417131
2	0x3d0502a9	0.03247324
3	0xbe839225	-0.25697437
4	0x3d273c6a	0.0408291
5	0xbd15b826	-0.03655257
6	0x3ce9d2b3	0.028542852
7	0xbd1eadbb	-0.0387399
8	0x3d436641	0.04770494
9	0xbe275267	-0.16340028
10	0xbcf41130	-0.029793352
11	0xbdf2a2fa	-0.118474916
12	0xbd7a3b60	-0.06109178
13	0x3d92482d	0.07142673
14	0xbd96589c	-0.0734112
15	0x3d9f407a	0.0777597
16	0xbe16b377	-0.14716898
17	0xbd41837d	-0.047244538
18	0x3c8908a8	0.01672776
19	0x3bf7d278	0.0075629316
20	0x3e5db88d	0.21652432
21	0x3c897089	0.016777294
22	0x3deb0d36	0.11477129
23	0x3d6bafec	0.05754082
24	0x3c5172e5	0.012783741
25	0x3d026ecd	0.03184395
26	0xbdb96a03	-0.09053423
27	0xbdb1e6e0	-0.08686614
28	0x3a79eb2e	0.00095336407
29	0xbe6d6acf	-0.23185275
30	0x3b553419	0.0032532273
31	0x3d9f7273	0.07785501
32	0xbd89771b	-0.06712171
33	0x3e22faa6	0.15915927
34	0xbc176ea6	-0.009242689
35	0x3d31bae0	0.04339111
36	0xbc8fbb8e	-0.017545488
37	0x37ed1d42	2.8266226e-05
38	0xbd025de8	-0.031827837
39	0x3da6d305	0.081457175
40	0x3d675557	0.05647787
41	0xbe8482cc	-0.2588104
42	0x3bb9258e	0.005650229
43	0xbdb65222	-0.08902384
44	0x3c8e57b8	0.017375812
45	0xbdcaf32b	-0.09909662
46	0x3ca15bc0	0.01969707
47	0xbe06cd36	-0.1316422
48	0xbd84d6b8	-0.06486267
49	0xbd1dc5ce	-0.03851872
50	0xbd6eb3eb	-0.058277052
51	0x3d3a5ab7	0.04549667
52	0xbd9f8158	-0.07788342
53	0xbd3607ab	-0.044440906
54	0xbd8a34fe	-0.06748389
55	0x3c8ccfbb	0.017188897
56	0xbd876377	-0.06610768
57	0xbd9920c1	-0.074769504
58	0xbd092996	-0.033486925
59	0xbcbf1dd1	-0.023329647
60	0xbd40b7c4	-0.047050253
61	0x3d1bc3e0	0.038028598
62	0xbd665d46	-0.056241296
63	0xbceaf8d4	-0.028683104
64	0x3c139f68	0.009010173
65	0xbcf2e627	-0.02965076
66	0xbc240fdf	-0.01001355
67	0xbda97f01	-0.08276177
68	0x3c10385e	0.0088025015
69	0x3d89e116	0.06732385
70	0x3c8a302b	0.016868671
71	0xbd267061	-0.040634517
72	0x3caa2fd0	0.020774752
73	0x3d32dc83	0.043667328
74	0x3cdb6ec5	0.026786217
75	0x3d219ce9	0.03945628
76	0xbcbbad55	-0.0229098
77	0x3d483fbf	0.048888918
78	0xbd92f6f0	-0.07176006
79	0xbd4a52b9	-0.049395297
80	0x3ba4a0a4	0.0050240327
81	0x3d8ffbf2	0.07030477
82	0x3d35a03b	0.04434226
83	0x3c9a96a7	0.018870665
84	0xbc6b8bdf	-0.01437661
85	0x39297e56	0.0001616416
86	0xbdf7272c	-0.12068018
87	0x3ce3d667	0.027812196
88	0x3d147365	0.03624286
89	0xbd0dfe95	-0.034666616
90	0xbd39ad2d	-0.04533117
91	0x3d120e17	0.03565797
92	0x3cde6354	0.027146973
93	0x3d484f11	0.04890353
94	0x3d9e2b33	0.07723083
95	0x3cd84002	0.026397709
96	0x3da6c1f1	0.0814246
97	0xbd04b98c	-0.032403514
98	0x3d93666b	0.07197269
99	0x3cfcde35	0.030867675
100	0xbd0c7d85	-0.034299392
101	0xbe2d8c85	-0.16948135
102	0x3d97b169	0.07406885
103	0xbdaf319b	-0.08554383
104	0x3d0378eb	0.03209774
105	0xbc9e5893	-0.019329345
106	0xbd2aa4df	-0.04166114
107	0x3d0071bd	0.03135847
108	0x3d0bea4a	0.034158982
109	0x3d0747b1	0.033027355
110	0xbd9d77ce	-0.076888666
111	0x3dc0f866	0.09422378
112	0xbccc8065	-0.024963567
113	0x3d23ef4f	0.040023144
114	0x3dbb9a90	0.0916034
115	0xbbc4b110	-0.006002553
116	0xbd15069a	-0.03638325
117	0x3c79c1b0	0.015243933
118	0xbdf2a16d	-0.11847196
119	0x3c9e484b	0.019321581
120	0xbd49d3cf	-0.049274262
121	0xbe7c63ec	-0.24647492
122	0x3e028b82	0.1274853
123	0xbc0babd7	-0.0085248565
124	0x3d2226f8	0.039587945
125	0x3dbd531b	0.09244367
126	0x3d82c680	0.06385517
127	0xbce9825c	-0.028504543
128	0x3cec8a13	0.028874433
129	0xbc9849aa	-0.018589813
130	0xbd2e841e	-0.042606466
131	0x3e22855d	0.15871187
132	0xbc80b93d	-0.015713328
133	0xbd6ce94b	-0.057839673
134	0x3c84b83c	0.016201131
135	0xbb2736ce	-0.0025514844
136	0xbcc74713	-0.024325883
137	0x3e51f618	0.20504034
138	0x3ce0c52d	0.02743777
139	0x3d32ee61	0.043684367
140	0xbbab481c	-0.005227102
141	0xbc866889	-0.016407268
142	0x3d4528e4	0.0481347
143	0x3cf4cb81	0.029882194
144	0x3e6c4481	0.23073007
145	0xbc5f3013	-0.013622302
146	0xbd24aa33	-0.040201377
147	0xbc4901a9	-0.012268462
148	0xbda3f66d	-0.08005986
149	0x3cb6ef3c	0.022330873
150	0xbbec7eb7	-0.007217254
151	0x3d0228c8	0.031777173
152	0x3dbfd37c	0.09366509
153	0xbc30e63f	-0.010797082
154	0xbbc4d446	-0.0060067503
155	0x3d39700c	0.04527287
156	0x3dda97e6	0.106735036
157	0xbd22d428	-0.03975311
158	0xbca28f44	-0.019843705
159	0x3b9f3d49	0.0048596007
160	0xbccd2ebf	-0.025046704
161	0xbd394010	-0.04522711
162	0xbd4eae8a	-0.050459422
163	0x3dcd82a5	0.10034684
164	0x3d4f5360	0.050616622
165	0xbc35f10d	-0.011104834
166	0xbc3afe62	-0.011413189
167	0x38c0e7dd	9.198461e-05
168	0x3b3421a0	0.0027485862
169	0x3eaf59cc	0.34248197
170	0x3dbdadc2	0.09261657
171	0xbdc3de4c	-0.09563884
172	0x3b0ac21d	0.002117283
173	0x3e3d0664	0.18459469
174	0x3d4b2219	0.049593065
175	0x3e0fb439	0.14033593
176	0x3d3b35e7	0.045705702
177	0x3e2830bf	0.16424845
178	0xbe0adfb9	-0.13561906
179	0xbd492e00	-0.049116135
180	0x3d5eef0b	0.054427188
181	0xbdd7ff1b	-0.105467044
182	0x3d4421ea	0.047883905
183	0x3c6c200d	0.014411938
184	0xbc34b523	-0.0110295145
185	0xbdb7d8fb	-0.089769326
186	0x3cad9af6	0.021192055
187	0x3dd913e2	0.105994955
188	0x3d442ef4	0.04789634
189	0x3bc908e1	0.0061350917
190	0xbdd08ee0	-0.10183501
191	0x3d322c5a	0.04349933
192	0x3db53d8d	0.088496305
193	0x3ce4f9f5	0.02795122
194	0xba012a81	-0.0004927293
195	0x3cb636fa	0.022243012
196	0x3d11b3dd	0.03557192
197	0x3dcfd722	0.10148455
198	0xba3091ee	-0.00067356124
199	0x3c663434	0.014050532
200	0x3c59a836	0.0132847335
201	0x3d9e96c1	0.07743598
202	0xbb42141a	-0.0029614032
203	0xbcf7d444	-0.030252583
204	0x3bfa2b7d	0.0076345787
205	0x3d6e9690	0.058249056
206	0x3c836c04	0.016042717
207	0xbe731962	-0.23740152
208	0x3c61e4fc	0.013787504
209	0xbd07d3a4	-0.03316082
210	0xbd2a07f0	-0.041511476
211	0xbc85d8d6	-0.016338747
212	0x3db07f82	0.0861807
213	0xbc824337	-0.015901191
214	0x3e02e5f4	0.12783033
215	0xbe3b0a27	-0.18265592
216	0x3d8fcd35	0.07021562
217	0xbbebf020	-0.007200256
218	0xbd342c51	-0.043987576
219	0xbcb43875	-0.021999577
220	0x3d027f10	0.031859457
221	0x3db4e43c	0.08832595
222	0xbdc851c2	-0.09781219
223	0xbd90af02	-0.0706463
224	0x3c0828b8	0.008310489
225	0x3dd67049	0.104706354
226	0xba028bf9	-0.0004979964
227	0xbe0a10bd	-0.13482948
228	0xbd58ada6	-0.05289998
229	0xbc87dc16	-0.016584437
230	0x3d01e134	0.03170891
231	0x3dd6d3d0	0.10489619
232	0xbd33a6d3	-0.043860268
233	0x3d27b524	0.040944234
234	0xb98988ca	-0.00026232592
235	0x3dd19501	0.10233498
236	0x3d49f61a	0.049306966
237	0x3e12e934	0.14346772
238	0x3bc42420	0.0059857517
239	0xbdc78969	-0.09743006
240	0xbd72e50b	-0.059300464
241	0x3dbd1a3c	0.092335194
242	0x3d3acdde	0.045606486
243	0x3d07146a	0.032978453
244	0x3d82b81e	0.06382774
245	0x3ddeb2d1	0.1087395
246	0x3d63158b	0.055440467
247	0xbd5bdbb6	-0.05367633
248	0xbced4636	-0.028964143
249	0x3e8b5aaf	0.27217624
250	0xbc8c376a	-0.017116267
251	0xbb0d51d3	-0.0021563664
252	0xbd821c43	-0.06353047
253	0x3d460fe1	0.048354987
254	0x3e25cbe8	0.16191065
255	0xbd9df841	-0.07713366

net.4.bias f4 [4]
0	0xbdb9bc91	-0.09069169
1	0x3d136b70	0.035991132
2	0x3d9a993c	0.075487584
3	0x3ec2a32a	0.3801511
