Assets/ppo_model.pth (torch, 76440 bytes, 7 tensors)

fc.0.weight f4 [128, 6]
0.23166896 0.6749268 0.7994443 -0.42774373 -0.7817697 0.57408077 0.34839824 -0.54979134
-0.7478533 -0.7012758 -0.5656479 -0.27389503 0.93272805 -0.23824818 -0.44845062 0.42929754
0.8806214 -0.4002506 -0.26558143 0.32023922 -0.80395967 0.7444989 0.89567935 -0.85960263
0.99385285 -0.2930264 -0.6189665 0.4575113 0.20009625 -0.34208846 0.7066035 -0.3737874
0.29813913 -0.9599797 -0.48055738 -0.647686 -0.7927484 -0.5528633 0.2546914 -0.64886415
-0.20079738 0.40185446 0.78454113 0.4767745 -0.22110869 0.9437517 0.8860739 -0.6105217
-0.70549047 0.5882555 0.7354166 -0.6179684 -0.50271165 0.5588509 0.6860685 -0.9232485
0.46732256 -0.293617 0.88775074 0.46122253 -0.35308808 -0.82242864 0.82317954 -0.94450486
-0.57347304 0.23231708 0.6884196 -0.44096634 -0.3797027 0.8943772 -0.19116801 -0.8879551
-0.40867975 0.5471053 -0.627662 1.0036895 0.7975753 -0.40394172 -0.19733183 0.6738334
-0.46631497 0.6722445 0.75822574 -0.6531507 0.28232133 -0.85679847 -0.4364236 0.25293744
0.41819575 -0.76406235 -0.9600537 -0.39175144 0.6275258 -0.9134234 -0.6902068 0.5845103
-0.32303256 0.2967624 -0.60238403 0.7101926 0.62814796 -0.24638312 -0.9411495 0.20779337
0.38243872 0.82011086 0.85791 0.7187762 -0.70709306 0.5066846 -0.2584535 0.28544536
0.4004003 -0.71068263 -0.4660881 0.5951576 -0.83980966 0.44340816 0.6749069 0.6754454
0.40144852 -0.89724064 -0.28172407 0.47080258 -0.71273184 -0.30535805 0.9106054 0.9821928
-0.3492339 0.6457947 0.92877567 0.4316939 -0.87481236 0.25474012 0.86762905 -0.28258085
-0.22669385 0.9676382 0.5706776 0.2486639 -0.29355898 0.40085316 0.97968453 -0.2394339
-0.8275191 0.48191267 0.2689224 -0.5091082 0.97462463 0.905669 -0.92799187 0.222506
0.7688963 0.74526227 0.43437985 -0.5912608 0.982829 0.3415032 -0.26899302 0.95175344
0.22446132 -0.92987 0.9106872 -0.6643267 -0.70300716 -0.39935222 -0.5120937 0.6700715
-0.89603204 -0.56358486 0.7332896 -0.2045292 -0.5689875 0.22695394 -0.42975065 0.7317287
0.5209608 0.85009074 0.4013623 -0.238304 0.21618976 -0.20513363 -0.22107571 0.8516744
0.45607334 -0.41228375 -0.81341594 0.6728038 0.8227344 0.90620774 0.96705717 -0.30989316
0.69083804 -0.54271996 -0.9007673 -0.3974228 -0.58636576 0.9369613 0.5890708 -0.20458676
-0.8326976 -0.6774677 -0.23578176 -0.30339155 -0.6514748 0.41612214 0.382201 0.43669936
0.99316627 0.8428142 0.22305018 -0.5171529 -0.1891771 0.9965969 0.7602878 -0.35137132
-0.18787824 -0.92739654 0.9589672 -0.80722445 -0.4206579 0.30435428 0.73670316 0.58698547
-0.33000094 0.40556875 0.693445 -0.3451005 -0.8817918 0.35087195 0.59841174 0.75598264
0.2017415 -0.9763747 0.96736056 -0.89329314 0.5954885 -0.7083176 -0.7130931 0.88333744
0.76739866 0.7265178 0.41727626 0.72827744 0.8226517 0.9235931 0.9992923 0.56176466
-0.3115025 0.42072532 0.72871065 -0.9949858 0.50029665 -0.2840043 -0.9131235 0.5073087
00000000: a13a 6d3e 01c8 2c3f 62a8 4c3f 3a01 dbbe
00000010: 0f22 48bf f5f6 123f 4161 b23e 20bf 0cbf
00000020: 5073 3fbf d086 33bf 4dce 10bf f83b 8cbe
00000030: 44c7 6e3f 55f7 73be 529b e5be e3cc db3e
00000040: 6770 613f a6ed ccbe 4afa 87be 65f6 a33e
00000050: 4dd0 4dbf 7b97 3e3f 3e4b 653f eb0e 5cbf
00000060: 246d 7e3f 8e07 96be 9774 1ebf ec3e ea3e
00000070: 08e6 4c3e 3826 afbe f8e3 343f 1061 bfbe
00000080: b1a5 983e 3bc1 75bf 9e0b f6be c0ce 25bf
00000090: 8ff1 4abf 7388 0dbf e966 823e f61b 26bf
000000a0: d49d 4dbe debf cd3e b0d7 483f ca1b f43e
000000b0: 516a 62be b699 713f bdd5 623f 264b 1cbf
000000c0: 069b 34bf ea97 163f 4344 3c3f 2d33 1ebf
000000d0: b6b1 00bf da10 0f3f 2fa2 2f3f 045a 6cbf
000000e0: e744 ef3e f854 96be a243 633f 5c25 ec3e
000000f0: f6c7 b4be af8a 52bf e5bb 523f 12cb 71bf
00000100: 21cf 12bf 87e4 6d3e 443c 303f 57c6 e1be
00000110: 6468 c2be e7f5 643f 8cc1 43be 0751 63bf
00000120: 793e d1be 180f 0c3f 75ae 20bf e678 803f
00000130: e52d 4c3f 73d1 cebe 5b11 4abe 5880 2c3f
00000140: d6c0 eebe 3718 2c3f 151b 423f e234 27bf
00000150: 6c8c 903e 2557 5bbf ea72 dfbe 0481 813e
00000160: c11d d63e 9799 43bf 14c6 75bf a593 c8be
00000170: 88a5 203f 1ed6 69bf 65b1 30bf 78a2 153f
00000180: 8664 a5be 3ef1 973e d735 1abf 2fcf 353f
00000190: 4ece 203f db4b 7cbe 2cef 70bf c9c7 543e
000001a0: 02cf c33e c9f2 513f fd9f 5b3f b801 383f
000001b0: 0d04 35bf 15b6 013f 0454 84be e525 923e
000001c0: 4501 cd3e 4cef 35bf 19a3 eebe 405c 183f
000001d0: c4fd 56bf 6506 e33e b3c6 2c3f fde9 2c3f
000001e0: a98a cd3e 90b1 65bf 233e 90be 090d f13e
000001f0: 9875 36bf e457 9cbe 6f1d 693f fd70 7b3f
00000200: c9ce b2be cd52 253f 3ec4 6d3f fc06 dd3e
00000210: b4f3 5fbf 4c6d 823e f01c 5e3f 70ae 90be
00000220: 6f22 68be 23b7 773f ed17 123f c0a1 7e3e
00000230: 5d4d 96be a03c cd3e 9bcc 7a3f 292e 75be
00000240: 4bd8 53bf 42bd f63e 32b0 893e ea54 02bf
00000250: 0081 793f ecd9 673f e090 6dbf 9dd8 633e
00000260: 63d6 443f 82c9 3e3f 0967 de3e de5c 17bf
00000270: ae9a 7b3f 82d9 ae3e 74b9 89be 1da6 733f
00000280: 30d9 653e f60b 6ebf cc22 693f 5111 2abf
00000290: 47f8 33bf e577 ccbe 9318 03bf ce89 2b3f
000002a0: 5b62 65bf 1947 10bf deb8 3b3f 1a70 51be
000002b0: 2aa9 11bf 9d66 683e 4708 dcbe 9252 3b3f
000002c0: b05d 053f 8c9f 593f 5c7f cd3e f705 74be
000002d0: d960 5d3e 8d0e 52be ac61 62be 5507 5a3f
000002e0: 7282 e93e db16 d3be 073c 50bf df3c 2c3f
000002f0: b99e 523f 3bfd 673f 0f91 773f 51aa 9ebe
00000300: c3da 303f b2ef 0abf b098 66bf 007b cbbe
00000310: 111c 16bf b2dc 6f3f 58cd 163f 317f 51be
00000320: ab2b 55bf 866e 2dbf c670 71be 2356 9bbe
00000330: 0dc7 26bf f60d d53e d9af c33e 0f97 df3e
00000340: 2540 7e3f acc2 573f 4467 643e 2264 04bf
00000350: a4b7 41be f920 7f3f 39a2 423f f1e6 b3be
00000360: 2763 40be dc69 6dbf e07e 753f 43a6 4ebf
00000370: 7960 d7be 53d4 9b3e 9498 3c3f ae44 163f
00000380: e2f5 a8be b5a6 cf3e 9d85 313f 03b1 b0be
00000390: 1bbd 61bf 7da5 b33e 8331 193f 1488 413f
000003a0: 5395 4e3e b1f3 79bf f1a4 773f dcae 64bf
000003b0: ef71 183f 4d54 35bf 458d 36bf 6722 623f
000003c0: 3d74 443f 12fd 393f 3ca5 d53e 6470 3a3f
000003d0: 4d99 523f 9970 6c3f 9fd1 7f3f cfcf 0f3f
000003e0: 417d 9fbe 4f69 d73e c88c 3a3f 64b7 7ebf
000003f0: 7113 003f 0369 91be 76c2 69bf fcde 013f

fc.0.bias f4 [128]
0.3237887 -0.7318542 -0.20835121 -0.50749916 -0.49233815 -0.25043237 -0.7593419 -0.9336236
0.60791326 -0.46570122 0.39260456 -0.32343978 0.5524327 -0.42772165 -0.64703625 0.6592073
-0.98775 0.5665529 -0.3673163 0.94330406 -0.7052566 0.8024415 0.6245601 -0.5607989
0.45063025 -0.51683515 -0.2530671 0.8780476 0.6647671 0.8087618 -0.695676 0.70360863
0.31016436 -0.26669064 0.9166025 -0.39731303 0.5238171 -0.39962798 0.8340536 0.58138055
0.61846143 -0.56238896 -0.9041676 -0.47141525 -0.86032665 0.54597455 0.47930363 0.28825942
0.9257031 -0.38669813 -0.5303225 -0.91774815 -0.77833164 0.6009412 0.35656723 -0.23065962
-0.8327754 -0.31737375 0.5637851 -0.5660849 0.38930383 -0.5058417 -0.84518325 -0.46046454
-0.82264614 -0.6617915 -0.6742885 -0.5491608 0.51353383 0.81688064 0.91968226 -0.24701382
-0.5556129 0.28123668 -0.55978 0.36707285 0.8921019 0.31665695 0.5445104 0.43861046
0.27350676 0.36090407 -0.23843393 -0.6205795 -0.3749144 0.62018245 0.7865137 0.45190135
0.5266694 0.93335086 -0.58347815 0.31750193 -0.93814504 -0.80545384 0.852513 0.9241851
0.7702013 0.63658476 -0.40294832 0.7925896 -0.43850574 -0.26435056 -0.6379441 0.40207982
0.93978196 0.75636894 -0.98529476 -1.0023177 0.6366837 -0.3038455 -0.20900445 0.6200095
0.5891715 -0.44020107 -0.4428327 0.25293556 0.26604554 0.3971605 -0.37352318 0.80439603
1.0021235 0.51757795 -0.4751748 -0.48206645 0.80459476 -0.7771751 0.88063276 -0.30324996
00000000: a2c7 a53e cc5a 3bbf 055a 55be 77eb 01bf
00000010: bf13 fcbe ac38 80be 3b64 42bf f501 6fbf
00000020: 34a0 1b3f 6470 eebe 7703 c93e e699 a5be
00000030: 3b6c 0d3f 55fe dabe 2ba4 25bf cfc1 283f
00000040: 2fdd 7cbf 9c09 113f e210 bcbe 607c 713f
00000050: b28b 34bf ce6c 4d3f 2ce3 1f3f 8490 0fbf
00000060: 02b9 e63e 4f4f 04bf 0392 81be bac7 603f
00000070: 2d2e 2a3f 030b 4f3f d317 32bf b21f 343f
00000080: ddcd 9e3e ad8b 88be 76a6 6a3f 9d6c cbbe
00000090: e118 063f 0a9c ccbe 8984 553f 5bd5 143f
000000a0: 7d53 1e3f b9f8 0fbf 8777 67bf 575d f1be
000000b0: 5e3e 5cbf fdc4 0b3f 4967 f53e bd96 933e
000000c0: e1fa 6c3f 4cfd c5be 37c3 07bf 8bf1 6abf
000000d0: be40 47bf 48d7 193f fb8f b63e 0932 6cbe
000000e0: c530 55bf d07e a2be 3854 103f f1ea 10bf
000000f0: d552 c73e d77e 01bf ee5d 58bf 02c2 ebbe
00000100: f098 52bf 2b6b 29bf 2c9e 2cbf cd95 0cbf
00000110: f476 033f 171f 513f 4c70 6b3f 31f1 7cbe
00000120: a63c 0ebf 41fe 8f3e be4d 0fbf f9f0 bb3e
00000130: ca60 643f dc20 a23e 0965 0b3f 8d91 e03e
00000140: 1409 8c3e 6bc8 b83e 0628 74be 4cde 1ebf
00000150: c8f4 bfbe 47c4 1e3f f658 493f 9d5f e73e
00000160: ced3 063f 15f0 6e3f d35e 15bf 9d8f a23e
00000170: 462a 70bf 3932 4ebf 4b3e 5a3f 6597 6c3f
00000180: ea2b 453f 38f7 223f 3e4f cebe 27e7 4a3f
00000190: d383 e0be f558 87be 4e50 23bf 68dd cd3e
000001a0: 8d95 703f 65a1 413f 473c 7cbf f24b 80bf
000001b0: b4fd 223f a391 9bbe 4305 56be f1b8 1e3f
000001c0: f2d3 163f 0962 e1be f8ba e2be c580 813e
000001d0: 1f37 883e 9f58 cb3e 6e3e bfbe e6ec 4d3f
000001e0: 9545 803f fd7f 043f 1d4a f3be 6ad1 f6be
000001f0: ecf9 4d3f f3f4 46bf 2671 613f 9443 9bbe

fc.2.weight f4 [128, 128]
0.6800349 0.66508746 0.5352124 0.5472395 0.522036 0.61705 0.54665923 0.56529623
0.6734073 0.55040157 0.6227465 0.5226407 0.59030145 0.57630384 0.57198966 0.5119079
0.62509215 0.5112959 0.6197859 0.62266546 0.64919513 0.53198034 0.62603784 0.55177903
0.60996026 0.6624947 0.6053492 0.58365697 0.59946036 0.6097256 0.6469548 0.6212162
0.5846124 0.5327301 0.62291 0.5477717 0.516165 0.6603105 0.6503328 0.68262684
0.6173382 0.5471989 0.53855604 0.66561276 0.5643598 0.59800285 0.5832306 0.6504438
0.5390273 0.63658506 0.64133114 0.66734886 0.63982296 0.5717949 0.6047642 0.5939674
0.58414686 0.64498407 0.5460536 0.6512527 0.54085934 0.6513972 0.51462287 0.5225727
0.5755609 0.64743507 0.5645529 0.5328464 0.6071761 0.66185546 0.5358677 0.51497495
0.6189473 0.6548526 0.57209736 0.60524285 0.6372669 0.5761308 0.5217459 -0.011277802
0.5594205 0.6501878 0.5840088 0.6164622 0.5546111 0.534897 0.52820295 0.5207156
0.6750162 0.6642217 0.62878716 0.5245055 0.5505755 0.6512701 0.6244216 0.64320195
0.5804743 0.5708968 0.53778493 0.5738035 0.6653425 0.5436822 0.5258645 0.6647097
0.61664814 0.612614 0.63498765 0.6032045 0.56461173 0.5645388 0.5727902 0.5462155
0.51964015 0.63851875 0.5175019 0.6033432 0.6009186 0.64596343 0.5422374 0.66342473
0.5407983 0.62297994 0.60431695 0.6669222 0.65265816 0.5490073 0.6768831 0.5194704
0.5622593 0.52876323 0.54001945 0.56383115 0.67905533 0.5173727 0.6713274 0.5255786
0.47362322 0.57761323 0.5496365 0.6003116 0.5674496 0.60102814 0.536629 0.5583431
0.017308466 0.56462234 0.56267226 0.6304681 0.52909315 0.58458847 0.5348601 -0.056416463
0.53365916 0.68005234 0.60461444 0.59468955 0.62306774 0.5865884 0.5167954 0.5805996
0.5490361 0.64268535 0.51408195 0.5169935 0.5882726 0.6687718 0.56841457 0.5629602
0.6145787 0.61707187 0.5357747 0.572318 0.5175942 0.5258468 0.61774063 0.68273216
0.64442825 0.5654623 0.63005227 0.58855605 0.6427554 0.6030191 0.49702597 0.5060689
0.6133914 0.6161742 0.63709307 0.68431306 0.65125394 0.6094885 0.6401465 0.634115
-0.07204339 0.5220525 0.6454831 0.6468519 0.6371007 0.6474188 0.6303224 0.66906416
0.5468467 0.6345523 0.6684332 0.567264 0.6700407 0.67027104 0.5425438 0.6140603
0.5381669 0.5511401 0.60547936 0.6133324 0.5298024 0.6171526 0.61233467 0.62664497
0.58626366 0.5802088 0.5283592 0.67659646 0.52007973 0.5615015 0.5712498 0.6702718
0.6533944 0.51004744 0.58020204 0.6612873 0.5985942 0.5452827 0.6024445 0.5610685
0.6062424 0.50749034 0.62650084 0.54059947 0.54207647 0.5451151 0.615386 0.61305815
0.43893546 0.543825 0.5925512 0.6472565 0.6824682 0.5342858 -0.62726015 0.65097535
0.5495445 0.6563813 0.66641134 0.6274193 0.60340333 0.60147744 0.677194 0.5842748
00000000: c416 2e3f 2c43 2a3f ae03 093f e317 0c3f
00000010: 27a4 053f fdf6 1d3f dcf1 0b3f 41b7 103f
00000020: 6c64 2c3f 1ee7 0c3f 516c 1f3f c8cb 053f
00000030: ff1d 173f a688 133f ea6d 123f 650c 033f
00000040: 0a06 203f 4ae4 023f 4aaa 1e3f 0167 1f3f
00000050: a731 263f dd2f 083f 0444 203f 6441 0d3f
00000060: 5b26 1c3f 4199 293f 2af8 1a3f 8b6a 153f
00000070: 3c76 193f fa16 1c3f d49e 253f 0608 1f3f
00000080: 29a9 153f 0061 083f 0877 1f3f c43a 0c3f
00000090: 6423 043f 1c0a 293f 367c 263f a2c0 2e3f
000000a0: e009 1e3f 3a15 0c3f cfde 093f 9965 2a3f
000000b0: e279 103f b716 193f 9a4e 153f 7c83 263f
000000c0: b1fd 093f 3df7 223f 472e 243f 60d7 2a3f
000000d0: 70cb 233f 2761 123f d4d1 1a3f 3f0e 183f
000000e0: a68a 153f ad1d 253f 2bca 0b3f 7fb8 263f
000000f0: c275 0a3f f8c1 263f 53be 033f 53c7 053f
00000100: f657 133f 4ebe 253f 8a86 103f 9f68 083f
00000110: e56f 1b3f 5c6f 293f a02e 093f 66d5 033f
00000120: 5573 1e3f 6ca4 273f f974 123f 32f1 1a3f
00000130: ec23 233f 4f7d 133f 2491 053f 88c6 38bc
00000140: 2f36 0f3f b572 263f 9a81 153f 77d0 1d3f
00000150: fefa 0d3f 03ef 083f 4f38 073f 9e4d 053f
00000160: ddcd 2c3f 6f0a 2a3f 32f8 203f fe45 063f
00000170: 84f2 0c3f a3b9 263f 18da 1f3f e2a8 243f
00000180: f799 143f 4b26 123f 46ac 093f c9e4 123f
00000190: e353 2a3f c22e 0b3f 0e9f 063f 6a2a 2a3f
000001a0: a7dc 1d3f 45d4 1c3f 8d8e 223f 9c6b 1a3f
000001b0: 658a 103f 9d85 103f 61a2 123f c7d4 0b3f
000001c0: 2307 053f f775 233f 017b 043f b374 1a3f
000001d0: cdd5 193f dc5d 253f 12d0 0a3f 34d6 293f
000001e0: c271 0a3f 9d7b 1f3f 84b4 1a3f 6abb 2a3f
000001f0: 9b14 273f be8b 0c3f 3648 2d3f 03fc 043f
00000200: 3af0 0f3f 075d 073f b73e 0a3f 3d57 103f
00000210: 92d6 2d3f 8a72 043f 1ddc 2b3f 528c 063f
00000220: be7e f23e 76de 133f fab4 0c3f 05ae 193f
00000230: 6144 113f fbdc 193f 8560 093f 93ef 0e3f
00000240: 7cca 8d3c 178b 103f 4a0b 103f 5b66 213f
00000250: a672 073f 97a7 153f 97ec 083f f314 67bd
00000260: e39d 083f e917 2e3f 03c8 1a3f 933d 183f
00000270: 5e81 1f3f a82a 163f b44c 043f 2da2 143f
00000280: a18d 0c3f 0787 243f e09a 033f b059 043f
00000290: 0899 163f a134 2b3f 9e83 113f 291e 103f
000002a0: 0855 1d3f 6cf8 1d3f 8828 093f 6f83 123f
000002b0: 0e81 043f e59d 063f 4024 1e3f 89c7 2e3f
000002c0: 40f9 243f 23c2 103f 1b4b 213f 9cab 163f
000002d0: 9e8b 243f 765f 1a3f 307a fe3e bb8d 013f
000002e0: 3807 1d3f 98bd 1d3f 8818 233f 242f 2f3f
000002f0: 94b8 263f 7007 1c3f a4e0 233f 5c55 223f
00000300: 7c8b 93bd 3ca5 053f 613e 253f 1698 253f
00000310: 0819 233f 3dbd 253f cf5c 213f ca47 2b3f
00000320: 25fe 0b3f 0572 223f 701e 2b3f 3738 113f
00000330: ca87 2b3f e296 2b3f 27e4 0a3f 0e33 1d3f
00000340: 4ec5 093f 8517 0d3f b200 1b3f 5a03 1d3f
00000350: 21a1 073f b6fd 1d3f f7c1 1c3f ce6b 203f
00000360: 6015 163f 9088 143f 8c42 073f 6d35 2d3f
00000370: f223 053f 90be 0f3f 6d3d 123f ef96 2b3f
00000380: db44 273f 7892 023f 1f88 143f 204a 293f
00000390: 783d 193f a697 0b3f ce39 1a3f 2fa2 0f3f
000003a0: b432 1b3f e3ea 013f 5c62 203f ba64 0a3f
000003b0: 86c5 0a3f aa8c 0b3f f089 1d3f 61f1 1c3f
000003c0: 26bc e03e 1d38 0b3f 6fb1 173f 9ab2 253f
000003d0: 3cb6 2e3f f4c6 083f 1f94 20bf 52a6 263f
000003e0: f3ae 0c3f 9b08 283f ef99 2a3f 8d9e 203f
000003f0: a478 1a3f 6dfa 193f 965c 2d3f 0993 153f

fc.2.bias f4 [128]
0.61164963 0.5082556 -0.6534476 0.57243764 -0.64175636 -0.06436345 -0.57640046 0.60146666
-0.55507296 -0.61455345 0.5603673 -0.52004594 -0.5277157 0.5742538 0.61147726 -0.6498841
0.5509883 -0.63491946 -0.6458787 -0.6034635 0.57961404 -0.5901279 0.52284503 -0.62741846
-0.6165713 -0.6402763 0.56963325 -0.009690575 -0.6424342 -0.562266 -0.66587585 0.5205481
-0.5650532 0.666873 0.64015627 -0.5813029 0.5998478 0.5379617 0.57502544 0.62636185
-0.61979467 -0.6544573 -0.61109453 0.557194 0.07113186 -0.528456 0.55691916 -0.63162065
-0.67136765 0.5680898 -0.5421429 0.53575706 0.54857016 -0.6810073 0.6359719 -0.54427516
0.6078939 0.5744194 0.615294 0.66346574 0.6334228 -0.53061265 -0.57760847 -0.5594669
-0.6524717 0.536221 0.5760688 0.50862575 0.52118313 -0.55388135 0.58514404 -0.5580021
-0.6376817 -0.5182784 0.64271337 0.5595078 -0.63244146 -0.66547304 0.5099793 0.679892
-0.6530953 0.51547456 0.6260435 -0.6840718 -0.59387565 -0.6409906 -0.5169482 0.58330774
0.62665796 -0.64979786 0.5465443 0.50792843 0.5406002 -0.64740324 0.59426 -0.66041726
0.53300774 0.600131 -0.5275917 -0.5115079 0.5549658 -0.67534184 0.5616838 0.6514477
0.63116664 0.5988151 0.56863314 -0.66326207 0.58858854 -0.59645456 0.5626793 -0.6615126
0.6281501 -0.60583377 0.6342109 -0.6395849 -0.5651963 0.5991027 -0.5902975 -0.5479072
-0.5316021 -0.64873683 0.64730304 0.52133 0.6393542 -0.5889687 -0.5574828 -0.681329
00000000: 1295 1c3f 0a1d 023f 5848 27bf 468b 123f
00000010: 254a 24bf fcd0 83bd fb8e 13bf b8f9 193f
00000020: 4319 0ebf 6053 1dbf 3b74 0f3f bb21 05bf
00000030: 6018 07bf 4c02 133f c689 1c3f ce5e 26bf
00000040: 920d 0d3f 158a 22bf 4e58 25bf 957c 1abf
00000050: 9661 143f 9f12 17bf 2cd9 053f 7f9e 20bf
00000060: 9ed7 1dbf 26e9 23bf 7cd3 113f 38c5 1ebc
00000070: 9176 24bf aaf0 0fbf d776 2abf a442 053f
00000080: 54a7 10bf 30b8 2a3f 48e1 233f 44d0 14bf
00000090: a08f 193f dcb7 093f de34 133f 4059 203f
000000a0: ddaa 1ebf 838a 27bf b170 1cbf 44a4 0e3f
000000b0: 95ad 913d e448 07bf 4192 0e3f e4b1 21bf
000000c0: c0de 2bbf 556e 113f e1c9 0abf 6027 093f
000000d0: 186f 0c3f 7f56 2ebf 0ecf 223f 9e55 0bbf
000000e0: ef9e 1b3f 260d 133f e883 1d3f e4d8 293f
000000f0: ff27 223f 3bd6 07bf 26de 13bf 3939 0fbf
00000100: 6308 27bf c845 093f 3f79 133f 4c35 023f
00000110: 426c 053f 2bcb 0dbf 00cc 153f 3ad9 0ebf
00000120: 1c3f 23bf e5ad 04bf dd88 243f e73b 0f3f
00000130: afe7 21bf 715c 2abf 018e 023f 670d 2e3f
00000140: 4131 27bf 24f6 033f 6344 203f 541f 2fbf
00000150: 3c08 18bf f617 24bf b856 04bf a853 153f
00000160: a86c 203f 2759 26bf 54ea 0b3f 9907 023f
00000170: c664 0a3f 38bc 25bf 6c21 183f 1b11 29bf
00000180: 3273 083f 2fa2 193f 4010 07bf 2ff2 02bf
00000190: 3d12 0e3f 34e3 2cbf 82ca 0f3f 47c5 263f
000001a0: 2394 213f f24b 193f f191 113f 8bcb 29bf
000001b0: bdad 163f 3fb1 18bf c00b 103f e458 29bf
000001c0: 72ce 203f ec17 1bbf a55b 223f d6bb 23bf
000001d0: b4b0 10bf cb5e 193f bd1d 17bf a543 0cbf
000001e0: 1317 08bf 9e13 26bf a7b5 253f e275 053f
000001f0: b8ac 233f a7c6 16bf 31b7 0ebf 946b 2ebf

actor.weight f4 [6, 128]
-0.5712697 -0.6572895 -0.5639941 -0.62570816 -0.55284804 -0.054432202 -0.5675731 -0.58399093
-0.6058461 -0.533766 -0.6492679 -0.66560674 -0.53530276 -0.63687634 -0.6535935 -0.5775626
-0.53593236 -0.6038945 -0.57008857 -0.53576505 -0.5810751 -0.64316803 -0.6839291 -0.5133058
-0.6028116 -0.6696387 -0.62629217 -0.046955615 -0.66555566 -0.5615207 -0.59056157 -0.6424916
-0.5714518 -0.66551566 -0.65156406 -0.64377606 -0.6309913 -0.67547077 -0.6007425 -0.6430009
-0.5726663 -0.58431256 -0.6408052 -0.5260221 0.07520368 -0.5762476 -0.659927 -0.6109289
-0.60889304 -0.5685748 -0.59902966 -0.6690625 -0.5741819 -0.51531774 -0.622066 -0.5721732
-0.64894927 -0.57604647 -0.6172962 -0.638523 -0.65884185 -0.5649204 -0.53480226 -0.6420328
-0.51308686 -0.51319265 -0.6511931 -0.6439909 -0.65663636 -0.64691603 -0.5827176 -0.666569
-0.5588234 -0.6230172 -0.65488654 -0.58457315 -0.64348936 -0.5367102 -0.5656758 -0.6361584
-0.6131493 -0.6523583 -0.65029585 -0.6380332 -0.6636723 -0.5744298 -0.55662864 -0.6631125
-0.67969775 -0.63056606 -0.6440745 -0.68083924 -0.5860169 -0.5177738 -0.6216626 -0.6783073
-0.5985954 -0.5339676 -0.5222399 -0.6058178 -0.62844676 -0.62848353 -0.5633625 -0.5810136
-0.5404741 -0.6548616 -0.5273392 -0.5348048 -0.5736773 -0.6293074 -0.68330467 -0.5582585
-0.58783036 -0.5656966 -0.61826897 -0.5089394 -0.5986026 -0.6299787 -0.60309887 -0.56119776
-0.5222944 -0.66359764 -0.612077 -0.5896726 -0.629802 -0.53208905 -0.51096684 -0.51543736
-0.6297063 -0.6578638 -0.60798544 -0.5534791 -0.6042647 0.04388947 -0.6561517 -0.6482989
-0.6750858 -0.5346478 -0.5991293 -0.5331952 -0.630601 -0.680879 -0.67062914 -0.6162314
-0.56779104 -0.6666065 -0.6102806 -0.5101559 -0.52870184 -0.662758 -0.5711539 -0.54631233
-0.6718665 -0.67475575 -0.560186 0.0706329 -0.5145265 -0.5857128 -0.59454334 -0.549531
-0.6659968 -0.6536512 -0.59188366 -0.54989356 -0.53425735 -0.6213383 -0.5939109 -0.6253269
-0.57378215 -0.53696907 -0.6793581 -0.56257695 -0.07715518 -0.61948454 -0.666381 -0.5910282
-0.5831222 -0.5402813 -0.65870535 -0.53759867 -0.66236997 -0.5626007 -0.5455605 -0.66476434
-0.59398144 -0.6067551 -0.52197176 -0.6579594 -0.5897045 -0.58027774 -0.66109115 -0.5776887
-0.61018085 -0.5999773 -0.58989114 -0.65641075 -0.5899286 -0.6070568 -0.59917736 -0.6702172
-0.6242077 -0.5825957 -0.55256665 -0.667591 -0.6578848 -0.6059738 -0.57019156 -0.53846705
-0.60209525 -0.63074225 -0.60295135 -0.63003063 -0.6596912 -0.5284738 -0.53463167 -0.6781529
-0.61960405 -0.5728243 -0.631952 -0.5502529 -0.6403828 -0.65867734 -0.5384796 -0.6206589
-0.64521015 -0.634203 -0.6012302 -0.60064214 -0.6478155 -0.6688458 -0.60076535 -0.5943462
-0.5724684 -0.6404241 -0.5246205 -0.5540352 -0.5105212 -0.57858133 -0.678991 -0.6521026
-0.5173382 -0.6178555 -0.6816891 -0.6054956 -0.62682474 -0.52331406 -0.58145595 -0.5916377
-0.5159955 -0.6553275 -0.6834508 -0.5186251 -0.5797474 -0.6015354 -0.5297511 -0.5948835
00000000: bb3e 12bf 2044 28bf eb61 10bf 692e 20bf
00000010: 7387 0dbf 4df4 5ebd 784c 11bf 6e80 15bf
00000020: bb18 1bbf e3a4 08bf 6c36 26bf 3465 2abf
00000030: 9a09 09bf 540a 23bf e751 27bf 24db 13bf
00000040: dd32 09bf d498 1abf 53f1 11bf e627 09bf
00000050: 56c1 14bf a9a6 24bf fa15 2fbf 0268 03bf
00000060: dc51 1abf 716d 2bbf af54 20bf 8854 40bd
00000070: db61 2abf d2bf 0fbf 0b2f 17bf 547a 24bf
00000080: aa4a 12bf 3c5f 2abf e7cc 26bf 82ce 24bf
00000090: a588 21bf a7eb 2cbf 43ca 19bf b59b 24bf
000000a0: 429a 12bf 8295 15bf cf0b 24bf 62a9 06bf
000000b0: 6304 9a3d f684 13bf faf0 28bf d665 1cbf
000000c0: 6ae0 1bbf 1e8e 11bf 025a 19bf ae47 2bbf
000000d0: 96fd 12bf ddeb 03bf b83f 1fbf f179 12bf
000000e0: 8a21 26bf c877 13bf 2007 1ebf 3e76 23bf
000000f0: dca9 28bf a09e 10bf cde8 08bf 435c 24bf
00000100: a959 03bf 9860 03bf 97b4 26bf 96dc 24bf
00000110: 5219 28bf 4a9c 25bf fb2c 15bf 44a4 2abf
00000120: 0d0f 0fbf 0e7e 1fbf a5a6 27bf 96a6 15bf
00000130: b8bb 24bf d765 09bf 21d0 10bf 47db 22bf
00000140: 5af7 1cbf f400 27bf ca79 26bf 2556 23bf
00000150: 6ee6 29bf d50d 13bf 377f 0ebf bec1 29bf
00000160: ac00 2ebf c76c 21bf 11e2 24bf 7b4b 2ebf
00000170: 3405 16bf d38c 04bf 4825 1fbf 8ca5 2dbf
00000180: 8c3d 19bf 1ab2 08bf 84b1 05bf e016 1bbf
00000190: e3e1 20bf 4ce4 20bf 8638 10bf 4fbd 14bf
000001a0: 835c 0abf 03a5 27bf b4ff 06bf f8e8 08bf
000001b0: 84dc 12bf 4a1a 21bf 0eed 2ebf 07ea 0ebf
000001c0: 0d7c 16bf 7ed1 10bf e046 1ebf da49 02bf
000001d0: 053e 19bf 4946 21bf b064 1abf a8aa 0fbf
000001e0: 16b5 05bf 89e1 29bf 14b1 1cbf c9f4 16bf
000001f0: b43a 21bf fd36 08bf b9ce 02bf b4f3 03bf
00000200: 6f34 21bf c369 28bf efa4 1bbf ceb0 0dbf
00000210: 17b1 1abf 72c5 333d 8ff9 27bf ebf6 25bf
00000220: 6cd2 2cbf aede 08bf 8a60 19bf 7b7f 08bf
00000230: 116f 21bf 164e 2ebf 5aae 2bbf 57c1 1dbf
00000240: c15a 11bf b9a6 2abf 593b 1cbf 9499 02bf
00000250: 0159 07bf 82aa 29bf 2437 12bf 20db 0bbf
00000260: 71ff 2bbf cbbc 2cbf 5a68 0fbf fba7 903d
00000270: 02b8 03bf 46f1 15bf fe33 18bf 10ae 0cbf
00000280: c47e 2abf af55 27bf b085 17bf d3c5 0cbf
00000290: 17c5 08bf 0710 1fbf 8b0a 18bf 6c15 20bf
000002a0: 63e3 12bf ce76 09bf 6aea 2dbf 0b05 10bf
000002b0: 8903 9ebd 8a96 1ebf f297 2abf a04d 17bf
000002c0: 7f47 15bf e04f 0abf eaa0 28bf 11a0 09bf
000002d0: 1491 29bf 9906 10bf daa9 0bbf ff2d 2abf
000002e0: 2b0f 18bf 4d54 1bbf f19f 05bf 0770 28bf
000002f0: e0f6 16bf 158d 14bf 453d 29bf 68e3 13bf
00000300: d034 1cbf 1d98 19bf 1b03 17bf 890a 28bf
00000310: 9005 17bf 1368 1bbf b063 19bf 5b93 2bbf
00000320: 13cc 1fbf fe24 15bf 0275 0dbf 3ee7 2abf
00000330: 236b 28bf 1921 1bbf 13f8 11bf fad8 09bf
00000340: ea22 1abf 5378 21bf 055b 1abf b049 21bf
00000350: 86e1 28bf 0f4a 07bf 9fdd 08bf 6e9b 2dbf
00000360: 5f9e 1ebf 9da4 12bf 9bc7 21bf 60dd 0cbf
00000370: 21f0 23bf 149f 28bf cdd9 09bf 80e3 1ebf
00000380: 7e2c 25bf 215b 22bf 39ea 19bf afc3 19bf
00000390: 3dd7 25bf 7a39 2bbf c2cb 19bf 1327 18bf
000003a0: 4a8d 12bf d5f2 23bf 874d 06bf 40d5 0dbf
000003b0: 84b1 02bf e81d 14bf 5bd2 2dbf 32f0 26bf
000003c0: 4770 04bf c72b 1ebf 2d83 2ebf c201 1bbf
000003d0: 9677 20bf e9f7 05bf 4cda 14bf 9175 17bf
000003e0: 4818 04bf 8bc3 27bf a2f6 2ebf 9dc4 04bf
000003f0: 536a 14bf 39fe 19bf c59d 07bf 494a 18bf

actor.bias f4 [6]
-0.67257273 -0.62875754 0.59586334 0.65262675 -0.6055545 -0.6479617
00000000: ba2d 2cbf 41f6 20bf 808a 183f 8c12 273f
00000010: 9f05 1bbf d1e0 25bf

critic.weight f4 [1, 128]
-0.048097424 0.004962653 -0.046494115 0.021879263 0.083301984 0.075299285 -0.033173952 0.027079262
0.035248548 -0.07415894 -0.051493384 0.02623573 0.08450539 -0.08313153 -0.024727449 -0.08310811
-0.05666841 0.07003101 -0.013935246 -0.038155627 -0.02756504 -0.01720684 0.080135114 -0.052048355
0.029455565 0.030383125 -0.03452248 0.039968856 0.012845203 -0.015603542 0.025332533 0.0070710927
-0.066686064 -0.04084665 -0.047719315 -0.055754304 0.060906492 -0.049053483 0.032563053 -0.046277385
-0.05392291 -0.05513387 0.04376983 -0.06747485 0.07116298 -0.013083026 0.010983139 -0.0639313
-0.051740967 0.032500856 0.02346576 -4.2639673e-05 -0.07916358 0.054612182 0.02490843 0.045296244
-0.026474133 -0.049867414 -0.064938106 0.050545268 -0.058011986 0.06982715 0.050647862 0.068252765
-0.08383209 -0.00025046617 0.085090406 0.037157305 0.038736425 -0.060630277 0.017962344 -0.018667057
0.0071382523 0.07954683 0.019297123 0.047276832 -0.028698578 -0.03004713 -0.05137466 -0.06234309
-0.08623682 -0.013762161 -0.05203611 -0.037198324 0.027549043 -0.033009075 -0.085340895 -0.011746861
0.07840275 0.020757161 -0.026354667 -0.037054516 -0.052095126 0.069654204 -0.0026644692 -0.03441991
-0.017182857 -0.08694777 0.0078069046 -0.028478205 -0.03882775 0.029212378 0.061926164 -0.07670595
0.050436847 -0.027032629 0.034450784 -0.068797514 0.04367458 0.078262605 -0.028396036 0.067854546
0.06862564 0.052640133 0.07688033 0.047366895 0.03717061 0.08569499 0.025233604 -0.086545296
-0.013492703 -0.08673753 0.024570242 0.053855963 0.053856857 -0.008343063 -0.02067376 0.001832366
00000000: ce01 45bd c09d a23b 9d70 3ebd 243c b33c
00000010: 3b9a aa3d 8336 9a3d 69e1 07bd 54d5 dd3c
00000020: c860 103d a4e0 97bd baea 52bd 50ec d63c
00000030: 2911 ad3d dd40 aabd 3891 cabc 9634 aabd
00000040: 221d 68bd 6b6c 8f3d a850 64bc 1349 1cbd
00000050: 14d0 e1bc 5cf5 8cbc e11d a43d a830 55bd
00000060: cc4c f13c 08e6 f83c 7267 0dbd 62b6 233d
00000070: b074 523c 00a6 7fbc 2c86 cf3c a0b4 e73b
00000080: b492 88bd d14e 27bd 5475 43bd a05e 64bd
00000090: 1679 793d 4eec 48bd d660 053d 5b8d 3dbd
000000a0: 45de 5cbd 0ed4 61bd fe47 333d 4130 8abd
000000b0: e5bd 913d 305a 56bc a0f2 333c 6aee 82bd
000000c0: 56ee 53bd 9e1f 053d 443b c03c 00d8 32b8
000000d0: 8420 a2bd 06b1 5f3d c40c cc3c 8e88 393d
000000e0: 48e0 d8bc c641 4cbd 45fe 84bd 8e08 4f3d
000000f0: fa9d 6dbd 8901 8f3d 2274 4f3d 1bc8 8b3d
00000100: 29b0 abbd 0051 83b9 e143 ae3d 4232 183d
00000110: 16aa 1e3d 7457 78bd c425 933c a8eb 98bc
00000120: 00e8 e93b 73e9 a23d 0015 9e3c 5aa5 413d
00000130: 4819 ebbc 6625 f6bc 3c6e 52bd 785b 7fbd
00000140: ee9c b0bd b07a 61bc d123 55bd 455d 18bd
00000150: 88ae e13c 8634 07bd 35c7 aebd e875 40bc
00000160: 9f91 a03d ec0a aa3c bee5 d7bc 7ac6 17bd
00000170: b361 55bd dda6 8e3d 609e 2ebb e4fb 0cbd
00000180: 10c3 8cbc ac11 b2bd 10d1 ff3b 204b e9bc
00000190: d909 1fbd cc4e ef3c 4aa6 7d3d 0218 9dbd
000001a0: de96 4e3d 8873 ddbc 441c 0d3d b6e5 8cbd
000001b0: 1ee4 323d 2548 a03d ce9e e8bc 53f7 8a3d
000001c0: 998b 8c3d 2e9d 573d 6f73 9d3d ca03 423d
000001d0: 3640 183d db80 af3d b4b6 ce3c a93e b1bd
000001e0: 8010 5dbc 72a3 b1bd 8847 c93c 1298 5c3d
000001f0: 0299 5c3d 58b1 08bc 045c a9bc 002c f03a
